source/assets/cozmo_resources/config/engine/vision/dnn_models/dfp_victor_6x6_tiny_128x128_36b906234ae4405dbf479d42d87787da.tflite (tflite, 89600 bytes, 56 tensors)

conv1/convolution_bias f4 [2]
0	0x4020442c	2.504161
1	0x3f681c17	0.9066786

conv1/kernel f4 [2, 3, 3, 3]
0	0x3ff7e3d6	1.9366405
1	0xbfaa2067	-1.3291138
2	0xbef856f4	-0.4850384
3	0x3d94dc4e	0.07268582
4	0xbf7f6053	-0.99756354
5	0x3f8ab586	1.0836647
6	0x3c8d53c2	0.017251853
7	0xbf9ce7b6	-1.2258213
8	0x3f9efbba	1.2420571
9	0x3f7ba05e	0.98291576
10	0xc005e7a5	-2.0922635
11	0x3f8c8208	1.0977182
12	0x3fabe1ba	1.3428261
13	0xbfa405a4	-1.2814221
14	0xbb59ce2f	-0.0033234467
15	0x3e9d1319	0.30678633
16	0xbea3a035	-0.31958166
17	0x3e51638a	0.20448127
18	0x3fb7f273	1.4370865
19	0xc00cbdb0	-2.1990776
20	0x3f3ff92a	0.7498957
21	0x3fb0de81	1.3817903
22	0xbf870b24	-1.0550275
23	0xbe86df27	-0.26342127
24	0xbf1bc47a	-0.60846674
25	0x3e11612b	0.14197223
26	0x3f2157af	0.6302442
27	0x3d31a15d	0.04336678
28	0xbd5807be	-0.05274176
29	0x3dc30cc3	0.095239185
30	0xbe7f53f6	-0.24934372
31	0xbdb3474d	-0.08753834
32	0x3eb1bb21	0.3471308
33	0xbe921fdd	-0.28539935
34	0xbe5ffc07	-0.21873485
35	0x3ea535e6	0.32267684
36	0xbe416bfa	-0.18888846
37	0xbe0cc50b	-0.13747041
38	0x3ea70311	0.32619527
39	0x3c95e94a	0.018299717
40	0xbeb90166	-0.3613388
41	0x3da71f63	0.081602834
42	0xbe3e7437	-0.1859902
43	0xbe52d0c3	-0.20587449
44	0x3e40af59	0.1881689
45	0xbbf5f340	-0.0075058043
46	0xbdde5248	-0.10855538
47	0x3d413335	0.047167975
48	0xbcf6e841	-0.030140044
49	0xbe6be69f	-0.23037194
50	0x3e4d06af	0.20022081
51	0x3dd63c99	0.10460777
52	0xbe6752e5	-0.22590216
53	0xbb08534a	-0.0020801597

conv_dw_1/depthwise_bias f4 [2]
0	0x3f5cf0f4	0.86305165
1	0xbf3b3aeb	-0.73136777

conv_dw_1/depthwise_kernel f4 [1, 3, 3, 2]
0	0xbef41545	-0.47672477
1	0xbd74eccc	-0.05979614
2	0x3db80890	0.08986008
3	0x3f44557a	0.76692927
4	0x3f0135a3	0.5047247
5	0xbf240f2c	-0.6408565
6	0xbe579984	-0.21054655
7	0xbe9158b9	-0.28388003
8	0xbdbba292	-0.09161867
9	0x3fc301db	1.5234941
10	0x3fa7a79a	1.3098023
11	0x3f0447da	0.51672137
12	0xbe7373d2	-0.2377465
13	0x3eff4de8	0.49864125
14	0xbe293dd7	-0.16527496
15	0xbf56a1fa	-0.83840907
16	0xbe961bc8	-0.2931807
17	0x3d30c8f4	0.043160394

conv_dw_10/depthwise_bias f4 [32]
0	0xbe3c2b3c	-0.18375868
1	0x3fd5954e	1.6686189
2	0x3f86722e	1.0503595
3	0x3d2fe700	0.04294491
4	0x3fbc4e46	1.4711387
5	0xbf3f07fb	-0.7462155
6	0x4049a4a5	3.150674
7	0xbe5f5fcc	-0.21813887
8	0xbe7327fd	-0.23745723
9	0x3fd73951	1.6814367
10	0xbeba286a	-0.36358958
11	0x3ff42f76	1.9076984
12	0x3d456f60	0.04820192
13	0xbeae42ea	-0.34035426
14	0xbf9dbd69	-1.2323428
15	0x4023ddc4	2.5604105
16	0xbe535b80	-0.20640373
17	0x3f38d550	0.7220049
18	0xbf09bc16	-0.5380262
19	0x3e808bde	0.2510671
20	0x3fed253c	1.8526988
21	0x3eb5a74a	0.35479194
22	0x3f8ea431	1.1143857
23	0x3e7bf9c4	0.24606997
24	0x3fd0d492	1.6314871
25	0x40185812	2.3803754
26	0xbf98a855	-1.1926371
27	0x3fe3645a	1.7765
28	0xbf84b768	-1.0368471
29	0x3fcf3e72	1.6190932
30	0xbed1ea20	-0.40998936
31	0xbed6ae21	-0.41929725

conv_dw_10/depthwise_kernel f4 [1, 3, 3, 32]
0	0x3eac63e2	0.33669955
1	0xbf3067df	-0.68908495
2	0xbe268add	-0.1626391
3	0x3e4afc6b	0.19822852
4	0xbf2a37d0	-0.66491413
5	0x3ff2da2e	1.8972833
6	0x3e7cfa3b	0.2470483
7	0x3f852c54	1.0404153
8	0xbde9a9cd	-0.1140934
9	0xbce39186	-0.027779352
10	0xbf698850	-0.9122362
11	0xbe92e6c3	-0.28691682
12	0xbeaa65d7	-0.33280823
13	0xbe0bf0df	-0.13666104
14	0xbed2e913	-0.41193447
15	0xbf05f26c	-0.5232303
16	0x3ed4b8c6	0.4154722
17	0xbfc09fca	-1.5048764
18	0x3e851854	0.25995123
19	0x3f442dc1	0.76632315
20	0xbf14404e	-0.5791062
21	0x3e9054dc	0.28189743
22	0x3e97c33a	0.29641134
23	0x3ec77686	0.38957614
24	0xbf048b99	-0.5177551
25	0xbf273e28	-0.6532922
26	0x3f9e30aa	1.2358601
27	0xbd26328e	-0.040575556
28	0xbf68db92	-0.9096004
29	0x3ebe2a0f	0.37141463
30	0x3e6c4725	0.23074014
31	0x3d8b6e9a	0.06808205
32	0x3f0f1e6e	0.55905807
33	0x3e7b968e	0.24569151
34	0xbed5afe1	-0.41735747
35	0x3e437296	0.1908668
36	0xbf178cea	-0.5919939
37	0xbf86fba2	-1.0545542
38	0xbdaee513	-0.08539786
39	0x3ea4b929	0.32172516
40	0x3f8deadb	1.1087297
41	0xbea51f15	-0.32250276
42	0xbf3ab498	-0.72931814
43	0x3e41b7eb	0.18917815
44	0x3f8b3c62	1.0877802
45	0xbe45cbc7	-0.19316016
46	0x3f20b89b	0.62781686
47	0xbe2b73f8	-0.16743457
48	0x3f986bdd	1.1907917
49	0xbe9300fc	-0.2871169
50	0x3f351e77	0.7074961
51	0x3e8837c8	0.26605058
52	0xbe901e7f	-0.28148267
53	0xbe8549bc	-0.26032817
54	0xbf05e45d	-0.5230158
55	0x3c0b058c	0.008485209
56	0xbf01b98f	-0.50673765
57	0xbdf9ae37	-0.12191432
58	0x3ea9383d	0.3305072
59	0xbe9b2f15	-0.30309358
60	0x3efca175	0.49341932
61	0xbf1f51db	-0.62234277
62	0xbb483219	-0.0030547439
63	0xbee46298	-0.4460647
64	0x3f8ec9c5	1.1155325
65	0x3eb29f28	0.34887052
66	0xbec55c5b	-0.38547024
67	0x3ee89344	0.45424855
68	0xbec61b71	-0.3869281
69	0xc0063934	-2.0972414
70	0xbeecc8f6	-0.4624707
71	0xbd517d23	-0.05114473
72	0x3eab6b25	0.33480182
73	0xbfaf35e9	-1.3688327
74	0x3e994e12	0.29942375
75	0xbe8a33b9	-0.26992586
76	0x3e52dc3e	0.20591828
77	0x3ed6b6d8	0.41936374
78	0xbe4f5ce2	-0.20250276
79	0xbd03e876	-0.032204114
80	0xbf220482	-0.6328813
81	0x3e9349c0	0.28767204
82	0x3f22fefd	0.6367033
83	0xbf1a3280	-0.60233307
84	0xbe27247f	-0.16322516
85	0xbf6df9e4	-0.9295943
86	0x3f8b1ea1	1.0868722
87	0xbd43e434	-0.047825053
88	0xbe6044c8	-0.21901238
89	0xbfe0973a	-1.7546151
90	0x3eb3a6e0	0.35088253
91	0xbf3c43bf	-0.7354087
92	0x3f1b2517	0.6060347
93	0xbf390ed2	-0.7228824
94	0xbf058323	-0.52153224
95	0xbf75aabb	-0.9596364
96	0xbf965dd4	-1.1747384
97	0xbf8a1be6	-1.0789764
98	0xbdd8b66c	-0.10581669
99	0x3e6cd4de	0.23128077
100	0xbe6e47c4	-0.23269564
101	0x3f472c89	0.7780233
102	0xbec3f857	-0.38275406
103	0x3efad12b	0.48987707
104	0xbf59c572	-0.850669
105	0x3ef1a52c	0.4719633
106	0x3f0460e9	0.51710373
107	0xbf17f9ec	-0.59365726
108	0xbd8b9d33	-0.06817093
109	0x3fa4f866	1.2888305
110	0x3eca3482	0.39493185
111	0xbeb1c6a3	-0.3472186
112	0xbde34710	-0.110975385
113	0xbef996d4	-0.48747885
114	0xbe0c5796	-0.13705286
115	0x3ed8b96c	0.42328966
116	0xbdd8a3b3	-0.10578098
117	0x3e06a0c6	0.13147268
118	0xbf80a0ad	-1.0049034
119	0xbf861826	-1.047612
120	0xbf49302c	-0.7858913
121	0xbf4c2b55	-0.7975362
122	0x3ece5aed	0.40303746
123	0xbee8a84b	-0.45440897
124	0x3de851f4	0.11343756
125	0xbb0e00d3	-0.0021667972
126	0x3f362312	0.71147263
127	0x3ea59ab4	0.32344592
128	0xbd37d9fe	-0.044885628
129	0xbe8690e6	-0.26282424
130	0x3e0d8d84	0.13823515
131	0xbe30fa7e	-0.17283055
132	0xbf2fd8f4	-0.6869042
133	0x3f2b2570	0.66854
134	0x3ebc9a76	0.36836594
135	0xbe706a53	-0.2347806
136	0x3ec8a185	0.3918573
137	0x3f36cc86	0.7140583
138	0x3d2811e1	0.041032676
139	0xbf153f1d	-0.5829943
140	0x3e9f189b	0.3107346
141	0x3e27eb57	0.16398369
142	0x3e956e98	0.2918594
143	0xbcbc59ca	-0.022992034
144	0xbf03a862	-0.51428807
145	0x3f58f440	0.84747696
146	0xbdbb2a41	-0.09138919
147	0x3e94138e	0.2892117
148	0xbea6f77f	-0.326107
149	0x3e9a97eb	0.3019403
150	0xbee349df	-0.44392297
151	0xbec9d3e4	-0.39419472
152	0xbd822f28	-0.063566506
153	0x3f3f724a	0.74783766
154	0x3db05229	0.08609421
155	0xbd375b6a	-0.044764914
156	0x3eddb128	0.43299222
157	0xbdd7b547	-0.10532623
158	0x3d2bfeb8	0.041990966
159	0xbe0ba870	-0.13638473
160	0x3f592e94	0.848367
161	0x3d8aebaf	0.06783234
162	0x3e1ec431	0.15504529
163	0xbe256693	-0.1615241
164	0x3d4a06a8	0.049322754
165	0xbe4b9031	-0.19879223
166	0xc008cc7e	-2.1374812
167	0xb9db36cf	-0.0004181177
168	0xbd15e469	-0.036594782
169	0xbf8dceab	-1.1078695
170	0x3d913016	0.0708925
171	0xbee34c85	-0.44394317
172	0xbe65e4ee	-0.22450611
173	0x3e4c83fa	0.1997222
174	0x3ef2e44c	0.47439802
175	0xbe8dfcad	-0.2773184
176	0xbf45e7ad	-0.77306634
177	0x3f8735ba	1.0563271
178	0x3f333720	0.7000599
179	0xbe84015d	-0.2578229
180	0x3d05fa7a	0.032709576
181	0xbf4bba5d	-0.7958124
182	0xbdbedfcf	-0.09320032
183	0x3eb2e61e	0.3494119
184	0x3ebdfc55	0.37106577
185	0x3ebe5629	0.3717511
186	0x3ec30afa	0.38094312
187	0xbe44d361	-0.1922126
188	0x3f277b57	0.65422577
189	0x3da06c87	0.078332
190	0x3e3b54ec	0.18294114
191	0x3e47e0e8	0.19519389
192	0xbefea6bd	-0.49736586
193	0xbf33b3c2	-0.70196164
194	0xbe829c36	-0.25509804
195	0x3f3c0b74	0.73454976
196	0xbd854e95	-0.06509129
197	0x3ea63565	0.32462612
198	0xbeadddcf	-0.3395829
199	0xbe6bbb97	-0.23020779
200	0x3d6e9771	0.058249895
201	0x3ece18fc	0.40253437
202	0xbf2ee665	-0.68320304
203	0xbec8b80c	-0.39202917
204	0xbe233c9a	-0.15941086
205	0xbda3c981	-0.07997418
206	0x3e44376b	0.19161765
207	0xbedccf5d	-0.43126956
208	0x3e8f090d	0.27936593
209	0x3f4f8fed	0.8107899
210	0xbe385179	-0.1799983
211	0x3dd2825b	0.102787696
212	0xbf1e26b6	-0.6177782
213	0x3f90e5f4	1.1320176
214	0xbedd5949	-0.43232182
215	0xbf04964c	-0.51791835
216	0xbf683fe2	-0.9072248
217	0xbe23b4c3	-0.15986924
218	0x3f6f96d8	0.93589544
219	0xbf102c8f	-0.5631799
220	0x3ec0def3	0.37670097
221	0x3edebd72	0.4350391
222	0x3ed5ee3b	0.41783318
223	0xbf4f0e17	-0.80880874
224	0xbf178d9a	-0.5920044
225	0xbf3ad739	-0.72984654
226	0x3e2c30b6	0.16815457
227	0xbe5201d4	-0.2050851
228	0xbf0e8c65	-0.55682975
229	0x3f791f48	0.97313356
230	0xbf79920c	-0.97488475
231	0xbe57fa92	-0.21091679
232	0xbee22ddb	-0.4417561
233	0xbecb0ae2	-0.3965674
234	0x3fc61207	1.5474252
235	0xbec12a6d	-0.3772768
236	0x3e60dd0e	0.21959326
237	0x3b59cdfa	0.0033234344
238	0x3d5e5e8d	0.05428939
239	0x3d191da9	0.0373818
240	0x3d94b6b0	0.072614074
241	0xbf2c21fb	-0.6723935
242	0x3dfba269	0.12286837
243	0xbc62103c	-0.013797816
244	0xbd6d7d66	-0.057980917
245	0x3d096c5f	0.033550616
246	0xbe9f105b	-0.31067166
247	0xbf30af14	-0.6901715
248	0x3db6ad2b	0.08919748
249	0xbf1ce9d0	-0.6129427
250	0xbe8f37b5	-0.2797219
251	0xbf54b16d	-0.8308323
252	0x3ee59184	0.44837582
253	0xbdb0bc8c	-0.086297125
254	0xbeb8a982	-0.36066824
255	0x3e376820	0.17910814

conv_dw_11/depthwise_bias f4 [32]
0	0x3f9b9310	1.2154255
1	0xbee5a706	-0.4485399
2	0x3ff8acbe	1.9427717
3	0xbe7bcc69	-0.24589695
4	0xbe88bfe6	-0.26708907
5	0x3ed0d484	0.40787137
6	0x3e10e2e8	0.14149058
7	0x3f51a384	0.8189013
8	0xbee799eb	-0.45234618
9	0xbeab659c	-0.3347596
10	0xbd2b47d0	-0.041816533
11	0xbf3bf660	-0.73422813
12	0xbdedfafc	-0.11620137
13	0x3f4a13d1	0.7893649
14	0xbf01a835	-0.5064729
15	0xbf88ad36	-1.067786
16	0xbf5cbe83	-0.862282
17	0x3da536da	0.08067103
18	0x3e888696	0.2666518
19	0xbf11b55a	-0.56917346
20	0x3e163000	0.14666748
21	0x4004cec4	2.07512
22	0x3fd30b86	1.6487892
23	0x3f0dd3fb	0.5540158
24	0xbedbf094	-0.42956984
25	0xbdcb1926	-0.09916906
26	0xbf08137b	-0.53154725
27	0x3f8e35e4	1.1110196
28	0x40104f00	2.2548218
29	0xbf140120	-0.57814217
30	0xbf9ee6cd	-1.2414185
31	0x3f9d92be	1.2310407

conv_dw_11/depthwise_kernel f4 [1, 3, 3, 32]
0	0x3e6a3cb3	0.22874717
1	0x3eabf4ec	0.33585298
2	0xbefac339	-0.48977068
3	0x3f977f5f	1.1835746
4	0xbddb2d21	-0.10701967
5	0x3fb5b507	1.419587
6	0x3f67947c	0.90460944
7	0xbfa2c49d	-1.2716252
8	0x3f3b9acb	0.7328307
9	0x3fa6e81f	1.3039588
10	0x3d900f58	0.070341766
11	0x3f8a99d9	1.08282
12	0xbef196d5	-0.47185388
13	0x3dc22f75	0.09481708
14	0xbe55d118	-0.20880544
15	0x3eb57b1e	0.35445493
16	0x3db08906	0.08619885
17	0xbf5812aa	-0.8440348
18	0x3f6aa60d	0.91659623
19	0xbd81c6cd	-0.06336746
20	0x3f81cc43	1.0140461
21	0xbf05e69a	-0.52304995
22	0xbfa66d84	-1.3002172
23	0xbd116559	-0.035497043
24	0xbdb96ecd	-0.09054337
25	0x3edf0364	0.43557274
26	0x3f423e21	0.7587605
27	0xbd4da75d	-0.05020844
28	0xbf93be12	-1.154238
29	0x3ede2e65	0.4339477
30	0x3e586d3f	0.21135424
31	0x3d8f24f8	0.06989473
32	0xbf942370	-1.1573315
33	0x3d3855a5	0.045003552
34	0xbf2781bf	-0.6543235
35	0x3e99348e	0.2992291
36	0xbe262047	-0.1622325
37	0x3f21b587	0.63167614
38	0xbe6217e5	-0.22079428
39	0x3e6a2d7c	0.22868913
40	0xbdba807d	-0.091065384
41	0x3ea5afbd	0.3236064
42	0x3e8ae84d	0.27130356
43	0x3f793245	0.9734233
44	0x3f9752d3	1.1822151
45	0x3f485ffd	0.78271466
46	0x3dbb5d1f	0.09148621
47	0x3d65985f	0.056053516
48	0x3e94b659	0.2904537
49	0x3f544385	0.82915527
50	0x3f0384e2	0.5137464
51	0xbfac5145	-1.3462301
52	0x3f31c885	0.69446594
53	0xbe8b2ad3	-0.2718111
54	0xbf0174c6	-0.5056881
55	0xbf5ab9d1	-0.85439783
56	0x3d2648ef	0.0405969
57	0xbeb4ad21	-0.35288337
58	0xbe2a02fb	-0.166027
59	0xbe5fa654	-0.21840793
60	0xbe764a64	-0.24051815
61	0x3f4d12b9	0.80106694
62	0x3f38e480	0.72223663
63	0xbddfd60a	-0.109294966
64	0xbedb1135	-0.42786565
65	0x3ed1c346	0.40969294
66	0xbeb4a22e	-0.35279983
67	0xbe1c5b90	-0.15269303
68	0x3ebf580e	0.37371868
69	0xbf5ce583	-0.8628771
70	0xbe6dcafb	-0.23221962
71	0xbe8d37c5	-0.2758161
72	0x3f3c6a49	0.7359968
73	0x3eb30f58	0.34972644
74	0x3f3287d7	0.69738525
75	0xbe5c2e54	-0.21502048
76	0xbf677750	-0.9041643
77	0xbf68bc1d	-0.9091204
78	0x3cfa14c3	0.030527478
79	0xbdcdf851	-0.10057128
80	0x3de45f6b	0.11151012
81	0x3f473cf8	0.77827406
82	0x3f3e1d90	0.7426386
83	0x3fb8ec51	1.4447118
84	0x3ebdca0e	0.37068218
85	0xbecafe2a	-0.39647037
86	0xbea26d34	-0.3172394
87	0xbefd62be	-0.49489397
88	0xbeb2eb50	-0.34945154
89	0xbea3b254	-0.3197199
90	0xbf0ca6a5	-0.5494178
91	0xbc43e4df	-0.011956423
92	0x3ee04282	0.4380074
93	0xbe7b553a	-0.2454423
94	0xbdde8308	-0.10864836
95	0x3e86a524	0.26297867
96	0x3f30baca	0.6903502
97	0x3d735c10	0.05941397
98	0xbf91ccc7	-1.1390618
99	0x3fb6a68c	1.4269576
100	0xbf00b4f1	-0.50276095
101	0x3f255f97	0.64598984
102	0x3e7c18da	0.24618855
103	0x3f528a88	0.8224263
104	0x3e4f8765	0.20266493
105	0x3f089a07	0.5336003
106	0xbed626d2	-0.41826493
107	0xbf27e18e	-0.65578544
108	0x3d91e8af	0.07124459
109	0x3eea5d90	0.45774508
110	0x3e880c90	0.26572084
111	0x3de18600	0.110118866
112	0x3dad3794	0.08457866
113	0xbef59aad	-0.4796957
114	0xbf717749	-0.9432264
115	0xbaf3185c	-0.0018546688
116	0x3e200396	0.15626368
117	0xbca9948e	-0.02070072
118	0xbefed910	-0.4977498
119	0x3e69b535	0.22823031
120	0xbe3d1767	-0.18465959
121	0x3e8f2cb7	0.27963802
122	0x3f4dab33	0.80339354
123	0xbe0cc326	-0.13746318
124	0xbe4d3659	-0.20040263
125	0x3f183af6	0.5946497
126	0x3eb10149	0.34571293
127	0xbe920edd	-0.28526965
128	0xbf060695	-0.52353793
129	0xbebda6b5	-0.3704125
130	0x3f14fb36	0.5819582
131	0x3e456ce7	0.19279824
132	0x3e875bf9	0.26437357
133	0xbebe82f3	-0.3720928
134	0x3de3d70f	0.111250035
135	0xbeb0be77	-0.34520313
136	0x3e35a52b	0.17738788
137	0x3e2316bf	0.15926646
138	0x3f399da0	0.7250614
139	0x3dabd2a8	0.08389789
140	0x3fba140d	1.4537369
141	0x3e10e55f	0.14149998
142	0x3e14ee1b	0.14543955
143	0xbd877734	-0.06614533
144	0x3ec2871b	0.37993702
145	0xbdc63803	-0.09678652
146	0x3df92840	0.1216588
147	0x3ed79749	0.4210761
148	0xbeccfb07	-0.4003527
149	0x3f0b9d58	0.5453696
150	0xbe99acb3	-0.30014572
151	0x3eb91536	0.36148995
152	0x3f26dc21	0.6517964
153	0xbf29409a	-0.661142
154	0x3e615e25	0.2200857
155	0x3d384744	0.04498984
156	0xbe93f896	-0.28900594
157	0xbf025056	-0.5090383
158	0x3f5c2f70	0.86009884
159	0x3e204e45	0.15654857
160	0xbe2aaf66	-0.16668472
161	0x3f1623b6	0.5864824
162	0x3e943f1e	0.28954405
163	0x3d5f3085	0.05448963
164	0x3ed184e9	0.40921715
165	0xbf427422	-0.75958455
166	0xbf4af532	-0.7928039
167	0xbef8fa7b	-0.486286
168	0x3daeadfb	0.08529278
169	0xbf67d043	-0.9055216
170	0x3f0b11e0	0.5432415
171	0xbe40b0ed	-0.18817492
172	0xbfbf7062	-1.4956172
173	0xbf21c14d	-0.6318558
174	0x3ec89aab	0.39180502
175	0x3dcbab8f	0.099448316
176	0x3dd72e23	0.10506847
177	0x3e80908b	0.25110278
178	0x3de91eae	0.11382805
179	0x3e9dee55	0.30845895
180	0x3efac9ac	0.48981988
181	0x3df8eb14	0.121542126
182	0x3ec2aaa9	0.38020828
183	0x3eeeb43c	0.46621883
184	0xbf3f898d	-0.7481926
185	0xbe9caa67	-0.30598757
186	0xbf098db6	-0.5373186
187	0xbf035dbd	-0.5131491
188	0x3da87882	0.0822611
189	0xbf374906	-0.715958
190	0x3e6cab1d	0.2311215
191	0xbc3dea95	-0.011591573
192	0x3f113097	0.5671477
193	0xbdfc99a4	-0.12333992
194	0xbe3c513f	-0.18390368
195	0xbf9e949a	-1.23891
196	0xbe92fe85	-0.28709808
197	0xbd8df8f9	-0.069322534
198	0x3dfe5714	0.124189526
199	0x3ec1d2e8	0.3785622
200	0x3d328ec1	0.043593172
201	0xbf3790cb	-0.7170531
202	0xbd50adfb	-0.05094717
203	0xbf0a8a73	-0.54117507
204	0xbe1a6043	-0.15075783
205	0x3f0d3413	0.55157584
206	0x3e42e848	0.19033921
207	0x3f0499fb	0.51797456
208	0xbe7fe1e5	-0.24988516
209	0xbf140723	-0.5782339
210	0xbee9209c	-0.4553269
211	0x3f23a91c	0.63929915
212	0x3ed9d286	0.4254343
213	0xbe9ae3e9	-0.30252007
214	0xbeaaa015	-0.33325258
215	0x3df7914f	0.12088262
216	0x3f59859a	0.84969485
217	0x3f2cab8e	0.6744927
218	0x3dd56bec	0.10420975
219	0xbec01593	-0.3751646
220	0xbeb0c942	-0.34528548
221	0x3c70504e	0.014667584
222	0x3eeed309	0.46645382
223	0xbf5c92ec	-0.86161685
224	0x3e5733ca	0.2101585
225	0x3e16a16b	0.14710014
226	0xbf125ce6	-0.57173
227	0xbf9393e0	-1.1529503
228	0x3e76f3c1	0.24116422
229	0x3f45e739	0.7730594
230	0x3f4e9957	0.8070273
231	0xbe6b8a78	-0.2300204
232	0x3e6e97db	0.23300116
233	0x3e10612b	0.14099567
234	0x3dd617b9	0.104537435
235	0xbca7c17d	-0.020478005
236	0x3f512631	0.816989
237	0x3f2532f4	0.64530873
238	0x3f0976e7	0.53697056
239	0x3ca8999a	0.020581055
240	0x3e2da39d	0.16956945
241	0xbda24fb5	-0.07925359
242	0xbcc8d452	-0.024515305
243	0xbf365998	-0.7123046
244	0xbfa2a1ab	-1.2705587
245	0xbf1bea01	-0.60903937
246	0x3ee8593d	0.45380583
247	0xbf0786f0	-0.52940273
248	0x3f5d53e4	0.8645613
249	0xbed2e8de	-0.4119329
250	0xbf3e1662	-0.74252903
251	0xbee1087a	-0.4395178
252	0xbf3ba23d	-0.7329443
253	0xbd312f13	-0.043257784
254	0x3c953b0b	0.01821663
255	0xbcae3d80	-0.02126956

conv_dw_12/depthwise_bias f4 [32]
0	0x3f7fe738	0.99962187
1	0xbf123a3a	-0.57120097
2	0x3e565209	0.20929731
3	0xbfb2731e	-1.3941381
4	0x401089eb	2.2584178
5	0xbea631c0	-0.3245983
6	0xbfca3f0b	-1.5800489
7	0x3f373250	0.71561146
8	0xbea79460	-0.3273039
9	0x3f61b5ac	0.88167834
10	0xbf6b4cfa	-0.9191433
11	0xbf98614b	-1.1904691
12	0xbfba1388	-1.453721
13	0x4014c746	2.3246627
14	0x3fa0860f	1.2540911
15	0xbcbc61d8	-0.022995874
16	0xbdf74620	-0.12073922
17	0xbbb26a9a	-0.005444837
18	0xbe4b46f2	-0.19851282
19	0xbdfd7f34	-0.12377778
20	0x3ef3b3da	0.47598153
21	0xbef17797	-0.47161552
22	0x3faf932d	1.371679
23	0xbf77454c	-0.96590114
24	0xbeae5606	-0.34050006
25	0xbf459379	-0.7717815
26	0x3e0ab65e	0.1354613
27	0x3f687508	0.90803576
28	0x3fa9fa8a	1.3279583
29	0x3fc057e6	1.5026824
30	0xbf7466fc	-0.9546964
31	0xbeface22	-0.48985392

conv_dw_12/depthwise_kernel f4 [1, 3, 3, 32]
0	0xbe8129ec	-0.25227296
1	0x3e939af3	0.28829154
2	0xbf84b12f	-1.0366572
3	0x3e98dd8a	0.2985652
4	0xbf55924d	-0.8342636
5	0xbf2fcbe3	-0.6867048
6	0x3e8f64bd	0.28006545
7	0xbd869548	-0.06571442
8	0x3f50d2d2	0.81571686
9	0xbf0adf59	-0.5424705
10	0x3f89f8c6	1.0779045
11	0x3f9a321e	1.2046545
12	0x3f4b0e45	0.7931865
13	0xbedf67a2	-0.43633753
14	0xbe2a9aa2	-0.1666055
15	0xbf190e17	-0.59787124
16	0x3f6a006a	0.9140688
17	0xbe9ea4cd	-0.30985108
18	0x3e44995c	0.19199127
19	0x3f633f02	0.8876802
20	0xbf66bd2c	-0.90132403
21	0xbda4a949	-0.08040101
22	0xbf0d457a	-0.5518414
23	0x3e41ba3a	0.18918696
24	0x3dd3d738	0.10343784
25	0xbd80e8f4	-0.06294432
26	0xc02ce9b4	-2.701764
27	0xbd17a7ac	-0.03702514
28	0xbfb8d70a	-1.4440625
29	0x3e71a272	0.23597124
30	0x3ecf006a	0.40430003
31	0x3eb55fb9	0.35424593
32	0xbe58bead	-0.21166487
33	0x3e40ba65	0.18821104
34	0x3ecd1e44	0.40062153
35	0x3ea00004	0.31250012
36	0x3dd39b84	0.103323966
37	0x3e6ce94f	0.23135875
38	0x3e2855f0	0.16439033
39	0xbeb14b42	-0.3462773
40	0x3ec99472	0.39371067
41	0x3d9f5878	0.07780546
42	0x3f108163	0.5644743
43	0x3f513066	0.81714475
44	0x3d9c77ff	0.07640075
45	0xbf0a65dd	-0.5406168
46	0xbf0fcc3e	-0.56171024
47	0x3cddcdf5	0.027075747
48	0x3ed23a72	0.41060215
49	0x3f2d75ca	0.67757857
50	0xbe082851	-0.1329663
51	0xbf3aedfe	-0.730194
52	0xbed32e1a	-0.4124611
53	0xbeb92cbe	-0.36166948
54	0xbdf7dd6b	-0.12102779
55	0x3ea1776e	0.3153643
56	0x3ed8692a	0.42267734
57	0x3d73008a	0.059326686
58	0x3e151555	0.14558919
59	0xbec061f0	-0.3757472
60	0xbf117ce5	-0.568312
61	0xbf382737	-0.7193484
62	0xbdda61f4	-0.10663214
63	0x3e98be1b	0.2983254
64	0xbdfd2f9b	-0.12362596
65	0xbe726dc9	-0.23674692
66	0x3e8e303a	0.2777117
67	0x3f096970	0.5367651
68	0xbed2dff1	-0.4118648
69	0xbce7803a	-0.028259385
70	0x3e0ce848	0.13760483
71	0xbf807fda	-1.0039017
72	0x3f9ab466	1.2086303
73	0xbd627bec	-0.055293962
74	0x3e7acbff	0.24491881
75	0xbe83e292	-0.25758797
76	0x3eb2dfa8	0.3493626
77	0xbf2c6922	-0.6734792
78	0x3d4b3d36	0.049618922
79	0xbefd833e	-0.49514192
80	0xbdf43020	-0.119232416
81	0x3e0d1dfc	0.1378097
82	0xbeb783de	-0.35842794
83	0xbe85f870	-0.26166105
84	0xbf9dfe35	-1.2343203
85	0x3e8210ea	0.2540353
86	0xbead279e	-0.33819288
87	0x3f05fed0	0.5234194
88	0x3f3af878	0.73035383
89	0x3e90716f	0.28211543
90	0xbfcdb48f	-1.6070727
91	0xbed49c9a	-0.41525728
92	0xbf5e55a5	-0.86849433
93	0xbf803fa2	-1.0019419
94	0xbe125982	-0.14291957
95	0x3ea50793	0.3223234
96	0xbe9787fe	-0.2959594
97	0x3ea70ad8	0.3262546
98	0x3e27a86b	0.1637284
99	0xbb56661b	-0.0032714668
100	0xbe8f91ef	-0.28041026
101	0xbe88587d	-0.2663001
102	0x3e47ab1b	0.19498865
103	0x3d955cdf	0.072931044
104	0xbe87e9ae	-0.2654547
105	0xbd184104	-0.03717138
106	0x3dd31cb2	0.103082076
107	0x3f83b868	1.0290651
108	0x3edb3bee	0.4281916
109	0xbe903d03	-0.28171548
110	0xbca94198	-0.02066116
111	0x3c0cbf9f	0.008590608
112	0xbc4a6b0c	-0.0123546235
113	0xbeacdae9	-0.33760765
114	0x3f7dd38c	0.9915092
115	0x3ee8d8d1	0.45477918
116	0xbe62eed4	-0.22161418
117	0x3dbe8ae5	0.09303836
118	0xbe647ace	-0.22312471
119	0xbe53ffbc	-0.20703024
120	0xbe1b68f3	-0.15176754
121	0x3d57ca64	0.05268325
122	0x3f50f75d	0.81627446
123	0x3dedfd65	0.11620597
124	0x3f08d0be	0.53443515
125	0xbdc1da84	-0.09465507
126	0x3e80e4e7	0.2517464
127	0x3c302958	0.010752045
128	0xbe27eb3c	-0.16398329
129	0x3d8975f2	0.067119494
130	0xbd0bc294	-0.03412111
131	0xbe0531f6	-0.1300734
132	0xbf26b5dd	-0.6512125
133	0x3f043f42	0.51659024
134	0x3ee0b634	0.4388901
135	0xbde3f2e7	-0.11130314
136	0xbe890096	-0.2675826
137	0xbd9fc99d	-0.078021266
138	0xbc4cbd05	-0.012496238
139	0x3f39ca93	0.7257473
140	0x3e2197bd	0.1578054
141	0x3d5ece83	0.054396164
142	0xbe242cbd	-0.16032691
143	0x3f26eeb8	0.65208006
144	0x3e3b13ce	0.18269274
145	0x3e0809d8	0.13285005
146	0xbdb5e155	-0.08880869
147	0x3d2b24a0	0.041782975
148	0xbe727cdc	-0.23680443
149	0x3ce707c5	0.028201947
150	0x3b7ba700	0.00383991
151	0xbcbd043c	-0.023073308
152	0x3e3efda5	0.18651445
153	0x3e470aeb	0.19437759
154	0x3fa07b64	1.2537656
155	0xbe9102a0	-0.28322315
156	0xbf283f9b	-0.65722054
157	0xbeed0035	-0.4628922
158	0xbd357023	-0.044296395
159	0x3e47430a	0.19459167
160	0xbdb9e217	-0.09076326
161	0x3e1e35f6	0.15450272
162	0x3f32f2cb	0.6990172
163	0x3ecfc2fc	0.4057845
164	0xbeb98066	-0.36230773
165	0xbe18a4f2	-0.14906672
166	0x3f0eef05	0.55833465
167	0xbe94ca10	-0.2906041
168	0xbf74f086	-0.9567951
169	0x3e81c823	0.25348005
170	0xbdb9f36e	-0.09079634
171	0xbf0a2158	-0.5395713
172	0xbe9775c3	-0.29582033
173	0xbe2412df	-0.16022824
174	0x3c6db4af	0.01450841
175	0xbf2bfc5d	-0.6718195
176	0xbf1f8928	-0.6231866
177	0xbf0516e2	-0.5198804
178	0x3f148d6d	0.580283
179	0xbf26ff42	-0.6523324
180	0xbf1eaa9f	-0.619791
181	0x3e226d71	0.15862061
182	0x3e14ffa1	0.1455064
183	0x3e0bd344	0.1365481
184	0x3c9eb0f4	0.019371487
185	0x3e1775f7	0.14791094
186	0x3c18ef1f	0.009334355
187	0xbe05fa35	-0.13083728
188	0x3ecd45e5	0.40092388
189	0x3efdc11c	0.49561393
190	0xbdda8a17	-0.1067087
191	0xbe3f4621	-0.18679096
192	0xbe7f9c65	-0.24962004
193	0x3e8ac40a	0.2710269
194	0xbf1819cf	-0.5941438
195	0x3e6658de	0.22494838
196	0xbf358c41	-0.70917135
197	0xbee458a4	-0.44598877
198	0x3db70106	0.08935742
199	0x3e94eb0a	0.2908557
200	0x3f841eb6	1.0321872
201	0xbedb0bbb	-0.42782387
202	0x3cd2dab9	0.02573906
203	0xbf8cc64f	-1.0998019
204	0x3f26373d	0.64928037
205	0xbf1c36c9	-0.61021096
206	0x3d84139a	0.06449051
207	0x3d5e1640	0.054220438
208	0x3f58b926	0.84657514
209	0x3db26933	0.087114714
210	0x3c937fd3	0.018005287
211	0x3edb3d2e	0.42820114
212	0x3f69fcc1	0.91401297
213	0x3f06a4c4	0.5259516
214	0xbf238c61	-0.63886076
215	0x3ee5e75b	0.44903073
216	0xbf4d2e15	-0.8014844
217	0xbd2ecd0b	-0.042676013
218	0xc007eec9	-2.1239493
219	0xbeaac275	-0.33351484
220	0xbf5c6dc1	-0.8610497
221	0x3efc308f	0.49255797
222	0x3f18af74	0.5964272
223	0x3f0e34fd	0.55549604
224	0xbdf0140b	-0.11722573
225	0x3e604f70	0.21905303
226	0x3ec5d72d	0.3864073
227	0x3ec3605b	0.3815945
228	0xbf27d58e	-0.65560234
229	0x3e09ca5d	0.13456102
230	0x3e004a6e	0.12528393
231	0x3edd6979	0.43244532
232	0x3dda123a	0.10648008
233	0xbe71f131	-0.23627163
234	0x3e76a23b	0.24085324
235	0xbe1dcb65	-0.1540962
236	0x3d8c1a12	0.0684091
237	0xbd99228f	-0.07477295
238	0xbe847561	-0.25870803
239	0xbc6f6b09	-0.0146129215
240	0xbe351092	-0.17682102
241	0x3e361616	0.17781863
242	0xbd459bae	-0.04824417
243	0xbf03f8aa	-0.51551306
244	0x3ec3fc3b	0.38278374
245	0x3e3b47ab	0.18289058
246	0x3e659d48	0.2242328
247	0x3ed7b238	0.42128158
248	0x3ecdd187	0.4019892
249	0x3d2af766	0.041739844
250	0xbf860e29	-1.0473071
251	0xbe4bc161	-0.19897987
252	0xbed4c97e	-0.41559976
253	0xbf43ccd3	-0.7648441
254	0xbd46f5ec	-0.048574373
255	0x3f3e4441	0.743229

conv_dw_13/depthwise_bias f4 [65]
0	0xbdbf16fc	-0.09330556
1	0x3f54468a	0.82920134
2	0x3f11df24	0.5698111
3	0x3f676b46	0.9039806
4	0x3f983bef	1.189329
5	0xbe1a5b1a	-0.15073815
6	0xbffea8d0	-1.9895267
7	0x3f151ffc	0.5825193
8	0xbf8c2a4a	-1.0950406
9	0xbddf380c	-0.10899362
10	0x3f1755ae	0.5911511
11	0x3f020eac	0.5080364
12	0x3f3a0ff1	0.72680575
13	0x3f0e6d35	0.55635387
14	0xbe619242	-0.22028449
15	0x3dfc72dc	0.12326595
16	0x3dd8785c	0.10569832
17	0xbda5f560	-0.08103442
18	0xbec15542	-0.3776036
19	0x3f3f5bf8	0.7474971
20	0x3efeb505	0.49747482
21	0x3c8a59a7	0.016888453
22	0xbd656110	-0.05600077
23	0x3ed3e0ff	0.41382596
24	0xbea092f0	-0.31362104
25	0x3f50efca	0.8161589
26	0xbf264514	-0.64949155
27	0x3f128031	0.57226855
28	0xbf2a5526	-0.66536176
29	0x3f19ad53	0.60030097
30	0xbee52371	-0.44753602
31	0x3f8cf0be	1.1010969
32	0x3f01d16a	0.50710166
33	0xbe82f10f	-0.25574538
34	0xbd1648b0	-0.036690414
35	0x3f730904	0.9493563
36	0xbf01a139	-0.5063663
37	0x3dc35fa4	0.095397264
38	0xbe8a4907	-0.2700884
39	0x3fc4a542	1.5362933
40	0xbd1b420c	-0.037904784
41	0x3e7a1a8b	0.24424188
42	0xbf203c68	-0.6259217
43	0x3f826057	1.018565
44	0x3f746bee	0.9547719
45	0x3f07c819	0.530397
46	0xbda12720	-0.078687906
47	0x3eb0170e	0.3439259
48	0xbeef36de	-0.46721548
49	0x3f9eb582	1.2399142
50	0xbe9eb135	-0.30994573
51	0xbe6bc6cc	-0.23025054
52	0x3e10f734	0.141568
53	0xbe2c16ee	-0.16805622
54	0x3f5285f0	0.8223562
55	0xbd95c440	-0.07312822
56	0xbdabe068	-0.083924115
57	0x3ce3e5f0	0.027819604
58	0xbf003d7c	-0.5009382
59	0x3ee91937	0.4552705
60	0xbc23ebc0	-0.010004938
61	0xbe210e08	-0.15728009
62	0xbd8da898	-0.06916922
63	0x3f933514	1.1500573
64	0xbeac95c7	-0.3370802

conv_dw_13/depthwise_kernel f4 [1, 3, 3, 65]
0	0xbe406321	-0.18787815
1	0xbe52965e	-0.20565173
2	0xbebe04c1	-0.37113002
3	0xbfa1e481	-1.2647859
4	0xbf61eef6	-0.8825525
5	0x3ed037ac	0.40667474
6	0x3e4c4f50	0.1995213
7	0xbf5a63b0	-0.8530836
8	0xbe256220	-0.16150713
9	0xbef30984	-0.47468197
10	0xbe8c1aa7	-0.27364084
11	0xbefa3553	-0.48868808
12	0x3e304183	0.1721249
13	0xbddb07f3	-0.106948756
14	0xbc818e51	-0.015814932
15	0xbf3d74f4	-0.7400658
16	0x3e4f2a60	0.20231009
17	0xbf968476	-1.1759174
18	0x3eba10f1	0.3634105
19	0xbe216735	-0.15762027
20	0xbe210be4	-0.15727192
21	0x3ee5deaa	0.44896442
22	0xbebd50d4	-0.3697573
23	0xbe20e723	-0.15713172
24	0x3c9c3877	0.019069893
25	0xbde19c1e	-0.11016105
26	0xbe7104b1	-0.23536946
27	0xbdb167d9	-0.086623855
28	0xbe44b893	-0.19211034
29	0xbeaf0841	-0.34185985
30	0x3e4ec4ce	0.20192263
31	0xbf01ba2e	-0.5067471
32	0xbe20f23f	-0.1571741
33	0x3fb356f8	1.4010916
34	0xbe1419f5	-0.14463027
35	0xbe4659e7	-0.19370233
36	0xbe885a36	-0.26631325
37	0xbf28e849	-0.6597944
38	0x3e403089	0.18768515
39	0xbfa904f3	-1.3204635
40	0x3b7c6d4c	0.0038517294
41	0x3e89a986	0.2688715
42	0x3cf901c6	0.030396353
43	0x3dc8c173	0.098025225
44	0xbecae791	-0.39629796
45	0xbf4fca4c	-0.81168056
46	0xbf22c51f	-0.6358203
47	0x3d5d4c4c	0.05402784
48	0x3e112ec7	0.14178
49	0xbdc9ebe7	-0.09859448
50	0x3e5f47c3	0.21804719
51	0x3ea0d916	0.31415623
52	0x3e4e1af3	0.20127468
53	0xbf3e5657	-0.74350494
54	0xbe3f8be9	-0.18705715
55	0xbf1b6e26	-0.6071495
56	0xbec6345f	-0.3871183
57	0xbf04a4a7	-0.5181374
58	0xbded2d97	-0.11580961
59	0xbef69673	-0.4816166
60	0xbe913bdd	-0.28365985
61	0x3e83f9d2	0.25776535
62	0xbf6294a2	-0.88508046
63	0xbecd06cb	-0.40044245
64	0xbdc547d4	-0.09632841
65	0xbe3bb72f	-0.18331598
66	0xbec5f0df	-0.38660333
67	0xbe4a24b4	-0.19740564
68	0xbeec3909	-0.46137264
69	0xbe810129	-0.25196198
70	0xbdd961ef	-0.106143825
71	0x3f14c745	0.5811656
72	0xbf504b4c	-0.81364894
73	0x3eb15ac7	0.3463957
74	0xbdc20aad	-0.094746925
75	0xbe506643	-0.2035151
76	0xbf21574a	-0.6302382
77	0x3d06143a	0.032734133
78	0xbe515903	-0.20444112
79	0xbe9d6020	-0.307374
80	0xbf31f512	-0.6951457
81	0x3e3daa93	0.185221
82	0xbd9c04a6	-0.07618074
83	0xbef4d94d	-0.47822037
84	0xbf61cac8	-0.88200045
85	0xbde982e5	-0.11401919
86	0x3f28865e	0.6583003
87	0xbda2f917	-0.07957666
88	0xbecfec9e	-0.40610212
89	0x3e96462d	0.29350415
90	0xbec5bb4f	-0.38619468
91	0x3d826187	0.06366258
92	0xbf016898	-0.5055022
93	0x3d53999c	0.051660165
94	0xbf0c2af9	-0.5475307
95	0xbe60cfe3	-0.21954302
96	0xbeb50540	-0.35355568
97	0xbe08678f	-0.13320754
98	0xbed5a845	-0.41729942
99	0x3e930ee3	0.28722295
100	0xbecc24c6	-0.39871806
101	0xbeab25fe	-0.33427423
102	0xbca477f3	-0.020076727
103	0xbeb3ce1b	-0.35118183
104	0xbe900bb6	-0.28133935
105	0x3d743de9	0.059629355
106	0xbf36b186	-0.7136463
107	0x3e2fe92c	0.17178792
108	0xbdfef4a9	-0.12449009
109	0xbe0f9712	-0.14022473
110	0xbf147b5c	-0.5800073
111	0xbe12c0dc	-0.14331383
112	0xbe0bb93c	-0.1364488
113	0x3df0c382	0.1175604
114	0xbe58971f	-0.21151398
115	0xbd0627ce	-0.032752804
116	0x3e7fced3	0.24981241
117	0x3e92ea55	0.28694406
118	0xbdc2cd86	-0.09511857
119	0xbe84e860	-0.25958538
120	0xbeaaea4e	-0.33381885
121	0xbe0530d0	-0.13006902
122	0xbd9ea62d	-0.07746539
123	0x3c572f26	0.0131338
124	0xbea646b3	-0.32475814
125	0xbdef9862	-0.116989866
126	0x3e51a6b7	0.20473753
127	0xbd14a18e	-0.036286883
128	0xbeeadf3c	-0.4587344
129	0xbd105858	-0.0352405
130	0x3c82b518	0.015955493
131	0xbd34808c	-0.044067904
132	0xbda2ff61	-0.07958866
133	0xbe1e4b3c	-0.15458387
134	0xbf86a89d	-1.0520207
135	0xbd3763d0	-0.044772923
136	0x3ddb5be0	0.10710883
137	0xbd70289d	-0.05863248
138	0x3e26051b	0.16212885
139	0xbf3f0a95	-0.7462552
140	0xbe427174	-0.18988591
141	0xbf03e9a3	-0.51528376
142	0xbeba4298	-0.36378932
143	0x3e173280	0.14765358
144	0xbec9a385	-0.39382568
145	0xc0b48f2f	-5.6424785
146	0x3d2b37cb	0.041801255
147	0xbf8c4931	-1.0959836
148	0xbed76c48	-0.420748
149	0xbea68880	-0.32526016
150	0x3e97a11d	0.29615107
151	0x3eccf6d6	0.4003207
152	0xbeef5b1c	-0.46749198
153	0xbeb279c3	-0.34858522
154	0xc0162e8c	-2.346591
155	0xbef1c0a8	-0.47217298
156	0x3e787568	0.24263537
157	0xbe6db54d	-0.23213692
158	0x3e975118	0.29554057
159	0xbe3a902f	-0.18219064
160	0xbdad032c	-0.084478706
161	0xbf018078	-0.5058665
162	0xbdc7e47c	-0.09760377
163	0x3f67630a	0.90385497
164	0xbf16343b	-0.5867345
165	0xbdb34b44	-0.0875459
166	0x3f0e3ea1	0.55564314
167	0xbf4d2d5a	-0.80147326
168	0xbed371d4	-0.4129778
169	0xbfcdf6ef	-1.6090983
170	0x3df73c93	0.120721005
171	0xbf642462	-0.89118016
172	0xbbebfac0	-0.0072015226
173	0xbea98b8f	-0.33114287
174	0xbf0e3d57	-0.5556235
175	0xbded4212	-0.115848675
176	0xbf938578	-1.1525106
177	0xbe4b2069	-0.19836582
178	0xbcaf1dd7	-0.021376533
179	0xbe673eec	-0.22582597
180	0xbeb92928	-0.36164212
181	0xbc01d28e	-0.007923735
182	0xbe157f38	-0.14599311
183	0xbfe44fc5	-1.7836844
184	0xbe4ca835	-0.19986041
185	0xbf2c63a8	-0.67339563
186	0x3e3b90ab	0.18316905
187	0xbe45b980	-0.19309044
188	0x3e282d05	0.16423424
189	0xbd97240a	-0.07379921
190	0x3e2e8c9d	0.17045827
191	0xbef9702b	-0.4871839
192	0xbf9b7b57	-1.2147015
193	0x3db16138	0.08661121
194	0xbdb01847	-0.085983805
195	0xbe87cc52	-0.26523072
196	0xbe119489	-0.14216818
197	0xbd9c5ce6	-0.076349065
198	0xbf1f0776	-0.6212076
199	0x3e6ab24b	0.22919576
200	0xbd26058e	-0.04053264
201	0x3e8ab510	0.27091265
202	0xbe5515c1	-0.2080908
203	0xbe953e5a	-0.29149133
204	0x3d85bd9e	0.06530307
205	0xbf08861c	-0.53329635
206	0x3ef3e4cf	0.47635505
207	0xbb8fcf0c	-0.0043886956
208	0xbe935147	-0.28772947
209	0x3d120e57	0.035658207
210	0xbffa469b	-1.9552797
211	0xbeb59e16	-0.35472172
212	0xbe94a730	-0.29033804
213	0x3e7495c5	0.23885258
214	0xbec2589d	-0.37958232
215	0xbf1e897a	-0.6192852
216	0xbba003d6	-0.00488327
217	0xbda03962	-0.07823445
218	0xbeadf295	-0.33974138
219	0xbe04f558	-0.12984216
220	0xbe1d67dc	-0.1537165
221	0x3d0abce1	0.033871535
222	0xbe18158f	-0.14851974
223	0x3e4c1a04	0.19931799
224	0xbeeb82c5	-0.45998207
225	0x3e6681aa	0.225104
226	0xbe9b5b8c	-0.30343282
227	0xbea36206	-0.31910723
228	0x3f8f33c2	1.118767
229	0x3ece840e	0.40335125
230	0xbe1fe699	-0.1561531
231	0x3f30a104	0.6899569
232	0xbf827f07	-1.0195016
233	0x3e25f1f6	0.16205582
234	0x3ec04c7e	0.3755836
235	0x3c87b510	0.01656583
236	0xbe83a33b	-0.25710472
237	0xbc9d7cf1	-0.019224616
238	0xbde96a67	-0.11397248
239	0xbe16feda	-0.14745656
240	0xbed77f2f	-0.4208922
241	0xbd91a2d5	-0.07111136
242	0xbdf542ae	-0.11975609
243	0x3e1195a3	0.14217238
244	0xbecda4e4	-0.40164864
245	0xbda90949	-0.08253724
246	0x3c8b9bbe	0.017042037
247	0xbe3e6c2d	-0.18595953
248	0xbe4e6c11	-0.20158412
249	0xbe17a277	-0.14808069
250	0x3d8653d2	0.06558956
251	0xbe82199d	-0.25410166
252	0xbc96ffb4	-0.018432476
253	0xbdecde8e	-0.115658864
254	0xbdb1ea42	-0.08687259
255	0xbe4b4ca2	-0.19853452

conv_dw_2/depthwise_bias f4 [4]
0	0x3f20cbd7	0.62811035
1	0x4008d3e9	2.137934
2	0x3f967eaa	1.1757405
3	0xbe6f03d4	-0.23341304

conv_dw_2/depthwise_kernel f4 [1, 3, 3, 4]
0	0x3dfe6f59	0.12423582
1	0x3e13690e	0.14395544
2	0x3d95fce3	0.07323625
3	0x3dc3361a	0.095318034
4	0xbee757df	-0.45184228
5	0xbeb9708d	-0.36218682
6	0xbec102a4	-0.37697327
7	0x3df1aefa	0.11800952
8	0x3e3edb15	0.1863826
9	0xbee19a23	-0.4406291
10	0xbefd956b	-0.4952806
11	0x3ddee454	0.10883394
12	0x3eb80996	0.35944813
13	0xbdfe7583	-0.12424757
14	0x3eadbaea	0.33931667
15	0x3dfbe612	0.12299742
16	0xbf7ca07c	-0.9868238
17	0xbf23b95d	-0.63954717
18	0xbbc4b700	-0.0060032606
19	0x3dff45bd	0.124644734
20	0xbda69ce6	-0.08135395
21	0xbee1cd88	-0.4410212
22	0xbefc1903	-0.49237832
23	0x3e227d26	0.15868053
24	0xbd01f648	-0.031729013
25	0xbeceefe6	-0.40417403
26	0x3ec05274	0.37562907
27	0x3d92aa56	0.07161395
28	0xbecd7b05	-0.4013292
29	0xbe62a855	-0.22134526
30	0x3f0322b4	0.5122483
31	0x3c614a7f	0.013750671
32	0x3ecbe9a2	0.39826685
33	0x3ef177da	0.47161752
34	0xbdbd198c	-0.09233388
35	0x3d932a80	0.071858406

conv_dw_3/depthwise_bias f4 [8]
0	0x3fc1b09e	1.5132024
1	0x3f230049	0.6367231
2	0xbf99f58d	-1.2028061
3	0xbc5c7300	-0.0134551525
4	0xbe1819b4	-0.14853555
5	0xbe8b625c	-0.2722348
6	0xbce336d0	-0.027736098
7	0x40019e56	2.025289

conv_dw_3/depthwise_kernel f4 [1, 3, 3, 8]
0	0xbe4611d7	-0.19342743
1	0xbd39b7c2	-0.04534126
2	0xbe2fcdb6	-0.17168316
3	0xbe074a8b	-0.1321203
4	0xbeb65272	-0.35609776
5	0xbea3e4cf	-0.32010505
6	0x3d54921c	0.051897153
7	0xbe860df8	-0.26182532
8	0xbed4b126	-0.41541404
9	0x3e9ce17d	0.30640784
10	0xbf1f4c53	-0.62225837
11	0xbded38b2	-0.115830794
12	0x3f89dbbe	1.0770185
13	0xbd6763ce	-0.056491666
14	0xbf89a104	-1.0752263
15	0x3cd97eba	0.026549686
16	0xbdd32c93	-0.10311236
17	0x3f36e5c2	0.7144433
18	0x3f81dd19	1.0145599
19	0x3dfccbe8	0.123435795
20	0xbea36d99	-0.31919554
21	0xbf8f0cbb	-1.117576
22	0x3ea8ca6e	0.32966942
23	0xbeb672a6	-0.35634345
24	0x3eb15146	0.3463232
25	0x3f1602e6	0.5859817
26	0x3e721975	0.23642524
27	0xbeae3ff7	-0.34033176
28	0xbf67d753	-0.90562934
29	0xbeb24679	-0.3481939
30	0xbf7305be	-0.94930637
31	0x3daaaaa8	0.08333331
32	0xbf419802	-0.7562257
33	0x3db6d073	0.08926477
34	0x40037736	2.054151
35	0x3f029ce3	0.5102064
36	0xbeefae7a	-0.46812803
37	0x3f9771a7	1.1831559
38	0xbde4531a	-0.11148663
39	0xbf8a099c	-1.0784183
40	0xbe849961	-0.2589827
41	0xbf3fa169	-0.7485567
42	0x3dc216ad	0.09476981
43	0x3f6fec8a	0.93720305
44	0x3fe111ed	1.7583596
45	0x3f4f60f4	0.81007314
46	0xbea454ff	-0.32096097
47	0xbee94478	-0.4556005
48	0xbe06d5ec	-0.13167542
49	0x3f0537d5	0.5203832
50	0x3bcad61b	0.006190074
51	0xbe621b5d	-0.22080751
52	0x3d95a83f	0.07307481
53	0x3ee508de	0.44733328
54	0x3f376dd3	0.71651953
55	0xbde61967	-0.11235314
56	0xbe80eb94	-0.25179732
57	0x3f7296c1	0.9476128
58	0x3e725630	0.2366569
59	0x3e048105	0.12939842
60	0xbf454373	-0.77056044
61	0x3eec9152	0.4620462
62	0x3fb6523c	1.4243846
63	0xbf64919c	-0.8928468
64	0xbea29a8a	-0.3175853
65	0xc0035939	-2.0523207
66	0xbf18ffa2	-0.59765065
67	0xbdd3464e	-0.10316144
68	0x3ef8b6e1	0.48577026
69	0x3ef2db87	0.4743311
70	0xbe92e27c	-0.2868842
71	0x3e68e746	0.22744474

conv_dw_4/depthwise_bias f4 [8]
0	0xbe89523c	-0.26820552
1	0x3f90dae6	1.1316803
2	0x3fc074a8	1.5035601
3	0x40076dce	2.116077
4	0x3f1833fd	0.5945433
5	0xbe00c2f4	-0.12574369
6	0xbdcd8fd4	-0.10037199
7	0xbf0c0a89	-0.54703575

conv_dw_4/depthwise_kernel f4 [1, 3, 3, 8]
0	0xbe8a8709	-0.2705615
1	0xbca9b40a	-0.020715732
2	0xbe46ba12	-0.19406918
3	0xbe851d47	-0.259989
4	0x3eb8035a	0.35940057
5	0x3f01697e	0.50551593
6	0x3cebf818	0.028804824
7	0x3d0d1dba	0.034452178
8	0xbbb83533	-0.005621576
9	0xbedb09f9	-0.42781046
10	0xbe8af743	-0.2714177
11	0xbf1059e2	-0.5638715
12	0x3e60ab4e	0.21940348
13	0x3f0f92e8	0.56083536
14	0x3e3f4b87	0.18681155
15	0x3e921365	0.28530422
16	0x3e88242a	0.2659009
17	0xbdb7744b	-0.08957728
18	0x3e398cbe	0.18120095
19	0xbe74c441	-0.2390299
20	0xbf340251	-0.70316035
21	0xbe992fcf	-0.29919288
22	0x3e2de632	0.16982344
23	0x3ea0e42b	0.31424078
24	0xbe9a0aee	-0.30086464
25	0xbe9fcac7	-0.31209394
26	0xbec23988	-0.37934518
27	0xbed6aadd	-0.41927233
28	0x3f0a77c4	0.54089
29	0x3e82d4ba	0.25552922
30	0x3e340641	0.1758051
31	0xbdfd01ca	-0.12353857
32	0x3e13e6eb	0.14443557
33	0xbef67ba5	-0.48141208
34	0xbe8213d9	-0.25405768
35	0xbf645a5d	-0.89200383
36	0xbe4cc52a	-0.19997087
37	0x3f050ff5	0.51977473
38	0x3e7c7797	0.24654995
39	0x3e741c6a	0.23838964
40	0x3f075b33	0.52873534
41	0x3c15f0ba	0.009151632
42	0x3eef8836	0.46783608
43	0xbe84da05	-0.25947586
44	0xbeea4692	-0.45756966
45	0xbe1c909c	-0.15289539
46	0x3e1a104c	0.1504528
47	0x3f432240	0.76224136
48	0xbe1fce00	-0.15605927
49	0xbe758ba4	-0.2397905
50	0xbf3f05c5	-0.7461818
51	0xbe3a4115	-0.1818889
52	0x3e63907a	0.22223082
53	0xbd49679e	-0.049171083
54	0x3e0194c5	0.12654407
55	0x3d84e0df	0.06488203
56	0x3defb7e3	0.117049955
57	0xbce4c6b2	-0.027926777
58	0x3cce869d	0.025210673
59	0xbed9dc85	-0.42551056
60	0xbeffefda	-0.4998768
61	0x3dfe48a1	0.124161966
62	0x3e1329ee	0.14371464
63	0x3e2f1f78	0.17101848
64	0x3ecf15f0	0.40446424
65	0x3c3eb3df	0.011639564
66	0x3ec79530	0.3898101
67	0xbd0daca2	-0.034588464
68	0x3e8b0ba5	0.27157322
69	0x3da1ee72	0.07906808
70	0xbd2a779c	-0.041617975
71	0x3e4cb68a	0.19991508

conv_dw_5/depthwise_bias f4 [16]
0	0xbc6dddf8	-0.0145182535
1	0x3f87975c	1.0593066
2	0xbdc74a62	-0.09730984
3	0xbeb93e23	-0.3618022
4	0x3a8264c0	0.0009948239
5	0x3ffcb344	1.9742208
6	0xbf8e4cc2	-1.1117175
7	0xbf20a432	-0.6275054
8	0xbda208e1	-0.0791185
9	0x40166102	2.349671
10	0x3cc86af0	0.024465054
11	0xbc6f1820	-0.014593154
12	0xbe044d81	-0.1292019
13	0xbed17177	-0.4090688
14	0xbf60f6c0	-0.8787651
15	0x3ff77770	1.9333324

conv_dw_5/depthwise_kernel f4 [1, 3, 3, 16]
0	0x3d3f79e4	0.046747103
1	0xbf1b968d	-0.607766
2	0xbf1c4a75	-0.6105111
3	0xbe541a5d	-0.20713182
4	0x3fe0bea5	1.755818
5	0xbf0e71f8	-0.5564265
6	0x3e448efb	0.19195168
7	0x3f1e0b88	0.61736345
8	0xbda70ab0	-0.08156335
9	0xbe8b0f10	-0.2715993
10	0x3d95cef0	0.07314861
11	0xbef905bb	-0.48637185
12	0xbf8b360c	-1.0875869
13	0xbf05a5e4	-0.52206254
14	0xbe17e567	-0.14833604
15	0xbe930cc8	-0.2872069
16	0xbe7ef8a2	-0.24899533
17	0x3f1983cd	0.5996674
18	0x3f5d1da6	0.86373365
19	0x3e987da6	0.29783362
20	0xbf8f99ad	-1.1218773
21	0x3ead9e0b	0.3390964
22	0x3fac9e77	1.348586
23	0x3c89e686	0.016833555
24	0xbfaa53e9	-1.3306857
25	0xbde3a4eb	-0.1111544
26	0x3ec89042	0.3917256
27	0x3e0d268c	0.13784236
28	0x3febafbc	1.8413005
29	0x3f0f76f7	0.560409
30	0xbead8c1a	-0.33895952
31	0xbf43fc3f	-0.7655677
32	0xbda2be3c	-0.079464406
33	0xbf3a905c	-0.72876525
34	0xbe0fe4dd	-0.14052148
35	0xbe13b955	-0.14426167
36	0xbf00e7a6	-0.5035347
37	0x3e4e7b93	0.20164327
38	0x3f81b9cd	1.0134827
39	0xbd6a8339	-0.05725405
40	0x3f37abd3	0.7174656
41	0x3e380e67	0.17974244
42	0x3eeb2fa4	0.45934784
43	0x3eeb94ec	0.46012056
44	0xbefbb32c	-0.49160135
45	0xbead1308	-0.33803582
46	0x3e9eeba7	0.31039163
47	0x3cbd8dd7	0.023138924
48	0x3f8ec16e	1.115278
49	0xbec0b60d	-0.37638894
50	0xbea96a8f	-0.3308911
51	0xbd17ed9f	-0.037091848
52	0xbee2fc7b	-0.44333252
53	0xbe5edf97	-0.2176498
54	0x3f45260b	0.77011174
55	0x3ed9e2e2	0.4255591
56	0x3e75e92d	0.24014731
57	0xbf19b57a	-0.60042536
58	0x3e31f8a5	0.17380007
59	0xbd273cce	-0.040829472
60	0x3fb21b64	1.3914609
61	0xbea3b7c8	-0.3197615
62	0xbe14ca62	-0.14530328
63	0xbf29f98b	-0.663964
64	0x3e296b13	0.16544752
65	0xbc8c36ae	-0.017115917
66	0x3f8ccd89	1.1000224
67	0x3f32aaea	0.69792044
68	0xbe3ed178	-0.18634593
69	0x3d6709cb	0.056405824
70	0x3f61f5e6	0.88265836
71	0xbda88c25	-0.082298554
72	0x4019daa8	2.4039707
73	0xbf0d0c79	-0.55097157
74	0x3e1239d7	0.14279877
75	0xbd8f1193	-0.06985774
76	0xbf97af46	-1.1850364
77	0x3f62eedb	0.88645715
78	0x3f9df04b	1.2338957
79	0xbe9b0662	-0.30278307
80	0xbd0ca2c3	-0.03433491
81	0x3d8f8b68	0.070090115
82	0xbeb57c85	-0.35446563
83	0xbe8f3cdd	-0.27976122
84	0xbdcf0502	-0.10108377
85	0xbecd3dd0	-0.40086222
86	0x3e236ede	0.15960261
87	0x3f35178f	0.7073907
88	0xbfc61f8f	-1.5478381
89	0xbf09458f	-0.53621763
90	0x3f5f637c	0.87261176
91	0x3e062a81	0.13102151
92	0x3d855a73	0.065113924
93	0x3f0ae100	0.5424957
94	0x3f2e9ca4	0.68207765
95	0xbbcf5c98	-0.0063281767
96	0xbfa679dc	-1.3005939
97	0x3df122b6	0.11774199
98	0x3dc1df0f	0.09466373
99	0xbd336a3a	-0.043802477
100	0xbf9c3bad	-1.2205712
101	0xbef8cdbc	-0.48594463
102	0xbe97421a	-0.2954262
103	0x3d076f4f	0.033065137
104	0xbe2d3b1b	-0.16917078
105	0xbd47d1f2	-0.048784204
106	0xbee05686	-0.43816012
107	0xbe4111b3	-0.18854408
108	0x3ee2347d	0.4418067
109	0xbe08e5e5	-0.13368948
110	0xbd32ff85	-0.043700714
111	0xbc0b35e9	-0.00849674
112	0x3da010ef	0.0781573
113	0xbfb76f32	-1.4330809
114	0xbef432da	-0.47695047
115	0x3f89e3e0	1.0772667
116	0x3fa61052	1.297373
117	0xbf09f319	-0.5388656
118	0xbeb9d5bb	-0.36295876
119	0x3f3ac987	0.72963756
120	0xbf5da013	-0.8657238
121	0xbed6a135	-0.41919866
122	0xbf2691c0	-0.65066147
123	0xbbfce8e7	-0.007718194
124	0xbf282b49	-0.6569105
125	0x3ec44a57	0.38337967
126	0xbd22882d	-0.03968065
127	0xbef93b41	-0.4867802
128	0x3bbc7084	0.0057507176
129	0x3efb6bee	0.4910578
130	0xbdce6145	-0.100771464
131	0xbf2a2a49	-0.6647077
132	0x3f0bee0c	0.54660106
133	0xbf81d1cd	-1.0142151
134	0xbd809f7c	-0.06280419
135	0x3d68190f	0.056664523
136	0x3f52ce8b	0.8234641
137	0xbed48145	-0.41504875
138	0xbe16138d	-0.14655896
139	0xbd01da68	-0.03170243
140	0xbe10f008	-0.14154065
141	0x3e5504bb	0.20802586
142	0xbe77be57	-0.24193703
143	0x3ec551df	0.38539025

conv_dw_6/depthwise_bias f4 [16]
0	0xbede762c	-0.43449533
1	0xbc5e3360	-0.013562053
2	0xbfa64065	-1.2988402
3	0x3eb2488d	0.34820977
4	0xbe526974	-0.2054804
5	0x3fdfeae8	1.7493563
6	0x3c7ecd80	0.015551925
7	0x4058b486	3.3860183
8	0x3f90982e	1.1296442
9	0x3f94527b	1.1587671
10	0xbeb12170	-0.34595823
11	0x40459114	3.0869799
12	0xbeef51be	-0.46742052
13	0x3fa746ff	1.3068541
14	0x40376a39	2.8658583
15	0xbe355978	-0.17709911

conv_dw_6/depthwise_kernel f4 [1, 3, 3, 16]
0	0x3e586213	0.21131162
1	0x3d82a02d	0.06378207
2	0x3dcc4b44	0.09975293
3	0xbde8d37d	-0.11368463
4	0x3e45c4cc	0.19313353
5	0xbe89f4b0	-0.26944494
6	0xbc03345e	-0.008008091
7	0xbe7fabc1	-0.24967863
8	0xbdf36c90	-0.11885941
9	0xbed9ce7b	-0.42540345
10	0x3ec63aa4	0.38716614
11	0xbe7a2593	-0.24428396
12	0x3d07b5ac	0.03313224
13	0xbe05c5bc	-0.13063711
14	0xbeb84cf7	-0.3599622
15	0x3e4436f9	0.19161595
16	0x3ec4aea5	0.38414493
17	0x3e8699ee	0.26289314
18	0xbde7e447	-0.11322837
19	0xbecc363d	-0.3988513
20	0x3ea9d764	0.33172143
21	0xbe3cdf6a	-0.184446
22	0x3ead048e	0.33792537
23	0xbf565d53	-0.8373615
24	0xbf17785a	-0.59168017
25	0xbeb7437e	-0.3579368
26	0xbe6338d1	-0.22189642
27	0xbf107633	-0.5643036
28	0xbe1ae090	-0.15124726
29	0x3dc2a9f0	0.09505069
30	0xbf2d22e2	-0.6763135
31	0x3efa2f49	0.488642
32	0x3e17c5e7	0.14821588
33	0x3cb83802	0.022487644
34	0xbd952e32	-0.07284202
35	0xbf3b2ef8	-0.73118544
36	0xbebb7106	-0.36609668
37	0xbebe7266	-0.37196654
38	0x3eccd570	0.4000659
39	0x3dedb05c	0.116059035
40	0xbe014191	-0.12622668
41	0xbe20d7a0	-0.15707254
42	0xbf29629d	-0.66166097
43	0xbf747995	-0.9549802
44	0xbf12ac8d	-0.5729454
45	0x3dbad6cd	0.09123001
46	0xbed60bcd	-0.41805878
47	0x3e894d11	0.2681661
48	0x3eaecade	0.3413915
49	0xbdc2a590	-0.09504235
50	0x3ecc5077	0.3990514
51	0x3eb8623f	0.36012456
52	0x3ea9692e	0.33088058
53	0xbebf2db9	-0.3733957
54	0x3f178a5e	0.59195507
55	0xbf515df4	-0.81783986
56	0xbe8575d5	-0.2606646
57	0xbbd48763	-0.006485866
58	0x3f5dd4d4	0.86652875
59	0xbf1624eb	-0.5865008
60	0x3ec7671a	0.38945848
61	0xbe8344e0	-0.25638485
62	0xbe9b5ab0	-0.30342627
63	0x3f5ba307	0.85795635
64	0x3f5d27c6	0.86388814
65	0x3e7ab66c	0.24483651
66	0x3f022c40	0.5084877
67	0xbf2ec0b3	-0.68262786
68	0xbe6fd9a7	-0.23422872
69	0xbe4f90d6	-0.20270094
70	0x3f4d9451	0.8030444
71	0xbf896564	-1.0734067
72	0xbe937faa	-0.28808337
73	0xbd61bb2d	-0.055110145
74	0x3e86fdff	0.2636566
75	0xbf9992fc	-1.1997981
76	0x3f26af06	0.65110815
77	0xbe2b80f5	-0.16748412
78	0xbf168e6b	-0.5881106
79	0x3f309ce6	0.6898941
80	0x3ed5bbb7	0.41744778
81	0x3ed4c550	0.41556787
82	0x3e0eb6ef	0.13936971
83	0x3e9ab0fd	0.30213156
84	0xbead2920	-0.33820438
85	0xbeb91a86	-0.36153048
86	0x3ebe01ea	0.37110835
87	0xbf031a32	-0.51211846
88	0xbe8e9f99	-0.27856138
89	0xbd199843	-0.037498724
90	0xbf0fc90d	-0.56166154
91	0xbef5256a	-0.47880107
92	0x3e635a1c	0.22202343
93	0xbe2f3f19	-0.17113914
94	0xbf14ff9a	-0.5820252
95	0xbd5f063e	-0.054449312
96	0x3e3e9f73	0.18615513
97	0x3de8e085	0.11370949
98	0x3ed32d4f	0.41245505
99	0xbf33ad10	-0.7018595
100	0xbeb65ff6	-0.35620087
101	0xbd295379	-0.04133937
102	0x3edf28c5	0.43585792
103	0xbeb288ef	-0.34870097
104	0xbd92ca50	-0.07167494
105	0x3ad717d2	0.0016410297
106	0x3f0d1bb4	0.55120397
107	0xbe55a958	-0.20865381
108	0x3e8d36ff	0.2758102
109	0xbef9d28a	-0.4879344
110	0xbd341229	-0.04396263
111	0x3cfe8050	0.031067044
112	0x3eab0501	0.33402255
113	0x3db039eb	0.08604797
114	0x3f23374d	0.6375626
115	0x3f038e5b	0.5138909
116	0x3e828250	0.25490046
117	0xbe31c528	-0.17360365
118	0x3ef3f751	0.47649625
119	0xbed10188	-0.4082148
120	0x3da86e44	0.082241565
121	0x3e403146	0.18768796
122	0x3ec853f7	0.3912656
123	0xbf2196f5	-0.6312097
124	0x3f4d6327	0.8022942
125	0xbe77371d	-0.24142118
126	0xbf19f947	-0.6014599
127	0x3deab2f8	0.11459917
128	0x3e84c700	0.25933075
129	0x3e981436	0.2970292
130	0x3df43baa	0.119254425
131	0x3ec22e95	0.37926164
132	0x3ecd81bf	0.4013805
133	0x3d46aba0	0.048503518
134	0x3d20635c	0.039157256
135	0xbe777b3d	-0.24168105
136	0xbe42e9a9	-0.19034447
137	0x3e9ff3cf	0.312407
138	0xbe7dfd3a	-0.2480363
139	0x3da28c72	0.07936944
140	0x3f16490e	0.5870522
141	0xbdd8432a	-0.105596855
142	0xbebbbec6	-0.36668986
143	0x3dd3f23c	0.10348937

conv_dw_7/depthwise_bias f4 [32]
0	0xbefd082e	-0.49420303
1	0xbe546ce8	-0.2074467
2	0x3d6c4418	0.057682127
3	0x3c4d4740	0.012529194
4	0x3f34bbcf	0.70599073
5	0xbf1b24b6	-0.6060289
6	0x3dabad74	0.08382693
7	0xbc73a800	-0.014871597
8	0xbdf077b4	-0.117415816
9	0x3fa091f2	1.2544539
10	0x3e023f9e	0.1271958
11	0xbf7c1f61	-0.9848538
12	0xbd8d17c8	-0.068893015
13	0x3e7f9312	0.24958447
14	0x40129a83	2.2906806
15	0x3f20159a	0.6253296
16	0xbf404789	-0.75109154
17	0x3fa118c2	1.258568
18	0x3f3e1029	0.7424341
19	0xbf9a21e3	-1.2041591
20	0x3fa6c7a0	1.3029671
21	0xbe76f768	-0.24117815
22	0xbcedc240	-0.02902329
23	0xbd45be60	-0.04827726
24	0xbeeb206e	-0.4592318
25	0xbe271b42	-0.16318992
26	0xbfb73c27	-1.4315232
27	0xbe234c46	-0.15947065
28	0x3f0636a8	0.5242715
29	0x3d2c1432	0.042011447
30	0xbf53800b	-0.82617253
31	0xbe11bdb0	-0.14232516
