source/assets/cozmo_resources/config/engine/vision/dnn_models/hand_detector_fcde4ff411c44baa9e7184c733d3b943.tflite (tflite, 758432 bytes, 57 tensors)

mobilenet/conv_1/conv/Conv2D_bias f4 [6]
0.32093394 0.41016495 0.004770376 -0.32567838 0.36885548 -0.1977654
00000000: 7451 a43e 2401 d23e d050 9c3b 51bf a6be
00000010: a0da bc3e 0383 4abe

mobilenet/conv_1/conv/kernel f4 [6, 3, 3, 3]
-0.03845317 0.13165401 0.11304482 -0.2294728 -0.011087284 0.09766326 -0.17161934 0.016623097
0.09300982 -0.0800275 0.16110663 0.15962783 -0.12464857 0.133355 0.20349586 -0.16875683
0.08735538 0.1787956 0.019596066 0.24036032 0.21398665 -0.019458907 0.2193314 0.21994431
-0.042304117 0.18594258 0.23510715 0.3685675 -0.48875147 0.07824584 0.25583684 -0.47261575
0.23698561 0.23575512 -0.656497 0.5227587 0.35088375 -0.7393816 0.34619477 0.1969773
-0.41074073 0.17917733 0.22764964 -0.17831959 -0.12942865 0.48140463 -0.30224565 -0.1378875
0.26968718 -0.4017469 0.06720327 0.3133518 -0.39240345 -0.07487152 -1.2643973 -0.25970623
0.8489275 -0.30996668 0.3838374 -0.03505856 0.7134769 -0.40943855 0.30930102 1.5202802
0.1436216 -0.76843476 -0.4902736 -0.21897988 0.3331942 -0.48549154 0.3143758 -0.36816642
0.24173017 -0.22536898 -0.36945885 -0.55084056 -0.52928793 0.33747402 0.7070958 -0.008639923
-0.23150739 -0.1332564 0.009787619 0.026129156 0.005339801 0.18387964 0.1013367 0.019469311
0.17509998 0.22771719 -0.21229342 -0.0050490163 0.061784744 -0.2373162 -0.07353547 0.10102112
-0.13797136 -0.0026766958 0.16714069 -0.30138132 -0.14576347 -0.061865397 -0.51854956 -0.37331352
-0.1980029 -0.42516714 -0.28200725 -0.06957372 0.050360445 0.06656879 0.09292577 0.15779757
0.16065262 0.29543474 0.093261026 0.024330558 0.098513186 0.08371923 0.19183269 0.15700684
0.028095748 0.10166836 0.18934515 0.02121543 0.020468323 0.103747785 -0.06037342 0.063417636
0.107877664 -0.12519391 -0.053655244 -0.008401967 -0.052156754 -0.02492154 0.05738741 -0.07063733
-0.14395884 0.028093873 0.09177677 -0.16733678 -0.013092715 0.06206357 -0.06452978 0.076013476
0.033896465 -0.210464 -0.1214769 -0.008398129 -0.22338139 -0.005757212 0.045284238 -0.21773319
0.014563642 -0.12168014 -0.40543625 -0.20266894 0.024851358 -0.19127607 -0.07069861 0.09101769
-0.09609568 0.06396857
00000000: 1281 1dbd 4fd0 063e 0b84 e73d ebfa 6abe
00000010: 71a7 35bc ad03 c83d fbbc 2fbe 292d 883c
00000020: ef7b be3d 75e5 a3bd 23f9 243e 7a75 233e
00000030: c047 ffbd 378e 083e 3861 503e 97ce 2cbe
00000040: 61e7 b23d 3216 373e ee87 a03c 0421 763e
00000050: 511f 5b3e 4968 9fbc 6998 603e 1539 613e
00000060: 1547 2dbd bb67 3e3e eebf 703e e1b4 bc3e
00000070: a23d fabe 5b3f a03d 0cfd 823e b1fa f1be
00000080: 5bac 723e ca69 713e 3010 28bf 84d3 053f
00000090: 09a7 b33e 1d48 3dbf 7140 b13e 6bb4 493e
000000a0: 9c4c d2be 437a 373e fd1c 693e 6999 36be
000000b0: f288 04be ab7a f63e f1bf 9abe 6132 0dbe
000000c0: 7014 8a3e c5b1 cdbe dea1 893d a66f a03e
000000d0: 1be9 c8be 3d56 99bd c5d7 a1bf 37f8 84be
000000e0: 5053 593f f4b3 9ebe 5686 c43e 9199 0fbd
000000f0: 6ca6 363f eea1 d1be b45c 9e3e 8b98 c23f
00000100: 8a11 133e 24b8 44bf 2405 fbbe 433c 60be
00000110: 6e98 aa3e 5992 f8be ddf5 a03e 4f80 bcbe
00000120: 1d88 773e 20c7 66be b629 bdbe e303 0dbf
00000130: 6a7f 07bf 65c9 ac3e 3b04 353f 778e 0dbc
00000140: 4610 6dbe 5e74 08be 405c 203c d00c d63c
00000150: 7ff9 ae3b f24a 3c3e 9e89 cf3d 1b7e 9f3c
00000160: 694d 333e b22e 693e 7263 59be 3872 a5bb
00000170: 0012 7d3d 0503 73be c499 96bd 29e4 ce3d
00000180: 5d48 0dbe 816b 2fbb ee26 2b3e a74e 9abe
00000190: 0543 15be 9266 7dbd aabf 04bf f322 bfbe
000001a0: 46c1 4abe 82af d9be 4163 90be ab7c 8ebd
000001b0: c146 4e3d 3855 883d de4f be3d b095 213e
000001c0: 1f82 243e 3943 973e a3ff be3d e150 c73c
000001d0: 48c1 c93d fd74 ab3d ca6f 443e 67c6 203e
000001e0: 0e29 e63c 8037 d03d b2e3 413e fbcb ad3c
000001f0: 2fad a73c b879 d43d 1f4a 77bd 1be1 813d
00000200: f7ee dc3d d532 00be 9ac5 5bbd 67a8 09bc
00000210: 52a2 55bd 4228 ccbc 100f 6b3d 4eaa 90bd
00000220: f269 13be 1f25 e63c 76f5 bb3d 555a 2bbe
00000230: d482 56bc 5f36 7e3d 3028 84bd f4ac 9b3d
00000240: 05d7 0a3d e083 57be e2c8 f8bd 4e98 09bc
00000250: 17be 64be ffa6 bcbb f77b 393d 73f5 5ebe
00000260: 589c 6e3c 7033 f9bd 5795 cfbe 7288 4fbe
00000270: 1395 cb3c e0dd 43be 6fca 90bd 7c67 ba3d
00000280: d0cd c4bd f401 833d

mobilenet/dw_conv_1/dw_conv2d/sep_conv_bias f4 [6]
-0.5989827 -1.8182743 0.19412804 -0.6769592 -0.5910794 0.94524765
00000000: ee56 19bf 36bd e8bf 80c9 463e 334d 2dbf
00000010: fb50 17bf c0fb 713f

mobilenet/dw_conv_1/dw_conv2d/weights f4 [1, 3, 3, 6]
0.1469126 -3.1345022 5.4121957 -0.5205883 1.1012632 0.8398807 -0.031104634 1.2087529
-6.0165434 -2.862549 -0.7740972 0.950437 0.32003638 4.688213 -2.1607826 1.0094292
-0.56072277 0.0013724947 0.66093063 -0.39019382 -0.88531494 -0.95934135 -0.897377 1.251426
0.84450823 3.0824697 -4.2641726 1.316207 1.3725427 -1.8997663 0.5015949 0.71642613
6.9218407 -0.20181042 1.3498958 -4.147689 0.1930863 -2.4395533 2.947191 0.62041026
0.50354505 0.6152088 -0.13083169 2.474964 -1.6385492 0.901325 0.4798382 1.2725314
0.13941473 -0.8473874 -1.1093446 3.0594792 0.07890259 -1.0733976
00000000: 4270 163e af9b 48c0 b530 ad40 4645 05bf
00000010: 31f6 8c3f 6c02 573f 25cf febc 6ab8 9a3f
00000020: 8687 c0c0 0134 37c0 3c2b 46bf d74f 733f
00000030: cfdb a33e d705 9640 434a 0ac0 fa34 813f
00000040: 878b 0fbf 48e5 b33a c032 293f 7cc7 c7be
00000050: 00a4 62bf 6597 75bf 80ba 65bf ba2e a03f
00000060: b131 583f 2f47 4540 1a74 88c0 7979 a83f
00000070: 7baf af3f 8b2b f3bf 8668 003f b467 373f
00000080: b87f dd40 64a7 4ebe 63c9 ac3f deb9 84c0
00000090: 6ab8 453e a421 1cc0 c79e 3c40 35d3 1e3f
000000a0: 54e8 003f 537e 1d3f bef8 05be cf65 1e40
000000b0: fbbb d1bf 3cbd 663f 5aad f53e 4fe2 a23f
000000c0: bcc2 0e3e 61ee 58bf 01ff 8dbf 82ce 4340
000000d0: ae97 a13d 1865 89bf

mobilenet/dw_conv_1/pointwise_convolution/Conv2D_bias f4 [12]
-0.15350051 -0.1768333 -0.13107522 -0.12852001 0.104803085 -0.19736418 0.07213752 -0.2698378
-0.3822952 0.07834567 -0.53402406 -0.05565059
00000000: 3d2f 1dbe ca13 35be 9538 06be c09a 03be
00000010: 00a3 d63d d619 4abe d6bc 933d 2e28 8abe
00000020: 32bc c3be b273 a03d cdb5 08bf e0f1 63bd

mobilenet/dw_conv_1/pointwise_convolution/kernel f4 [12, 1, 1, 6]
-0.32504782 -0.06608301 0.31475085 0.51468635 0.12846561 -0.12891367 0.03627294 0.5879631
-0.18206722 -0.005647874 -0.43837205 0.06314295 0.5910584 -0.016115366 -0.014306858 -0.16430224
-0.056230586 -0.21286386 -0.19270156 0.5041135 -0.12683937 -0.19594508 0.058887772 0.35083464
0.40675217 0.12341517 -0.150791 0.3408363 0.009274572 -0.7620159 0.16413158 -0.28436512
0.7246405 -0.05063501 0.362598 -0.19598109 0.15922424 -0.3201314 -0.1050064 0.17567912
-0.26830474 0.42305276 -0.5316946 0.00254082 0.09652043 0.2571925 0.18525694 0.4227177
0.0039358935 0.23480815 0.047692135 -0.084284745 0.06811182 0.07183874 -0.09081622 0.23098172
-0.11902608 0.3450141 0.09944729 -0.12711751 0.014489155 0.09394315 0.17426273 0.5401442
0.28734058 0.048915487 0.012394386 -0.060318723 -0.038399015 -0.12125518 0.43803385 0.21804787
00000000: ab6c a6be 8756 87bd 0627 a13e 7cc2 033f
00000010: 7d8c 033e f201 04be ef92 143d c084 163f
00000020: d46f 3abe cd11 b9bb 4d72 e0be 1751 813d
00000030: 9a4f 173f 5f04 84bc 5067 6abc d93e 28be
00000040: 0b52 66bd fcf8 59be 8f53 45be 950d 013f
00000050: 2ee2 01be d4a5 48be 4e34 713d 99a0 b33e
00000060: d241 d03e 18c1 fc3d f568 1abe 1882 ae3e
00000070: 60f4 173c 7913 43bf 1c12 283e 4e98 91be
00000080: 0a82 393f a866 4fbd 72a6 b93e 44af 48be
00000090: ae0b 233e 43e8 a3be 980d d7bd 3ae5 333e
000000a0: 3d5f 89be 5f9a d83e 231d 08bf e383 263b
000000b0: 81ac c53d bcae 833e ffb3 3d3e 746e d83e
000000c0: abf8 803b 8c71 703e d458 433d 7b9d acbd
000000d0: 367e 8b3d 3020 933d dbfd b9bd 7986 6c3e
000000e0: f2c3 f3bd b0a5 b03e 05ab cb3d 182b 02be
000000f0: ec63 6d3c 4465 c03d ee71 323e e446 0a3f
00000100: 4e1e 933e 9b5b 483d d311 4b3c c410 77bd
00000110: 4948 1dbd a354 f8bd f945 e03e f147 5f3e

mobilenet/dw_conv_10/dw_conv2d/sep_conv_bias f4 [102]
-0.3164122 -0.36649337 -0.02275113 -0.62637764 -0.4750256 -0.39654946 -0.047737285 -0.2338599
-0.5223544 -0.86371046 0.55745804 -0.2617296 0.5189017 -0.043296527 0.50924784 0.6440622
-0.31558287 0.7664286 -0.32545397 0.73239285 0.57926595 0.021646578 -0.030474478 0.3812882
-0.30115828 -0.22321741 -0.36362565 -0.6634397 0.476955 0.4958914 0.09478621 0.5485381
0.42481926 0.69405735 -0.17357674 -0.51584667 -0.7047299 -0.5262508 0.4847496 0.08510223
-0.25071976 -0.49675223 -0.26812518 0.68894595 0.48544928 0.4852757 -0.4882378 -0.025726413
-0.188666 -0.41017693 0.48045295 0.63188225 -0.13755593 -0.3875709 -0.19951282 -0.433232
0.43734816 -0.48466298 -0.17000058 -0.24320915 0.4667564 -0.46595356 0.5439659 -0.34348172
0.3104966 -0.16056715 0.5038996 -0.38822764 0.57948506 0.3915301 -0.5260171 -0.39082643
-0.3466743 0.05299099 0.12498492 -0.83504105 -0.78778595 0.78877777 -0.5374837 -0.42599204
0.61778367 0.31734782 0.4427448 0.3034022 -0.6007984 0.29092142 0.48268938 -0.5095621
-0.7254565 0.6342871 -0.036041852 0.32393909 -0.57430726 -0.61233515 -0.42602304 -0.10425958
-0.05808628 0.06768027 0.5992729 -0.2567511 -0.19477566 0.119075075
00000000: c800 a2be 05a5 bbbe 9460 babc 495a 20bf
00000010: 8e36 f3be 8808 cbbe 2c88 43bd f878 6fbe
00000020: 05b9 05bf 211c 5dbf 92b5 0e3f 6c01 86be
00000030: bed6 043f b357 31bd 115e 023f 43e1 243f
00000040: 1494 a1be aa34 443f e7a1 a6be 197e 3b3f
00000050: c64a 143f 2a54 b13c 9da5 f9bc 3538 c33e
00000060: 6b31 9abe 1b93 64be 242d babe 2fd7 29bf
00000070: 7233 f43e 7ae5 fd3e 461f c23d fe6c 0c3f
00000080: e981 d93e bead 313f 1abe 31be 870e 04bf
00000090: 2e69 34bf 5fb8 06bf 1931 f83e 144a ae3d
000000a0: 575e 80be 4f56 febe b447 89be c35e 303f
000000b0: cf8c f83e 0e76 f83e 4efa f9be 33c0 d2bc
000000c0: a931 41be b602 d2be eefd f53e 09c3 213f
000000d0: 76db 0cbe b16f c6be 174d 4cbe 96d0 ddbe
000000e0: 19ec df3e bf25 f8be a214 2ebe d20b 79be
000000f0: b2fa ee3e 7791 eebe 5941 0b3f d6dc afbe
00000100: 69f9 9e3e b76b 24be 90ff 003f c6c5 c6be
00000110: 2259 143f a276 c83e 0fa9 06bf 671a c8be
00000120: 4b7f b1be 150d 593d 18f8 ff3d 40c5 55bf
00000130: 57ac 49bf 57ed 493f 8898 09bf a11b dabe
00000140: 1227 1e3f 6a7b a23e 72af e23e 8857 9b3e
00000150: edcd 19bf a7f3 943e 1023 f73e a972 02bf
00000160: 84b7 39bf a460 223f 9fa0 13bd 58db a53e
00000170: cd05 13bf ffc1 1cbf b11f dabe 0c86 d5bd
00000180: e1eb 6dbd f49b 8a3d f369 193f e174 83be
00000190: 4573 47be a2dd f33d

mobilenet/dw_conv_10/dw_conv2d/weights f4 [1, 3, 3, 102]
2.8369012 0.9335439 0.7234063 -0.29563364 0.6991506 0.84535325 -0.98744136 3.6487994
-0.7000509 -0.1100132 0.8180468 0.05136212 -0.5935129 1.4415874 -1.1690135 -0.75771594
-0.3154632 -0.35839227 -1.0036298 -1.2455175 -2.0763578 -1.1140167 -0.22936252 1.0076636
-1.1595993 0.572615 2.0960946 1.2638146 -1.0517567 0.13865992 1.2592857 -0.4071742
-1.5610559 -0.33489844 -0.16575441 -0.517502 0.9904248 1.4776044 -0.38127112 -0.4807051
1.7043138 -0.2705392 -0.1557832 -0.9055642 -2.445462 -1.7744402 0.18404593 -1.1210628
-0.8080292 -0.85761535 -0.18429488 -1.5091031 -1.0443195 0.16458347 -0.9565209 -0.04590301
1.840164 0.4112936 -0.8767224 0.97686774 -1.5416589 0.44427988 -0.35944602 0.11769887
-0.5774837 1.4025463 -0.5942524 -0.08086522 -0.891198 2.4252787 2.1618822 -0.12561837
-0.3396924 1.2581922 -0.7546694 0.7951299 0.8178168 -1.2910562 0.9524096 0.025508141
-1.189133 -0.32724565 -0.47748008 -2.0841658 -0.32950932 0.3191155 -2.4864588 -0.36426076
-0.08235037 2.5314984 0.508642 -1.2890047 0.5926072 0.68539834 -0.15338443 -0.7608728
0.82989615 2.0532029 -1.3107209 1.0399582 0.39726865 0.98159033 -1.070078 0.5133974
1.6551383 0.8174838 0.3791458 -1.5912237 -0.79342854 -1.6187373 -0.7502036 0.37509117
-0.5638923 1.2105377 0.17414689 -2.9115021 -0.5872872 0.29671675 0.4976894 -0.04128666
-0.88982147 0.09352291 -0.16754216 0.62329525 -0.90260816 1.738792 0.2060624 0.46760482
1.4561946 0.87873214 -1.9803398 0.6498402 -0.6376458 0.6588847 -1.7698408 -0.45773128
-0.09455373 0.4313898 -0.0263952 0.5890484 0.81467867 -2.2999399 1.4230006 0.004529198
0.14543788 0.38662034 -1.7397319 0.26719338 0.23931137 1.5853274 0.89302915 0.34668624
0.060268953 -1.9587489 -1.336704 -0.03387947 -1.1410619 -0.45820656 -0.8821932 1.3103541
0.8823278 2.3947287 -0.07513701 1.6942658 -1.4610054 0.38700065 -1.3946288 -1.6884578
-0.9504009 -0.11061797 -0.77182126 0.00974226 -0.057193257 1.3188913 0.18386215 1.6607608
-0.7261086 0.7951212 0.1100529 -0.66854525 0.39455983 2.0011032 -0.36247024 -0.42987123
-2.8029423 -1.9081992 0.087876715 -0.9260529 -1.8527476 -0.44720978 0.27656326 -0.080586694
-0.7945817 0.26822305 -0.46764085 1.0828633 0.46916056 -0.7841702 -0.36255848 1.9604788
-1.2866479 0.17765732 0.5571878 -2.7383356 0.3413463 -0.50996995 1.8488518 1.8306599
-0.7442917 0.30461773 -1.3188542 1.3661827 0.26990527 1.5640657 -0.015656926 -0.39285862
1.4282112 -0.9432222 0.11008581 -1.509023 -0.6864159 -1.8785156 1.6517056 -0.82377005
1.1853065 1.4232697 -3.1622653 -1.1085527 -0.17153616 1.549458 0.46511048 -0.6015555
0.20005706 0.256568 2.3592386 -0.21584839 0.1293899 -1.3524295 -1.871039 -0.36393905
1.2527915 1.3524988 0.6801283 0.8565931 -1.1618253 0.01140177 0.097450875 0.7528964
-1.2005982 0.4137323 1.218322 -1.4199584 -1.0999128 -0.30518812 -1.1795257 -1.0051401
00000000: ca8f 3540 bcfc 6e3f 2831 393f 4b5d 97be
00000010: 89fb 323f 1269 583f f5c8 7cbf ee85 6940
00000020: 8936 33bf 9a4e e1bd 846b 513f 1661 523d
00000030: 76f0 17bf f085 b83f 3ca2 95bf acf9 41bf
00000040: 6484 a1be 317f b7be f176 80bf 1e6d 9fbf
00000050: 0ce3 04c0 1998 8ebf 02de 6abe 1ffb 803f
00000060: c06d 94bf e696 123f 6a26 0640 adc4 a13f
00000070: f79f 86bf defc 0d3e 4630 a13f 2379 d0be
00000080: aed0 c7bf cf77 abbe 86bb 29be 037b 04bf
00000090: 7b8c 7d3f 2422 bd3f f835 c3be fb1e f6be
000000a0: f426 da3f 1d84 8abe a285 1fbe 0ed3 67bf
000000b0: 7382 1cc0 db20 e3bf 8976 3c3e fc7e 8fbf
000000c0: 00db 4ebf ae8c 5bbf ccb7 3cbe 4a2a c1bf
000000d0: 43ac 85bf 9288 283e 8ede 74bf cb04 3cbd
000000e0: 7e8a eb3f 1395 d23e e170 60bf 0114 7a3f
000000f0: 1455 c5bf a778 e33e 4f09 b8be 1b0c f13d
00000100: f9d5 13bf a386 b33f ed20 18bf aa9c a5bd
00000110: 8d25 64bf c437 1b40 475c 0a40 1aa2 00be
00000120: 2aec adbe 710c a13f 0432 41bf a28d 4b3f
00000130: 715c 513f 5441 a5bf 1ed1 733f 73f6 d03c
00000140: 8335 98bf be8c a7be 4578 f4be f962 05c0
00000150: 72b5 a8be 1b63 a33e 2422 1fc0 6380 babe
00000160: 50a7 a8bd 1204 2240 5d36 023f 1bfe a4bf
00000170: 1bb5 173f 4476 2f3f cf10 1dbe 8fc8 42bf
00000180: 1374 543f ad67 0340 b4c5 a7bf 5a1d 853f
00000190: cc66 cb3e 8149 7b3f 51f8 88bf 036e 033f
000001a0: 92db d33f 9e46 513f 661f c23e 38ad cbbf
000001b0: 221e 4bbf c932 cfbf 580d 40bf f30b c03e
000001c0: 3f5b 10bf e6f2 9a3f 9053 323e 0d56 3ac0
000001d0: 7458 16bf 42eb 973e 25d1 fe3e 331c 29bd
000001e0: 57cb 63bf f088 bf3d 2c90 2bbe 4790 1f3f
000001f0: 5411 67bf bc90 de3f 0602 533e e669 ef3e
00000200: 9664 ba3f 97f4 603f c67b fdbf ed5b 263f
00000210: c13c 23bf abac 283f 258a e2bf c15b eabe
00000220: 63a5 c1bd 20df dc3e bf3a d8bc e0cb 163f
00000230: c88e 503f 3732 13c0 e224 b63f ab69 943b
00000240: abed 143e 1af3 c53e 89af debf 92cd 883e
00000250: 0a0e 753e 02ec ca3f 8f9d 643f dc80 b13e
00000260: 94dc 763d 49b8 fabf 1e19 abbf 33c5 0abd
00000270: 510e 92bf 0d9a eabe 6ad7 61bf afb9 a73f
00000280: 3ce0 613f 3c43 1940 6fe1 99bd b4dd d83f
00000290: 3a02 bbbf f324 c63e 3283 b2bf 631f d8bf
000002a0: 794d 73bf ad8b e2bd 1496 45bf 009e 1f3c
000002b0: 7a43 6abd 6ed1 a83f 5c46 3c3e cf93 d43f
000002c0: 41e2 39bf 108d 4b3f 6a63 e13d c825 2bbf
000002d0: bf03 ca3e 1312 0040 b395 b9be 1518 dcbe
000002e0: 6863 33c0 df3f f4bf b5f8 b33d ce11 6dbf
000002f0: d526 edbf aef8 e4be b399 8d3e a30a a5bd
00000300: b569 4bbf 8854 893e 9f6e efbe 449b 8a3f
00000310: d035 f03e 61bf 48bf 44a1 b9be f8f0 fa3f
00000320: e1b0 a4bf cdeb 353e dca3 0e3f e440 2fc0
00000330: f1c4 ae3e 648d 02bf 2da7 ec3f 1053 ea3f
00000340: e789 3ebf dbf6 9b3e 37d0 a8bf 13df ae3f
00000350: 0631 8a3e 4e33 c83f f442 80bc c424 c9be
00000360: a0cf b63f 0377 71bf ab74 e13d aa27 c1bf
00000370: f4b8 2fbf 3373 f0bf 176b d33f 98e2 52bf
00000380: 20b8 973f b42d b63f 8e62 4ac0 0ee5 8dbf
00000390: 2da7 2fbe a454 c63f f622 ee3e 8bff 19bf
000003a0: c2db 4c3e e25c 833e c4fd 1640 5c07 5dbe
000003b0: c97e 043e 691c adbf 357e efbf 3856 babe
000003c0: 795b a03f ae1e ad3f e31c 2e3f af49 5b3f
000003d0: b1b6 94bf 7dce 3a3c 5394 c73d d2bd 403f
000003e0: 34ad 99bf b8d4 d33e faf1 9b3f 32c1 b5bf
000003f0: f1c9 8cbf 9e41 9cbe b3fa 96bf 6ea8 80bf

mobilenet/dw_conv_10/pointwise_convolution/Conv2D_bias f4 [102]
-0.22094965 -0.12427077 -0.10603607 -0.42333537 -0.109816715 -0.0426926 0.22841154 -0.22358346
-0.13920544 -0.04202363 0.037536018 -0.0096692 0.10487324 -0.026757231 -0.102433726 -0.036781948
0.03605023 -0.15798914 0.13766725 -0.19306809 -0.02695077 0.29489508 -0.24375203 -0.31836727
-0.033906166 -0.068403594 0.39161626 -0.019954916 -0.130816 0.4557558 -0.17389444 0.10362105
0.29699373 -0.3339779 -0.0120438 -0.1966485 -0.3384887 -0.018505624 0.059915602 -0.034821156
-0.042804755 -0.08630979 -0.15922986 -0.043403503 -0.104094446 -0.29276168 -0.033254735 0.1499218
-0.029938038 -0.039338093 0.2074087 -0.18828624 0.24551092 0.029341914 0.365699 0.01597121
0.015125856 -0.07432137 -0.36961693 0.07385266 -0.20103188 -0.053061634 0.2943378 0.70987004
0.28338066 -0.003736684 -0.018597255 -0.1282267 -0.06296217 -0.044179615 0.1469114 -0.019271718
0.11536573 0.5325457 0.0030870065 0.5765218 0.066402815 -0.042125247 -0.03217244 -0.17374042
0.09846573 -0.26260287 0.18714817 -0.046127837 -0.09050837 -0.16008773 -0.2018546 -0.022725394
0.62359905 0.041301202 0.55844843 0.02396771 0.17230627 0.07553993 -0.24788028 -0.35686505
0.06286581 0.19780761 0.14919513 0.07607322 0.07983337 -0.032840066
00000000: a040 62be ac81 febd 7029 d9bd 6abf d8be
00000010: 96e7 e0bd 70de 2ebd b7e4 693e 10f3 64be
00000020: df8b 0ebe f820 2cbd 5ebf 193d 906b 1ebc
00000030: c8c7 d63d fb31 dbbc c6c8 d1bd aba8 16bd
00000040: 68a9 133d e8c7 21be a5f8 0c3e a4b3 45be
00000050: dcc7 dcbc 7dfc 963e 229a 79be 0901 a3be
00000060: 31e1 0abd 2f17 8cbd ed81 c83e 7e78 a3bc
00000070: a1f4 05be d358 e93e 6211 32be 4637 d43d
00000080: 900f 983e 27ff aabe 5c53 45bc 395e 49be
00000090: 644e adbe 1b99 97bc 106a 753d a1a0 0ebd
000000a0: 0a54 2fbd 30c3 b0bd 270d 23be dfc7 31bd
000000b0: 782f d5bd dce4 95be 1e36 08bd 1a85 193e
000000c0: 9e40 f5bc fb20 21bd f262 543e 1cce 40be
000000d0: 3767 7b3e 745e f03c e63c bb3e 0ed6 823c
000000e0: 70d2 773c cd35 98bd 6e3e bdbe 1040 973d
000000f0: 4ddb 4dbe 2857 59bd 72b3 963e 0bba 353f
00000100: 4517 913e 28e3 74bb 4559 98bc dc4d 03be
00000110: 4ff2 80bd aff5 34bd f16f 163e b9df 9dbc
00000120: de44 ec3d ea54 083f 604f 4a3b ef96 133f
00000130: 33fe 873d 868b 2cbd 40c7 03bd 02e9 31be
00000140: 67a8 c93d e273 86be c5a3 3f3e 8bf0 3cbd
00000150: 745c b9bd 0aee 23be f9b2 4ebe 9b2a babc
00000160: 30a4 1f3f 732b 293d 7af6 0e3f ee57 c43c
00000170: 0e71 303e aeb4 9a3d 54d4 7dbe 04b7 b6be
00000180: cabf 803d 148e 4a3e 9cc6 183e 47cc 9b3d
00000190: ae7f a33d 4e83 06bd

mobilenet/dw_conv_10/pointwise_convolution/kernel f4 [102, 1, 1, 102]
-0.019851819 0.015481707 -0.0065760273 -0.060224082 -0.028096434 0.0023952657 0.024110468 -0.075425096
-0.028383441 -0.09693319 0.031491518 -0.05865805 -0.011901224 -3.0986086e-36 0.0016938524 0.03723408
0.044572283 -0.021282677 0.048909973 -0.007557426 0.048702676 -0.0032656705 -2.2627204e-22 0.07311778
0.03438428 0.06576911 0.024329377 0.04298611 -0.054945055 -0.04221737 0.0027785967 0.018510967
0.107704036 0.026271328 0.034175366 0.061320916 -0.015067631 0.018624872 0.035209987 -0.014683402
-0.06746027 -0.011081752 0.0071874163 0.025427716 -0.012834711 0.05406852 0.11704285 -3.0826622e-36
0.033485655 0.089574575 -0.033274554 0.057247777 0.041692544 0.00839868 -0.020851232 0.09652621
-0.034407064 0.05185944 0.009577649 0.0040782606 -0.030677963 -0.05386882 -0.037111863 -0.0021169998
0.058356393 -0.082837395 -0.006166001 -0.05552371 0.03055046 -0.017852096 0.014343035 -0.046385936
-0.053234495 -0.10595099 0.008777456 0.00034264685 0.013700105 -0.071935445 -0.013062771 -0.07852753
-0.0062809945 -0.054258212 -0.002945437 0.038666833 0.05572043 0.07106656 0.09246241 0.06290185
0.07660877 -0.022875287 0.0073274104 -0.047507934 0.14334373 -0.03929253 0.104864255 0.063301004
-0.019620713 -0.02088128 0.004116529 0.08625968 0.017627282 0.008370988 0.12802783 -0.024486208
-0.006399459 0.03697297 0.16150609 0.06937147 0.019526675 0.019778816 -0.10183723 0.0138614485
0.016295787 -0.02795989 0.0067926217 3.406274e-36 0.041988406 0.0693823 -0.06724835 0.027926631
0.0069243475 0.07127384 -0.021974578 -0.05220439 -1.1519645e-25 0.11181961 0.025857965 -0.0011529699
-0.011028463 0.08078896 -0.018035935 0.022565037 0.06414949 -0.026111841 0.0385984 0.037729725
0.015856382 0.062715694 -0.06573349 0.011107966 -0.02127482 0.07874128 -0.029014604 0.020218806
-0.045433868 -0.06775836 -0.06479512 0.031414885 0.043624062 -3.3897303e-36 0.03660249 -0.012961148
0.0033821603 0.02069288 0.028511653 0.07391077 -0.0018094772 -0.09547006 0.015464051 0.04607145
-0.0025930055 -0.0061571244 0.013055171 -0.04115312 -0.05787004 0.013010993 -0.07272542 -0.047109876
-0.0030794414 -0.12606367 -0.06037971 -0.0129753295 0.041324597 -0.049115676 -0.01697051 0.11107573
0.011410648 0.022092588 -0.017591374 0.066194996 0.034844358 0.007282855 -0.01592106 0.020727338
-0.04278216 0.02708385 -0.0067627076 0.057436775 -0.072226696 0.060429387 0.022087144 0.07776238
0.058750413 -0.022184942 -0.056401156 0.0057922113 -0.024760157 -0.03788667 0.08800709 0.023316363
-0.027225535 -0.051075865 -0.09149282 0.030137258 0.08794033 -0.028334096 -0.0304987 0.082771525
-0.01981297 0.032221574 0.05555221 0.024785494 -0.006924399 -0.063602336 0.015097432 -0.032055598
0.042646274 -3.2910663e-36 0.052009933 -0.018729707 -0.026671637 -0.05696427 -0.028862054 0.079358496
0.079808824 0.11623043 8.6730665e-32 -0.0037379272 -0.034777828 0.045507386 -0.048555896 0.008907935
0.00676119 0.0198454 0.023294115 0.043479193 0.007087435 0.017211158 -0.028047228 -0.05158629
0.046593655 -0.010287137 0.06464278 -0.0363746 -0.057459973 -0.05982624 0.045423236 0.058704976
-0.09275056 -0.013687551 -0.100094326 3.298143e-36 -0.06536041 -0.037245635 0.053070985 -0.12176118
00000000: 48a0 a2bc fca6 7d3c b77b d7bb 87ad 76bd
00000010: 7e2a e6bc e4f9 1c3b 5183 c53c 7978 9abd
00000020: 6484 e8bc e984 c6bd 40fd 003d 6c43 70bd
00000030: 5afd 42bc dccc 8384 4104 de3a c382 183d
00000040: 6d91 363d 0259 aebc d355 483d 49a4 f7bb
00000050: 757c 473d dc04 56bb e7c5 889b c6be 953d
00000060: 88d6 0c3d f5b1 863d 674e c73c 3412 303d
00000070: 110e 61bd 1fec 2cbd 1e19 363b 50a4 973c
00000080: ef93 dc3d f836 d73c 78fb 0b3d a42b 7b3d
00000090: 3ade 76bc 3093 983c 5938 103d a792 70bc
000000a0: 9c28 8abd 3d90 35bc 6b84 eb3b c94d d03c
000000b0: ae48 52bc f476 5d3d 29b4 ef3d 381f 8384
000000c0: 4128 093d e072 b73d e64a 08bd a57c 6a3d
000000d0: cdc5 2a3d 9e9a 093c 34d0 aabc 89af c53d
000000e0: 6cee 0cbd 906a 543d 92eb 1c3c eea2 853b
000000f0: 5a50 fbbc 8da5 5cbd 9c02 18bd 5dbd 0abb
00000100: 1d07 6f3d a7a6 a9bd 2a0c cabb d46c 63bd
00000110: f544 fa3c 8f3e 92bc 0dff 6a3c 2eff 3dbd
00000120: 6a0c 5abd d5fc d8bd 52cf 0f3c 48a5 b339
00000130: 6876 603c e452 93bd 3c05 56bc 0bd3 a0bd
00000140: cdd0 cdbb dc3d 5ebd 3c08 41bb 1d61 1e3d
00000150: 1b3b 643d 588b 913d ef5c bd3d afd2 803d
00000160: 0fe5 9c3d f464 bbbc c61a f03b ae97 42bd
00000170: b3c8 123e 34f1 20bd 12c3 d63d f5a3 813d
00000180: 9ebb a0bc 380f abbc f3e3 863b eaa8 b03d
00000190: 1767 903c 7826 093c ba19 033e 4d97 c8bc
000001a0: 8eb2 d1bb f870 173d da61 253e a112 8e3d
000001b0: 68f6 9f3c 2f07 a23c 0a90 d0bd 211b 633c
000001c0: be7e 853c 240c e5bc a494 de3b 0ae3 9004
000001d0: 09fc 2b3d 4f18 8e3d 81b9 89bd 64c6 e43c
000001e0: a3e5 e23b 05f8 913d 0804 b4bc 45d4 55bd
000001f0: 369b 0e96 ae01 e53d 15d4 d33c 401f 97ba
00000200: bab0 34bc af74 a53d 19c0 93bc 50da b83c
00000210: cf60 833d 80e8 d5bc 5b19 1e3d 7c8a 1a3d
00000220: 3ee5 813c 1671 803d 489f 86bd 30fe 353c
00000230: 8848 aebc 1c43 a13d 09b0 edbc e9a1 a53c
00000240: dd18 3abd e5c4 8abd 4eb3 84bd e5ac 003d
00000250: 25af 323d e52e 9084 7eec 153d ff5a 54bc
00000260: 3ca7 5d3b 1d84 a93c 4591 e93c 885e 973d
00000270: fb2b edba cf85 c3bd ee5c 7d3c 6bb5 3c3d
00000280: 6aef 29bb b4c1 c9bb 5be5 553c 2d90 28bd
00000290: 2309 6dbd 0f2c 553c 11f1 94bd 49f6 40bd
000002a0: 74d0 49bb d616 01be b750 77bd 7a96 54bc
000002b0: fb43 293d 852d 49bd bd05 8bbc ac7b e33d
000002c0: baf3 3a3c 84fb b43c c91b 90bc 3e91 873d
000002d0: f5b8 0e3d 04a5 ee3b e26c 82bc 61cc a93c
000002e0: 593c 2fbd f3de dd3c b499 ddbb d342 6b3d
000002f0: 97eb 93bd ce84 773d 19f0 b43c e241 9f3d
00000300: 46a4 703d 32bd b5bc e604 67bd 97cc bd3b
00000310: d0d5 cabc 0e2f 1bbd 103d b43d f501 bf3c
00000320: 1608 dfbc ed34 51bd 9660 bbbd 69e2 f63c
00000330: 0f1a b43d e81c e8bc 69d8 f9bc 1e84 a93d
00000340: cf4e a2bc c5fa 033d b78a 633d f30a cb3c
00000350: 12e6 e2bb f141 82bd 385b 773c bb4c 03bd
00000360: dcad 2e3d 8afc 8b84 5e08 553d 0b6f 99bc
00000370: 7a7e dabc 5e53 69bd 1d70 ecbc b586 a23d
00000380: cf72 a33d 380a ee3d 6a2a e10b 03f8 74bb
00000390: 3273 0ebd f465 3a3d 8ce2 46bd 96f2 113c
000003a0: f98c dd3b d292 a23c 4dd3 be3c 3d17 323d
000003b0: b73d e83b 6afe 8c3c 4dc3 e5bc 254c 53bd
000003c0: fdd8 3e3d 618b 28bc 6f63 843d 88fd 14bd
000003d0: 265b 6bbd 5c0c 75bd b70d 3a3d a174 703d
000003e0: 01f4 bdbd c041 60bc 41fe ccbd 9949 8c04
000003f0: aedb 85bd e18e 18bd f660 593d ed5d f9bd

mobilenet/dw_conv_11/dw_conv2d/sep_conv_bias f4 [102]
-0.123442136 -0.14986995 0.2212551 0.42338642 -0.6525529 -0.023971194 -0.06654278 -0.40445995
-0.5132336 -0.019228062 -0.5976588 0.048862193 -0.3727222 -0.0037988548 0.086563356 0.0030043772
-0.13068172 0.11105652 0.10738341 0.3109306 -0.03333394 -0.5877849 -0.43419707 -0.4580726
-0.030150665 0.013194802 -0.42772833 -0.012806637 0.46137887 0.85711914 0.35341573 -0.13031696
0.7310016 0.47421032 -0.20537144 -0.3592344 0.07052818 -0.04166669 -0.3537934 -0.030188907
-0.049606726 0.066277474 0.26107442 0.020151779 -0.5136768 0.2574125 -0.024202263 0.31049433
-0.035235938 -0.056732107 0.22802237 -0.40818012 0.34046572 0.18506974 -0.029185556 -0.090941414
-0.48270386 0.21100248 0.44440147 0.029118337 -0.07198256 -0.03146412 -0.04304326 0.08543518
-0.099677496 -0.39677423 -0.024682181 0.01108882 0.13250504 -0.03165851 -1.1232162 -0.0594537
-0.3725386 0.025205309 0.33876473 0.18132973 0.724722 -0.110840335 -0.038546313 0.46544063
-0.22698987 -0.17034267 -0.010002535 0.0005128711 0.06132874 0.43493247 -0.1259304 -0.0620431
-0.36517918 0.23101163 0.039023563 -0.26590472 -0.008787148 0.48321122 -0.035916783 -0.42290908
0.47106698 -0.67339164 -0.18207616 -0.4433096 0.036717076 -0.02906247
00000000: 3bcf fcbd 8277 19be b290 623e 1bc6 d83e
00000010: b50d 27bf 3d5f c4bc 9547 88bd 6015 cfbe
00000020: 4763 03bf 2b84 9dbc 2b00 19bf b923 483d
00000030: 72d5 bebe 35f6 78bb 2148 b13d 16e5 443b
00000040: 6ed1 05be 9a71 e33d d5eb db3d 4c32 9f3e
00000050: 2b89 08bd 1279 16bf 144f debe 7e88 eabe
00000060: 87fe f6bc 032f 583c 35ff dabe eed2 51bc
00000070: da39 ec3e 296c 5b3f e8f2 b43e cf71 05be
00000080: ec22 3b3f b2cb f23e e44c 52be 92ed b7be
00000090: 1471 903d b1aa 2abd 6924 b5be ba4e f7bc
000000a0: 6c30 4bbd 7cbc 873d 8cab 853e 5815 a53c
000000b0: 5380 03bf 92cb 833e d343 c6bc 1df9 9e3e
000000c0: 8f53 10bd ed5f 68bd b27e 693e fcfc d0be
000000d0: 8651 ae3e ec82 3d3e 8c16 efbc 7e3f babd
000000e0: f624 f7be 0911 583e 9788 e33e 9489 ee3c
000000f0: 986b 93bd 85e0 00bd 214e 30bd a4f8 ae3d
00000100: b723 ccbd fe25 cbbe 4932 cabc e2ad 353c
00000110: 67af 073e 5bac 01bd 8cc5 8fbf b985 73bd
00000120: 61bd bebe 5d7b ce3c 9272 ad3e 80ae 393e
00000130: 6287 393f 4200 e3bd bde2 1dbd 3c4e ee3e
00000140: 0870 68be 4f6e 2ebe ace1 23bc 3272 063a
00000150: d833 7b3d 78af de3e e6f3 00be e820 7ebd
00000160: c4f8 babe 508e 6c3e 2cd7 1f3d aa24 88be
00000170: f8f7 0fbc 7667 f73e 7a1d 13bd 8a87 d8be
00000180: b12f f13e 6563 2cbf 2c72 3abe 7af9 e2be
00000190: a564 163d 6b14 eebc

mobilenet/dw_conv_11/dw_conv2d/weights f4 [1, 3, 3, 102]
-1.0009294 2.2465808 -1.4826416 -0.615094 1.3430773 -0.12244075 -0.5226961 0.5562596
0.13511309 -0.01703546 0.07283169 2.4375212 0.24469678 0.15573679 -0.5569923 -2.191357
0.41719252 -0.5568746 -0.48695257 1.0948787 0.9677888 0.86699045 1.8174434 -0.76550275
-0.16554758 -1.8972993 0.15586308 1.1300782 -0.9209483 -0.59862584 -1.3007531 -0.24481115
-0.6346422 0.2091529 -0.20640893 -0.7713907 2.2017965 -2.8030105 0.3959319 -0.11345568
-1.628243 1.9023727 -0.86945665 -1.2474958 -0.6944817 -0.18368079 -3.2806137 0.40076107
-1.0870864 1.577658 -1.6343715 0.4746992 -2.4788737 -0.8472481 2.5524566 1.5053596
-0.44978794 0.43216085 -0.5872676 -0.72224075 1.6817554 -1.4992735 0.102818735 -1.5801066
-1.5311606 -1.2619858 -4.9362783 -0.3069547 -1.057024 1.0645288 0.98702466 -0.18785025
0.45332104 0.45534584 -0.73911166 -0.030020842 0.3672429 0.35603443 3.747579 -1.921019
0.69231707 -0.19250034 -0.5909699 -1.655268 -0.30323622 1.0141983 0.8551116 -3.3201396
0.588938 1.4583093 0.07212126 -0.119396165 3.5686398 0.7835836 -0.36994743 1.5712444
0.7700509 -0.22258458 0.31102324 0.21228248 -0.02815955 -5.673207 -1.4092202 -1.9423795
-0.6922957 -1.5107908 0.38432392 -2.8825073 -1.5540313 0.3598734 0.30914956 -1.8156466
2.36227 0.9848504 -0.6775733 -0.4168723 -0.013653104 0.36356133 1.3693933 -1.3037595
0.31652838 -1.5201797 -3.2283325 -0.22974923 0.26071587 1.2338152 -1.8253028 -0.9294336
-1.906845 -2.4184635 -1.5324296 -0.42529067 -0.54189736 1.2644857 0.43559906 1.4972162
1.9273208 2.3696342 0.16848293 -0.58271754 -1.3608465 -2.5139203 -3.8825963 0.24304523
-1.3502225 -1.2581779 1.1005726 -0.8612058 -3.6242259 0.67724407 -1.8466474 2.0401425
-0.106805444 0.42855892 1.8244598 -2.1439998 -0.3671126 1.0413902 0.0608032 0.0038556515
1.4322624 1.2436919 -0.22723722 -3.6170237 -1.0365298 0.136088 2.1160073 -0.4160864
-1.5923066 -0.077487774 -1.1938971 -1.707391 0.31404155 1.8771591 -0.9091287 -0.3040311
-0.50243026 -0.8050648 -0.7814103 0.283699 -0.6790729 -0.18749146 0.1360637 1.2017187
-0.79768944 -3.518871 1.3031421 -1.0923471 0.9196802 -2.7135227 -1.102023 -1.6007817
0.34832373 -0.44061607 -1.1685861 -0.07260325 -1.4723022 -1.0706455 0.10913914 1.6652193
0.23675886 -0.34640157 -0.23474607 -0.1411551 0.43174854 2.4312553 -2.5711467 -0.53677166
-0.25940666 -1.734485 -1.4964275 0.62767386 0.42978716 -3.4707665 -0.68179345 0.14363316
-0.40380496 -2.4982996 1.4882392 -0.8350718 -0.44469613 1.5601854 1.0901544 0.6290481
-1.5075737 0.83533067 0.6938197 -0.21718776 -1.6808609 -0.48766503 -0.4227981 -3.4925523
-0.13913044 1.2191201 -1.6090858 -0.017232802 -0.88822633 0.017974505 -0.7968943 -3.0874312
1.1202377 -1.3468506 -0.70598614 1.604624 -0.85353976 0.027281007 -1.6839508 -4.120777
0.62088865 -0.2899958 -2.7811751 -0.35831526 -1.4623706 1.1739907 0.2337034 1.2961174
00000000: 741e 80bf fbc7 0f40 33c7 bdbf cd76 1dbf
00000010: f5e9 ab3f 37c2 fabd 69cf 05bf 0767 0e3f
00000020: 165b 0a3e f38d 8bbc c828 953d 5900 1c40
00000030: cb91 7a3e 7779 1f3e 0c97 0ebf 313f 0cc0
00000040: 429a d53e 558f 0ebf d951 f9be fc24 8c3f
00000050: 02c1 773f 16f3 5d3f fca1 e83f fdf7 43bf
00000060: 4e85 29be b4da f2bf 929a 1f3e 67a6 903f
00000070: 45c3 6bbf 8b3f 19bf 147f a6bf c6af 7abe
00000080: e977 22bf 2e2c 563e dd5c 53be dc79 45bf
00000090: 3cea 0c40 8664 33c0 96b7 ca3e 745b e8bd
000000a0: 446a d0bf f380 f33f b694 5ebf f1ad 9fbf
000000b0: 8dc9 31bf d116 3cbe 93f5 51c0 8e30 cd3e
000000c0: a625 8bbf b3f0 c93f 1633 d1bf c60b f33e
000000d0: dea5 1ec0 40e5 58bf 735b 2340 a0af c03f
000000e0: 9b4a e6be 3044 dd3e 2b57 16bf c5e4 38bf
000000f0: c343 d73f 32e8 bfbf a192 d23d ef40 cabf
00000100: 12fd c3bf c088 a1bf fef5 9dc0 2b29 9dbe
00000110: 904c 87bf 7b42 883f a6ad 7c3f d15b 40be
00000120: b219 e83e 1723 e93e 6c36 3dbf 45ee f5bc
00000130: 4307 bc3e 254a b63e 56d8 6f40 f3e3 f5bf
00000140: b13b 313f cf1e 45be ce49 17bf d2df d3bf
00000150: c741 9bbe 40d1 813f 98e8 5a3f 2b7d 54c0
00000160: a4c4 163f e1a9 ba3f 50b4 933d fa85 f4bd
00000170: 9864 6440 ef98 483f c069 bdbe 891e c93f
00000180: 0e22 453f 36ed 63be 703e 9f3e 9460 593e
00000190: dbae e6bc e98a b5c0 5461 b4bf e49f f8bf
000001a0: 4a3a 31bf 9861 c1bf 1bc6 c43e 007b 38c0
000001b0: 7fea c6bf 5441 b83e da48 9e3e 1c67 e8bf
000001c0: 6f2f 1740 281f 7c3f 7275 2dbf 4970 d5be
000001d0: 45b1 5fbc b624 ba3e 4848 af3f 97e1 a6bf
000001e0: 0210 a23e 4095 c2bf 009d 4ec0 6243 6bbe
000001f0: 8d7c 853e a8ed 9d3f 86a3 e9bf 5cef 6dbf
00000200: 7f13 f4bf 1bc8 1ac0 a726 c4bf b3bf d9be
00000210: c9b9 0abf abda a13f d706 df3e c8a4 bf3f
00000220: 73b2 f63f 16a8 1740 ca86 2c3e fa2c 15bf
00000230: 3830 aebf 12e4 20c0 757c 78c0 d9e0 783e
00000240: 17d4 acbf f90b a1bf 90df 8c3f fc77 5cbf
00000250: 51f3 67c0 de5f 2d3f f15e ecbf b291 0240
00000260: d0bc dabd 136c db3e e687 e93f 4b37 09c0
00000270: 2ff6 bbbe 464c 853f c70c 793d 19af 7c3b
00000280: 6054 b73f 4c31 9f3f e0b0 68be 517d 67c0
00000290: 02ad 84bf a75a 0b3e aa6c 0740 4709 d5be
000002a0: b4d0 cbbf e9b1 9ebd 9fd1 98bf ca8b dabf
000002b0: 0eca a03e c046 f03f a9bc 68bf f7a9 9bbe
000002c0: 459f 00bf ba18 4ebf 810a 48bf ff40 913e
000002d0: b9d7 2dbf c3fd 3fbe 4854 0b3e ebd1 993f
000002e0: 6035 4cbf 2f35 61c0 5ccd a63f 08d2 8bbf
000002f0: 2970 6b3f 5baa 2dc0 170f 8dbf 6ae6 ccbf
00000300: 7d57 b23e 6e98 e1be 3b94 95bf 03b1 94bd
00000310: 6674 bcbf e90a 89bf 5784 df3d e825 d53f
00000320: ea70 723e 8c5b b1be 4661 70be f68a 10be
00000330: 250e dd3e b099 1b40 ab8d 24c0 de69 09bf
00000340: f3d0 84be 9b03 debf f08a bfbf 3caf 203f
00000350: 100d dc3e 0a21 5ec0 048a 2ebf 9214 133e
00000360: 86bf cebe 24e4 1fc0 9f7e be3f 44c7 55bf
00000370: 36af e3be 28b4 c73f 2e8a 8b3f 4c09 213f
00000380: 2df8 c0bf 3bd8 553f 2b9e 313f 7866 5ebe
00000390: 7326 d7bf 3baf f9be fe78 d8be fa85 5fc0
000003a0: 3678 0ebe 210c 9c3f 86f6 cdbf ce2b 8dbc
000003b0: cd62 63bf 453f 933c 4401 4cbf 7998 45c0
000003c0: f363 8f3f 9a65 acbf 82bb 34bf 5264 cd3f
000003d0: 9581 5abf 6b7c df3c b38b d7bf 68dd 83c0
000003e0: 8ff2 1e3f 547a 94be c6fe 31c0 1975 b7be
000003f0: f62e bbbf 5445 963f f24f 6f3e 2de7 a53f

mobilenet/dw_conv_11/pointwise_convolution/Conv2D_bias f4 [102]
-0.3765009 0.011674278 -0.1360864 -0.031954534 -0.24239998 -0.036621757 -0.43169966 -0.0059771016
0.018165618 0.069787204 0.5597532 -0.21843436 -0.027578503 0.38575357 0.001841625 -0.18494251
0.18792915 -0.027413458 0.019198816 -0.023622803 -0.003583096 -0.01533788 -0.18587694 0.043697953
-0.28787148 -0.007035568 0.25328633 0.46343392 -0.012518924 0.39931703 -0.018631056 0.054010592
0.23053014 -0.078828275 0.29937798 -0.023921577 0.087240815 -0.02076533 -0.027597047 -0.019588765
-0.02413097 0.0002819048 -0.015111336 0.18073063 -0.003904719 -0.01053707 0.012418198 -0.009643698
-0.027386568 0.13629381 -0.26180878 -0.39342153 -0.001119329 -0.016111216 -0.007518257 0.03758123
-0.04387431 -0.06485252 0.5893964 0.23890415 -0.03085711 -0.082922876 -0.26855117 -0.015418354
0.54945636 0.022232618 0.0044625807 -0.12053389 -0.0427072 -0.040071964 -0.023471331 -0.033661086
-0.023898048 -0.036870025 -0.0808204 -0.01515953 -0.03370507 -0.0023176472 0.14677575 0.3125785
-0.017421415 -0.009812453 -0.2593913 0.3508834 -0.022795103 0.52988666 0.008096069 -0.010682437
-0.02206944 -0.016306028 -0.1261274 0.10493007 -0.0017158412 -0.08557989 -0.10797389 -0.032098394
-0.02161584 0.10027638 -0.22589125 0.26474035 -0.0046533383 0.0063097924
00000000: bac4 c0be 7945 3f3c 3c5a 0bbe c2e2 02bd
00000010: b337 78be b200 16bd bd07 ddbe 90db c3bb
00000020: 10d0 943c 98ec 8e3d fc4b 0f3f 42ad 5fbe
00000030: 50ec e1bc 7e81 c53e ae62 f13a 9261 3dbe
00000040: 8070 403e 3092 e0bc d646 9d3c 9c84 c1bc
00000050: 60d2 6abb bb4b 7bbc 8656 3ebe a0fc 323d
00000060: e463 93be 9f8a e6bb bfae 813e 3647 ed3e
00000070: 2c1c 4dbc 4873 cc3e 28a0 98bc 363a 5d3d
00000080: 1810 6c3e b870 a1bd 1248 993e 2ff7 c3bc
00000090: 50ab b23d 0e1c aabc 3413 e2bc 9e78 a0bc
000000a0: 50ae c5bc 9fcc 9339 8995 77bc 7311 393e
000000b0: 50e6 7fbb ada3 2cbc b375 4b3c 9a00 1ebc
000000c0: cc59 e0bc 9b90 0b3e cd0b 86be 8c6e c9be
000000d0: 73b6 92ba abfb 83bc b65b f6bb c7ee 193d
000000e0: 8cb5 33bd 66d1 84bd afe2 163f 4aa3 743e
000000f0: 0dc8 fcbc 78d3 a9bd 8a7f 89be 449d 7cbc
00000100: 2ca9 0c3f 2e21 b63c d73a 923b 79da f6bd
00000110: bfed 2ebd 8022 24bd f346 c0bc 35e0 09bd
00000120: d7c5 c3bc 0605 17bd 2a85 a5bd ad5f 78bc
00000130: 540e 0abd abe3 17bb 624c 163e 4a0a a03e
00000140: 5bb7 8ebc 69c4 20bc f0ce 84be fda6 b33e
00000150: ccbc babc a7a6 073f 60a5 043c 6305 2fbc
00000160: f8ca b4bc 3894 85bc 8b27 01be 94e5 d63d
00000170: 14e6 e0ba 8244 afbd 6a21 ddbd 9b79 03bd
00000180: b413 b1bc b45d cd3d 0950 67be 0c8c 873e
00000190: 087b 98bb 60c2 ce3b

mobilenet/dw_conv_11/pointwise_convolution/kernel f4 [102, 1, 1, 102]
0.10076939 0.07266456 0.1039843 0.09969138 -0.05410996 5.7099168e-08 0.006754833 -0.03068763
-0.06991001 2.774281e-36 0.026295483 -0.025544949 -0.030665722 -2.261579e-24 0.08540509 -1.1026369e-10
0.1521625 0.06358949 0.14159955 0.10414232 -2.7708412e-36 0.049625125 -0.062794045 -0.027940983
7.622053e-18 3.7452866e-10 -0.08279523 -8.3291576e-23 0.0092383 0.06634367 0.04954242 0.14530376
0.04303903 -0.0627038 0.16601455 -0.06305384 0.013913567 5.8433817e-15 -0.038448438 6.4335515e-18
5.1855747e-21 0.04307089 0.022450918 -6.794248e-07 0.011815553 0.0448116 7.20587e-11 0.061716568
8.16737e-14 2.1121643e-06 0.049952455 -0.034793343 -0.052057616 0.06349246 0.035811346 0.0071628857
0.071710825 0.118107334 -0.08944583 0.09812708 0.035242897 1.4697468e-14 -0.058961887 0.05022525
0.013761549 0.013175317 -7.742983e-13 0.03495374 0.008651723 9.7360935e-29 -0.048403125 -2.7766638e-36
0.02161387 0.04600719 0.06385309 -0.014610374 0.0647577 -0.008946301 2.0515113e-29 -0.060458586
0.023645924 -0.019519214 -0.026673643 3.3833995e-11 0.00968648 -0.05480716 -0.00344624 1.5135545e-14
-0.07590518 0.014031453 0.101553805 0.07494714 0.06096173 -0.052137073 0.015126014 0.018003771
0.015485927 -0.034902245 0.06210851 0.024886401 -0.0024926118 -7.9082774e-13 -0.020105898 -0.06623946
-0.010672229 0.035219774 0.00046455266 3.8110047e-18 0.00890624 0.015420205 0.042464074 3.6040453e-36
0.017203396 0.019389119 0.0076125422 3.5678668e-36 -0.016976846 1.7631454e-11 -0.008377208 0.025007233
0.0066853077 -0.013045792 3.570969e-36 0.04693451 0.019336006 -0.0030763424 -3.595909e-36 3.5293227e-10
0.026730586 -3.607213e-36 0.015751475 -0.006908395 -0.012561284 -0.07135902 -0.0113751935 -0.01757909
-0.0007022117 0.008129886 -0.029515982 -3.6070113e-36 0.010978041 3.607066e-36 -3.5668713e-36 -0.03086021
0.005113657 -5.1134694e-11 0.0309268 0.035452053 6.295423e-28 0.08267679 -3.5789993e-36 -8.968245e-21
0.024028605 -0.0014307379 -0.0099807065 0.014034074 -0.021215409 0.0040469216 -0.002309112 0.0077962484
-0.038712192 -0.018896561 0.07110689 -3.5688598e-36 0.0084707625 -0.02515134 -0.010533346 0.040810052
3.5812575e-36 -0.008422672 0.049150083 -3.5613278e-36 0.054747663 -3.5941346e-36 0.048143294 0.043772623
-0.023930421 -0.012954429 -0.02196613 0.005598799 3.5922918e-36 0.019508153 -0.0083686765 -0.03612618
0.060356114 -3.6159348e-12 -0.013588098 -0.012275621 0.00031936323 -3.599157e-36 -0.013083488 -0.03891454
-0.038142808 -0.026401639 0.0015519863 0.04022685 0.015936866 -0.015771328 0.014825133 -0.0058326274
-0.058730546 -0.022921091 0.031291254 3.5850515e-36 0.07693249 0.010348509 -0.0010761259 0.006539178
-0.038819294 4.4446578e-13 -0.015240382 -0.008069322 -0.09744078 3.3344453e-36 -0.004056186 0.023203332
0.0038122935 3.334852e-36 0.077655755 -1.13082106e-10 -0.016663015 -0.0013877618 0.07077947 -0.019766754
3.3387874e-36 0.039801937 -0.029344404 -0.058924694 3.350936e-36 1.3478019e-09 -0.024211688 -5.5960666e-36
-0.033807103 0.03934483 0.046768177 0.12261854 0.014770869 0.020688316 -0.01963719 -0.041457232
-0.03904428 -8.975807e-31 0.026218696 1.0509785e-34 3.3505707e-36 0.059521917 -0.011534361 1.4294287e-09
-0.0010818321 -0.021804126 5.770491e-19 0.05049418 -3.4478618e-31 6.04082e-10 0.087335 -0.034339353
00000000: 2f60 ce3d 28d1 943d b8f5 d43d ff2a cc3d
00000010: 68a2 5dbd 333d 7533 a557 dd3b a064 fbbc
00000020: fb2c 8fbd 7d02 6c04 a069 d73c a443 d1bc
00000030: ae36 fbbc 30fb 2e98 dde8 ae3d f078 f2ae
00000040: 7dd0 1b3e 353b 823d 79ff 103e 9248 d53d
00000050: 94b7 6b84 b743 4b3d 2a9a 80bd 7de4 e4bc
00000060: 219a 0c23 39e6 cd2f 8c90 a9bd fd62 c99a
00000070: 3d5c 173c 31df 873d feec 4a3d 82ca 143e
00000080: b249 303d da6a 80bd b8ff 293e 5f22 81bd
00000090: bbf5 633c af87 d227 1c7c 1dbd 2d5b ed22
000000a0: cde7 c31d 1a6b 303d fdea b73c b761 36b5
000000b0: 0596 413c 5e8c 373d 7175 9e2e 83ca 7c3d
000000c0: afe9 b729 b5be 0d36 f29a 4c3d 7783 0ebd
000000d0: 5e3a 55bd 5608 823d ebae 123d a4b6 ea3b
000000e0: 20dd 923d 42e2 f13d 602f b7bd daf6 c83d
000000f0: db5a 103d 0e62 8428 0582 71bd feb8 4d3d
00000100: 1f78 613c 49dd 573c 13f2 59ab a72b 0f3d
00000110: f5bf 0d3c dcd6 f610 5b42 46bd 6236 6c84
00000120: 920f b13c 0972 3c3d 69c5 823d 5a60 6fbc
00000130: af9f 843d 8293 12bc 470c d00f 6ca3 77bd
00000140: 19b5 c13c c2e6 9fbc af82 dabc b1cd 142e
00000150: 0bb4 1e3c 797d 60bd 50da 61bb 3154 8828
00000160: 2d74 9bbd 2ee4 653c 71fb cf3d e37d 993d
00000170: 02b3 793d af8d 55bd 1ad3 773c a57c 933c
00000180: b0b8 7d3c a8f5 0ebd 7e65 7e3d 91de cb3c
00000190: 165b 23bb 2599 5eab 20b5 a4bc 8ea8 87bd
000001a0: 93da 2ebc 9c42 103d 348f f339 ec99 8c22
000001b0: 7aeb 113c 07a5 7c3c cfee 2d3d 944c 9904
000001c0: 23ee 8c3c eed5 9e3c a272 f93b a1c2 9704
000001d0: 0713 8bbc 8116 9b2d 8f40 09bc f8db cc3c
000001e0: 6d10 db3b 04be 55bc 69e4 9704 673e 403d
000001f0: 8b66 9e3c 769c 49bb fbf3 9884 cd06 c22f
00000200: 1afa da3c 126f 9984 3d09 813c d15f e2bb
00000210: d8cd 4dbc ae24 92bd 055f 3abc 0602 90bc
00000220: a114 38ba 3733 053c 80cb f1bc e06c 9984
00000230: 3edd 333c 786d 9904 cab7 9784 8dce fcbc
00000240: 7790 a73b 8ce4 60ae 335a fd3c 2c36 113d
00000250: 8a82 4712 7352 a93d da3b 9884 c667 299e
00000260: a3d7 c43c 9987 bbba 1e86 23bc 2cef 653c
00000270: f0cb adbc 0a9c 843b 7954 17bb ac77 ff3b
00000280: ad90 1ebd f6cc 9abc 7da0 913d 71cd 9784
00000290: f4c8 0a3c 2f0a cebc 0e94 2cbc 7128 273d
000002a0: 7154 9804 3fff 09bc 9951 493d 6d7b 9784
000002b0: 163f 603d a9e0 9884 e731 453d ec4a 333d
000002c0: bb09 c4bc d03e 54bc 50f2 b3bc 2176 b73b
000002d0: 98cc 9804 90cf 9f3c c61c 09bc 0cf9 13bd
000002e0: f937 773d e472 7eac 9da0 5ebc b01f 49bc
000002f0: 3570 a739 5917 9984 205c 56bc da64 1fbd
00000300: a23b 1cbd 4048 d8bc 056c cb3a e9c4 243d
00000310: 088e 823c df32 81bc 1de5 723c a01f bfbb
00000320: 718f 70bd 03c5 bbbc 422b 003d c17d 9804
00000330: c88e 9d3d cb8c 293c cb0c 8dba 9a46 d63b
00000340: fb00 1fbd 4536 fa2a ccb2 79bc 3135 04bc
00000350: 088f c7bd e5d4 8d04 c1e9 84bb ea14 be3c
00000360: acd7 793b 53d9 8d04 fb09 9f3d 91ab f8ae
00000370: e080 88bc 8fe5 b5ba d4f4 903d e3ed a1bc
00000380: 2d04 8e04 5b07 233d ad63 f0bc 055b 71bd
00000390: 7688 8e04 903d b930 9757 c6bc c507 ee84
000003a0: 5179 0abd 0b28 213d fd8f 3f3d 6e1f fb3d
000003b0: 8401 723c 8b7a a93c 2cde a0bc 0fcf 29bd
000003c0: e5ec 1fbd 0ba4 918d 97c8 d63c f2b2 0b07
000003d0: 7c84 8e04 41cd 733d 9efa 3cbc 8d75 c430
000003e0: 43cc 8dba 919e b2bc 9950 2a21 fcd2 4e3d
000003f0: 6ec7 df8c 7e0c 2630 b1dc b23d 6ca7 0cbd

mobilenet/dw_conv_12/dw_conv2d/sep_conv_bias f4 [102]
-0.33305034 0.06118471 -0.11228022 -0.005200438 0.07203919 0.26819643 0.21561101 0.12133345
0.04072336 -0.58374256 -0.6224923 0.21188554 -0.005933806 -0.7498165 -0.025191186 0.5721102
0.15862152 0.004515945 0.28434324 -0.022986006 -0.005466938 -0.023931682 -0.021429937 -0.5813537
0.018254071 -0.05939432 -0.28378323 1.0431021 -0.013942263 1.2096443 -0.014954037 0.1096243
0.028480424 0.21836962 0.1433655 0.3000997 -0.5262103 -0.018181443 -0.01640732 0.030042807
0.009629227 -0.029052285 -0.022009924 0.3645372 -0.41351125 -0.024120882 0.18377653 0.006930039
-0.017746154 0.34633648 -0.060641572 0.6179891 0.008454789 -0.013139738 0.0027973766 0.795844
0.2488057 -0.4201818 1.4232948 -0.8031187 -0.008446284 0.42962295 -0.08271778 -0.012837871
1.6730237 -0.02296458 -0.012932646 0.06342323 -2.9981506e-05 0.019903423 -0.038472496 0.021469215
-0.009862991 -0.025424058 0.42520165 -0.03427173 -0.033356257 -0.020375356 -0.22816914 -0.3500114
-0.032747995 -0.010919408 -0.0067184735 -0.54748297 0.15785225 1.5916473 -0.09793021 -0.022899304
-0.009207249 0.0036979748 0.08975686 0.09144143 -0.059469923 0.14267221 -0.41734463 0.0017047211
0.20546047 0.013156282 0.616558 0.103649236 -0.017373068 0.2538254
00000000: 9385 aabe d29c 7a3d 2cf3 e5bd 7068 aabb
00000010: 4889 933d 0b51 893e 22c9 5c3e ac7d f83d
00000020: 8acd 263d 2770 15bf a85b 1fbf 86f8 583e
00000030: 5f70 c2bb f9f3 3fbf bf5d cebc d075 123f
00000040: ae6d 223e 7efa 933b 7095 913e 264d bcbc
00000050: 0024 b3bb 600c c4bc d68d afbc 99d3 14bf
00000060: 9089 953c 7547 73bd 094c 91be 5f84 853f
00000070: 176e 64bc a0d5 9a3f c701 75bc b482 e03d
00000080: c74f e93c 499c 5f3e 68ce 123e aba6 993e
00000090: b8b5 06bf 40f1 94bc a568 86bc 551c f63c
000000a0: e8c3 1d3c 0fff edbc 284e b4bc 9fa4 ba3e
000000b0: bfb7 d3be 2899 c5bc ea2f 3c3e 6115 e33b
000000c0: 6260 91bc 0453 b13e 4c63 78bd 8934 1e3f
000000d0: f585 0a3c 0e48 57bc 3154 373b 6fbc 4b3f
000000e0: ecc6 7e3e 1222 d7be 862e b63f 3099 4dbf
000000f0: 4862 0abc 8af7 db3e f067 a9bd ef55 52bc
00000100: a425 d63f 3720 bcbc 73e3 53bc 0ae4 813d
00000110: cb80 fbb7 810c a33c 5695 1dbd 35e0 af3c
00000120: 6298 21bc 1d46 d0bc 08b4 d93e 8360 0cbd
00000130: 92a0 08bd 38ea a6bc 2ca5 69be b234 b3be
00000140: c322 06bd 51e7 32bc a426 dcbb d827 0cbf
00000150: 05a4 213e 19bb cb3f a28f c8bd 5297 bbbc
00000160: 00da 16bc b959 723b 72d2 b73d a545 bb3d
00000170: bc96 73bd aa18 123e 32ae d5be f370 df3a
00000180: 3b64 523e 728d 573c bfd6 1d3f 0d46 d43d
00000190: f751 8ebc 67f5 813e
