source/assets/cozmo_resources/config/engine/vision/dnn_models/hand_detector_ac20e263a81c430697dff9c035e8d996.tflite (tflite, 758432 bytes, 57 tensors)

mobilenet/conv_1/conv/Conv2D_bias f4 [6]
000000 36 0c 1b 3f 00 75 4a 3f 1f 58 95 be 8f b5 4c bd
       0.6056551 0.7908478 -0.29168794 -0.049977835
000010 89 4f 27 3f bc 3a 22 3f
       0.65355736 0.6337087

mobilenet/conv_1/conv/kernel f4 [6, 3, 3, 3]
000000 a9 27 0a bf 09 97 6b 3e ca 6d 00 3e 20 a1 a9 3a
       -0.53966767 0.23006834 0.12541881 0.0012941696
000010 93 42 0a 3d f3 3d 5f 3d 23 94 fe 3b d2 2d 89 3f
       0.033754896 0.05450244 0.007769124 1.0717108
000020 47 1f 96 3e 56 11 bf bd 2b 6c 0b 3e c9 ba e5 3d
       0.29320738 -0.093294784 0.13615482 0.11217267
000030 48 a4 b0 bc 41 27 41 3f 56 42 b1 3e ef 81 89 3e
       -0.02156271 0.7545052 0.34620923 0.26856944
000040 2c dc 07 3c 91 27 9f bd 67 3e b5 be b0 1d 07 be
       0.008292239 -0.077712186 -0.35399172 -0.13194919
000050 21 d6 8f be e2 55 4c 3f dc f9 3f 3e c4 ce 92 3e
       -0.28093055 0.79818547 0.18747658 0.28673375
000060 83 1a 23 bf 5b d7 5a 3e 52 bf 0f 3e 5c 3e cb 3f
       -0.6371233 0.21371214 0.14037827 1.5878406
000070 c1 29 70 bf e6 be bc be f3 ba aa bd 10 26 ef bf
       -0.9381371 -0.36864394 -0.08336439 -1.8683491
000080 bf 5e 87 3f e6 5a 4b be 3a 07 ef bf 2b c2 d2 3f
       1.0575789 -0.19858894 -1.867408 1.6465505
000090 dd 6e 51 3e da b8 0a c0 7b 49 06 3f 17 2e 30 3c
       0.20452447 -2.1675324 0.5245587 0.010753176
0000a0 74 5b 98 3d c7 49 d1 3f 61 fa 93 3f 1e 35 93 3f
       0.07439318 1.635064 1.1560785 1.1500585
0000b0 96 7b 0f bf 36 4b f2 3f 7c b9 28 3e f8 ad 4a bf
       -0.5604795 1.8929203 0.16477007 -0.79171705
0000c0 5e eb 8b 3e 14 23 4e bf b2 bd 05 3f 3a 23 8a 3f
       0.27328008 -0.80522275 0.5224258 1.0792
0000d0 0b 80 0f bf 06 65 58 bf 61 28 c2 c0 69 b7 14 c0
       -0.56054753 -0.8452915 -6.067429 -2.3236945
0000e0 e2 5e 9f 40 01 71 17 c0 d5 e4 44 40 0b cd 05 bf
       4.9803324 -2.3662722 3.0764668 -0.52265996
0000f0 94 8b 30 40 fe 16 67 c0 3c af ab 40 de 36 d0 40
       2.7585192 -3.6107783 5.365141 6.5066977
000100 83 89 33 40 c9 a1 4d c0 fe 02 35 c0 34 ba 4f c0
       2.805268 -3.2129996 -2.8283076 -3.24574
000110 5a b8 9a 3f ad 9b 23 c0 63 1f 18 40 5c 80 8c c0
       1.208751 -2.5563767 2.3769157 -4.390669
000120 d2 8a f6 3f 58 21 7a 3f 9f e4 01 c0 ff 3b d6 bf
       1.9261115 0.9770713 -2.029579 -1.6737059
000130 8f 4d 9d c0 f7 fa 80 40 c1 5d a7 40 05 36 b1 3f
       -4.9157176 4.0306354 5.2301946 1.384461
000140 eb f5 88 c0 88 5a bd 3f 5a 20 b6 3c 74 25 6d 3f
       -4.2800193 1.4793253 0.022232223 0.92635274
000150 4c 01 e7 bf 59 9c 47 3e 6a 22 bc bd 81 c0 c7 bf
       -1.8047271 0.19493236 -0.091862515 -1.5605623
000160 20 45 16 3f 18 da 6f 3f 71 93 53 3d 97 95 34 3f
       0.58699226 0.9369216 0.051654283 0.70540756
000170 78 32 46 40 af a1 bb bf 94 3a 38 bf 06 cc 2e 40
       3.0968304 -1.4658717 -0.71964383 2.7312026
000180 57 89 e8 bf 14 33 a6 bf 5a e1 11 40 2e e6 24 3f
       -1.8166913 -1.2984338 2.2793794 0.64413726
000190 7a 19 85 bf 31 10 cd be ef 82 ec 3e 88 93 a5 bf
       -1.03984 -0.40051416 0.46193644 -1.2935648
0001a0 a9 a6 b0 be de 63 0b c0 d2 29 12 bf 18 1e 84 bd
       -0.34502152 -2.1779704 -0.5709506 -0.064510524
0001b0 04 97 36 3f 94 ea f5 3e 70 58 83 bc 80 eb ca 3d
       0.7132418 0.4803053 -0.016033381 0.09908199
0001c0 bd 1c d8 be 10 d6 07 3f a5 dc 5a be c6 d5 1f 3e
       -0.42209426 0.5306101 -0.21373232 0.15608892
0001d0 05 5a 5f 3f be c2 85 be e9 0f 58 be 60 14 b2 be
       0.87246734 -0.2612514 -0.21099819 -0.3478117
0001e0 12 aa f9 3e 18 82 8c 3e 6e 7f 46 3f c8 90 da 3e
       0.48762566 0.27443004 0.7753819 0.42688584
0001f0 a8 8f 9e 3c d7 8a c5 3e 08 94 ed be a1 c9 6d bf
       0.01935561 0.3858249 -0.46402 -0.92885786
000200 00 21 1c 3f 0b bd 59 3f e0 d8 03 bf d7 d2 a7 be
       0.60987854 0.8505408 -0.515028 -0.32778046
000210 d9 29 d4 3e 58 61 15 bf 1b 19 cb 3e f9 37 ba 3e
       0.41438177 -0.5835166 0.3966759 0.3637083
000220 ca 6b 0d bf 61 ff 97 3e db 3e 9a 3e f4 66 37 3f
       -0.552426 0.29687026 0.3012608 0.7164147
000230 0e a5 c1 bd 66 b8 a3 3a 67 8c 1d be 22 0a 0c 3f
       -0.0945531 0.0012490868 -0.1538559 0.5470296
000240 57 e8 ab be 30 26 89 3e fe ed 05 3c 83 1a 0e 3e
       -0.335757 0.26786947 0.008174418 0.13877301
000250 d8 97 ab 3e 8f a7 15 bf 53 23 10 3e 68 99 cc 3e
       0.33514285 -0.584588 0.14075975 0.3996079
000260 ab 12 b8 3b bf a7 0f be 79 75 34 be 33 13 66 bf
       0.00561746 -0.14028834 -0.17622937 -0.89873046
000270 a8 57 44 3f e7 34 5f 3e c4 b1 c9 3e 08 11 fe 3e
       0.7669625 0.21797524 0.39393437 0.4962237
000280 61 f2 95 3e 01 dd a6 3d
       0.29286483 0.08147622

mobilenet/dw_conv_1/dw_conv2d/sep_conv_bias f4 [6]
000000 d1 99 17 bf 64 7c a0 be 89 ea 5b 3e 6d 5c e4 be
       -0.5921908 -0.31344903 0.21476187 -0.44601765
000010 ec 7b 0d bf eb a6 0e 3f
       -0.55267215 0.55723447

mobilenet/dw_conv_1/dw_conv2d/weights f4 [1, 3, 3, 6]
000000 75 da 13 3e 7b d7 c1 bf fe da 74 3f 2b 6e fb bd
       0.14438803 -1.5143884 0.95646656 -0.12276872
000010 ff c0 42 3f c1 a5 73 3d 30 1b a3 3a 7b 4e b1 3e
       0.7607574 0.059484247 0.0012444016 0.34630188
000020 cf 6e 93 bf 5e c3 79 bf bc e6 20 bf 34 68 21 3e
       -1.1518191 -0.9756373 -0.6285207 0.15762407
000030 90 6a 4f 3e 17 8d e0 3f b1 79 fa be c7 05 02 3f
       0.20255494 1.7543057 -0.48920968 0.50790066
000040 d6 4b d5 be cd 72 b3 be 35 ab d8 3e 69 87 8c be
       -0.4165942 -0.35048524 0.4231812 -0.2744706
000050 a1 4d 2a be 69 9d 97 be 1b fa e7 be 00 e3 bb 3e
       -0.16631176 -0.29612282 -0.45308003 0.36696625
000060 fa 88 bd 3e 45 f4 95 3f 40 ab 6f bf 86 4e 13 3f
       0.37018567 1.171517 -0.9362068 0.5754169
000070 dc cb 34 3f 7f 4f 0b bf dd 88 78 3e cf 06 27 3e
       0.70623565 -0.54418176 0.24270959 0.16311191
000080 40 3a 92 3f ab 7c 18 bd a8 bd 44 3f b8 29 af bf
       1.1424026 -0.037228268 0.7685189 -1.3684607
000090 ff dd fa 3d 9c a0 91 bf 39 79 14 3f bb ab 9b 3e
       0.12249374 -1.1377139 0.5799747 0.30404457
0000a0 2a ab eb 3e c2 9b 88 3e d1 8a b8 bd 8d 22 7f 3f
       0.46029025 0.26681334 -0.09010852 0.99662095
0000b0 01 f7 69 be f1 f8 d4 3e ea ec 90 3e db b6 12 3f
       -0.22848131 0.41596177 0.2830575 0.57310265
0000c0 99 75 b8 3d 0d 33 e3 be 75 2b 8c be ab 8d 96 3f
       0.09006805 -0.44374886 -0.27376905 1.1761984
0000d0 8f a6 3f bd d2 04 c8 be
       -0.046789702 -0.39066178

mobilenet/dw_conv_1/pointwise_convolution/Conv2D_bias f4 [12]
000000 46 b3 85 be f1 54 4b 3f 27 94 2f bf fa ff d2 3e
       -0.26113337 0.79426485 -0.6858544 0.4121092
000010 52 90 bf 3e 81 40 37 3d 62 a3 1a bf a7 64 94 be
       0.37414795 0.04473925 -0.6040555 -0.28983042
000020 b0 6b 49 bd e2 64 09 3f 37 bb 1f bf 94 ce 50 bf
       -0.049174964 0.5366956 -0.6239504 -0.81565213

mobilenet/dw_conv_1/pointwise_convolution/kernel f4 [12, 1, 1, 6]
000000 38 27 a4 3e 67 e0 1c bf 50 69 d0 be d5 a7 0c 3f
       0.32061172 -0.6127991 -0.40705347 0.5494359
000010 cd aa 5e 3f 62 dd 86 be 3f e9 25 bf 59 e6 24 3f
       0.8697937 -0.26340777 -0.6480903 0.6441398
000020 50 6d 2a bf 59 9f 1b bf 0f b5 0b bf eb 90 20 bf
       -0.6657305 -0.6079002 -0.5457315 -0.6272113
000030 50 be 5d 3f 4e b1 03 3e 9e e4 85 be 43 5f 31 bd
       0.8661852 0.12860605 -0.26150984 -0.04330374
000040 a5 40 a9 3e 1f 7d 64 3e 1f 6a ae bf 9f 82 86 3f
       0.33057132 0.22313355 -1.3626136 1.0508612
000050 d2 5f 03 bf 51 b3 1e bf 4b 3c 51 3f 8e 5b d8 be
       -0.51318085 -0.61992365 0.81732625 -0.4225735
000060 74 24 67 be 05 f3 10 be 0b 16 24 bf 52 67 04 3f
       -0.225725 -0.14155205 -0.64096135 0.51720154
000070 6a 40 36 bf 57 fc eb 3e 26 50 5c bf 20 30 49 bf
       -0.7119204 0.46090958 -0.86059797 -0.7858906
000080 ca 65 ad 3f ae 2f da be 70 4b c3 3f 3b 08 4e bf
       1.3546689 -0.42614502 1.5257397 -0.8048131
000090 09 04 73 3f fe 37 2a bd c0 02 95 be e0 e5 04 3f
       0.9492803 -0.041557305 -0.2910366 0.5191326
0000a0 16 a6 53 3e 72 9e b3 3e 56 96 b7 bf 18 8f a8 3f
       0.20668826 0.35081822 -1.4342754 1.3168669
0000b0 ca 2c 14 3f 14 ef 63 3e 0f 78 09 3f 64 97 10 bf
       0.5788084 0.2225917 0.5369882 -0.56481004
0000c0 d7 5d 48 3f 21 c6 2e bf 46 6d b6 be 81 fd 55 3f
       0.7826819 -0.6827107 -0.35630244 0.8358994
0000d0 eb 66 57 bf b4 6c bd 3d d7 e9 72 be 12 3f 54 3f
       -0.84141415 0.09249249 -0.23722015 0.8290874
0000e0 bd ea 64 be af 20 0a bf ed 77 4d bf bd 7b 9e 3d
       -0.2235517 -0.5395612 -0.8026112 0.07738445
0000f0 ce 05 26 3f 03 6e a8 3e a6 4e 4a 3e 6e 50 66 3e
       0.6485261 0.32896432 0.19756564 0.22491619
000100 8f 16 a0 3e 80 4e 2a be fc 11 bc 3e 44 94 41 be
       0.3126721 -0.16631508 0.3673247 -0.18904215
000110 ad d5 8c 3b 90 f9 86 3e 5d 54 7b 3f ab d7 38 3f
       0.004297933 0.26362276 0.98175603 0.72204083

mobilenet/dw_conv_10/dw_conv2d/sep_conv_bias f4 [102]
000000 fb 13 e3 bd c1 07 21 bf 66 25 7b bd 61 43 48 bf
       -0.11087795 -0.62902457 -0.061314963 -0.7822781
000010 99 28 cd be a1 b6 c5 be d8 c9 0f be b4 69 91 3e
       -0.40070036 -0.38615897 -0.14041841 0.28400958
000020 df 66 be bd 8d 4c 48 bf a5 34 60 3f c5 0f 52 be
       -0.09296965 -0.7824181 0.8758033 -0.20513828
000030 3c 34 c7 3e f9 10 40 3f b8 b8 51 3f 6b ed 3f 3f
       0.3890704 0.750259 0.81922483 0.74971646
000040 90 09 f4 bd 97 01 54 3f 8d 1e be bd 81 67 55 3f
       -0.119158864 0.82814926 -0.09283171 0.8336106
000050 ea e5 23 3f 23 a7 cf 3d db 4f 3d 3f da bc e6 3e
       0.64022696 0.10139301 0.73949975 0.45065957
000060 b8 c0 cd be ab db 9e be 66 46 86 be fb e9 1b bf
       -0.40186095 -0.31026968 -0.26225585 -0.609039
000070 09 b0 05 3f d3 2c 7c 3f 90 53 89 3b 16 a7 2d 3f
       0.52221733 0.98505896 0.0041908696 0.6783308
000080 86 b5 ba 3e fe 5a 47 3f 96 86 02 bf bf 0f 24 bf
       0.36466616 0.7787322 -0.5098661 -0.64086527
000090 59 91 0d bf 88 2b 05 bf 4d 50 26 3f 90 a3 7d bb
       -0.5529991 -0.5201955 0.6496628 -0.0038702227
0000a0 83 44 f8 be 10 95 e1 be 78 48 f1 be cb 08 35 3f
       -0.4848977 -0.44059038 -0.47125602 0.7071654
0000b0 92 af 1d 3f 21 b7 22 3f 24 4a 34 bf 02 f7 82 3f
       0.61596024 0.6356068 -0.7042563 1.0231631
0000c0 0f b4 ab be f1 6b e5 be df 57 48 3f 82 30 6c 3f
       -0.3353581 -0.44808915 0.7825908 0.9226152
0000d0 d6 95 b3 bd 92 a0 d2 be 4c da 2a be 31 d9 ee be
       -0.08768813 -0.4113813 -0.16684836 -0.4665008
0000e0 9b 6b f6 3e a1 43 d9 be e0 33 28 3e 29 33 3c be
       0.4812897 -0.4243441 0.16426039 -0.18378891
0000f0 b7 ed 36 3f c4 89 0f bf 0a 6f 81 3f 6a aa 82 be
       0.71456474 -0.5606959 1.0112011 -0.2552064
000100 f5 95 d1 3e 94 e4 43 be bd 7a 7e 3f 9c 61 1e bf
       0.4093472 -0.19130164 0.99406034 -0.6186769
000110 6d 69 5b 3f 4a 7c 36 bc 7e 47 32 bf 91 95 5e be
       0.8570774 -0.011138031 -0.6964034 -0.21736743
000120 25 77 9a be b0 16 eb bb 5d f0 55 bd de ca 26 bf
       -0.30169025 -0.0071743354 -0.05223118 -0.651533
000130 4b 24 2d bf 90 3a 7c 3f 7a fa 1e bf 5f 56 01 bf
       -0.67633504 0.9852686 -0.62100947 -0.50522417
000140 89 51 2e 3f a6 64 95 3e 5b 33 77 3f c8 ed 00 3f
       0.6809316 0.2917835 0.9656274 0.50362825
000150 28 fe 14 bf df e6 df 3d a1 ca df 3e 6b c0 1c bf
       -0.5820031 0.10932707 0.4370928 -0.61231107
000160 be 33 45 bf d8 06 1a 3f 35 a9 95 3d ba 5d 5c 3e
       -0.7703208 0.6016669 0.07307664 0.21520129
000170 e9 f6 06 bf 7e 55 27 bf ea 84 c6 be de b9 37 be
       -0.52720505 -0.65364826 -0.3877328 -0.17941996
000180 02 d3 df bd 6a e9 2d 3d d0 fc 4e 3f 3a 42 84 be
       -0.109289184 0.04245893 0.8085451 -0.25831777
000190 8f 03 c7 be b4 d0 88 3e
       -0.38869902 0.26721728

mobilenet/dw_conv_10/dw_conv2d/weights f4 [1, 3, 3, 102]
000000 09 a9 02 40 3d e0 6c 3f 41 8b d2 3e ce ba 07 be
       2.041567 0.9252966 0.41121867 -0.13254854
000010 cc 7a a4 3e e0 c8 a7 3e 2c 88 15 bf 12 32 d5 3f
       0.32124937 0.32770443 -0.58410907 1.6655905
000020 17 2e 0d bf 0c 27 55 3e c6 c5 17 3f 92 00 21 3e
       -0.5514845 0.20815676 0.59286153 0.15722874
000030 3e 90 e5 be 3e 8f 3a 3f 62 9c 79 bf b8 b1 32 bf
       -0.4483661 0.7287482 -0.97504246 -0.6980243
000040 b6 1f 1c be eb 91 02 be 24 a1 58 bf 0e 7e b3 bf
       -0.15246472 -0.12750976 -0.8462088 -1.4022844
000050 8c 3f f8 bf 73 bd 0e bf ba 4c 0e be 64 19 9e 3f
       -1.9394393 -0.55757827 -0.13896456 1.2351499
000060 19 91 2f bf bd 60 c7 3e 02 be 93 3f 95 38 2e 3f
       -0.68580776 0.38940993 1.1542361 0.6805509
000070 c9 cb 84 bf 09 48 8c bb 5d fe 29 3f 5f 29 b8 be
       -1.037469 -0.004281048 0.6640375 -0.35969064
000080 d4 c4 c1 bf 4c 48 23 be cc e6 95 3d 3a cb b5 be
       -1.5138192 -0.15945548 0.07319412 -0.35506612
000090 fe 26 fb 3e 85 2b 3c 3f 87 6a d8 be 24 b6 19 be
       0.49053186 0.73503906 -0.42268774 -0.15010887
0000a0 0b 87 6c 3f 99 da 0e be f3 6e f2 bd 9a 2d 35 bf
       0.9239356 -0.13950576 -0.11837568 -0.7077271
0000b0 b2 03 1b c0 f3 02 aa bf 32 69 66 3e a8 fa 03 bf
       -2.4221005 -1.328215 0.22501066 -0.51554346
0000c0 57 99 ac be c9 6b 1f bf 38 ed a1 be 7a 46 60 bf
       -0.3371074 -0.6227384 -0.31626296 -0.8760754
0000d0 07 d6 16 bf d8 f2 6c 3e f5 8a ee be 26 5c 52 3d
       -0.5892033 0.23139513 -0.4659039 0.05135741
0000e0 2e 47 f3 3f 34 69 cf 3e cc a5 00 bf 9b 89 0d 3f
       1.9006097 0.4050995 -0.50252986 0.55288094
0000f0 07 53 a2 bf fe af 4a 3e 3c 58 0b bf 42 4e 6e 3b
       -1.2681588 0.19793698 -0.5443151 0.0036362563
000100 23 1e 3b bf 7b 3d 48 3f 11 9a 40 bf cd d0 0c 3f
       -0.7309286 0.7821881 -0.75235087 0.55006105
000110 d5 28 33 bf 42 e3 bf 3f 6c 1c 39 3f d2 2e b7 bd
       -0.6998418 1.4991229 0.72308993 -0.08944477
000120 06 a4 19 be 6e 4f 6c 3f 16 a6 ba be ef 42 76 3e
       -0.15003976 0.923087 -0.3645484 0.2404897
000130 84 50 92 3e ee 22 48 bf 13 57 d9 3e dc 42 90 bb
       0.28577054 -0.781783 0.42449245 -0.0044025015
000140 63 16 8c bf a5 4b b7 bd e0 f3 0b bf 8d 91 cf bf
       -1.0944332 -0.08949975 -0.54669 -1.6216294
000150 54 78 3e bd 49 3b f6 3e c3 49 db bf 33 42 c2 be
       -0.046501473 0.48092106 -1.7131885 -0.3794113
000160 f0 4a 87 bd f7 26 97 3f f9 95 84 be dc 21 8d bf
       -0.0660609 1.1808766 -0.2589567 -1.1025958
000170 d3 9b a5 3e 52 d6 9e 3e dc ca f1 bd 49 9c 41 bf
       0.32345447 0.31022888 -0.118062705 -0.756291
000180 df 4d de 3e d9 a9 75 3f dc 93 87 bf a2 43 02 3f
       0.43418786 0.9596229 -1.0591998 0.5088445
000190 48 dc ef 3e 76 4b 11 3f a3 c9 6c bf 05 19 04 3f
       0.4684775 0.5675577 -0.92495173 0.51600677
0001a0 b1 eb 32 3f d5 01 03 3f 13 ac 44 3d 93 6a 21 bf
       0.69890887 0.5117467 0.048015665 -0.63053244
0001b0 b7 58 97 be fe 5d 22 bf 39 93 11 bf bc eb 8f 3e
       -0.29559872 -0.6342467 -0.5686527 0.2810954
0001c0 fb 24 f1 be 5f 68 81 3f cd 3a 8e 3e e2 71 a3 bf
       -0.47098526 1.0109977 0.27779236 -1.2769129
0001d0 cf c7 30 bf 71 43 75 be e7 3b 8e 3e 4a 02 aa 3d
       -0.69054884 -0.23951508 0.27780077 0.08301218
0001e0 af c6 50 bf 38 85 a8 bd a7 f4 02 bf 13 4d ad 3e
       -0.8155317 -0.082285345 -0.5115456 0.33847865
0001f0 7a fb c9 be 9a c6 b3 3f 8b 64 a2 3e e1 fc a4 3e
       -0.39449674 1.4044983 0.31717333 0.3222418
000200 c2 3f 10 3f a3 be c8 3e 76 e5 10 c0 5f a8 84 3e
       0.56347287 0.39207944 -2.2640052 0.25909707
000210 80 82 73 be 22 29 05 3f 04 f0 ea bf b4 50 1a bf
       -0.2378025 0.5201589 -1.8354497 -0.60279393
000220 d6 59 25 be 2a 86 c5 3e 74 9e 84 bc 9d 4b 90 3e
       -0.16147551 0.38578922 -0.016188838 0.28182688
000230 d4 fc 8a 3f b7 bb 9c bf 17 8e 4e 3f 99 aa cb 3c
       1.0858407 -1.2244786 0.8068556 0.02486162
000240 63 9f fb 3d 28 ed f5 3d e8 a5 ca bf 13 ed 4f be
       0.1228626 0.120081246 -1.583188 -0.2030528
000250 80 7c 77 3e 85 a8 e8 3e 7a e8 27 3f d4 85 cc 3e
       0.24168587 0.4544107 0.65589106 0.39945853
000260 a3 d2 15 ba 57 d9 c8 bf 1c 0c 44 bf 42 7e 0f 3d
       -0.0005715286 -1.5691327 -0.7658098 0.03503252
000270 d9 9c e8 be 45 29 e8 bd 1a f0 f7 be 26 29 5c 3f
       -0.45432165 -0.113359965 -0.4842537 0.8600029
000280 f0 f0 c4 3e b8 1c 92 3f d8 71 01 3d 57 f2 2e 3f
       0.3846507 1.1415014 0.03160271 0.6833853
000290 c4 3e a2 bf ea 6b 1c 3e 1d 4a 10 c0 ed 3e 92 bf
       -1.2675405 0.15275541 -2.2545235 -1.1425453
0002a0 0e e5 b0 bf 6b 0c 88 3d 80 52 25 bf 39 5d 6f 3e
       -1.3819902 0.066429935 -0.6457901 0.23375405
0002b0 b5 5e 99 3d 12 f7 06 3f 2f 43 10 3d 07 3e 8e 3f
       0.07488767 0.5272075 0.03522032 1.1112679
0002c0 a7 4c 10 bf cd cb 9e 3e 54 ed f7 bc d9 e9 9f be
       -0.5636696 0.31014863 -0.030264534 -0.312331
0002d0 a1 e0 ac 3d 88 3b 7f 3f 13 c3 38 be 9b ae d7 be
       0.08441282 0.9970021 -0.18043165 -0.421254
0002e0 75 5d b4 bf 2b a5 b7 bf 7d 84 ca 3d f3 c5 0a bf
       -1.4091021 -1.434728 0.098885514 -0.54208297
0002f0 7e ee 9d bf 69 91 bc be ae 76 2a 3e 4b b4 21 be
       -1.2338407 -0.3682969 0.16646835 -0.15791433
000300 54 5a 47 bf c0 bb 80 3e a1 d1 9e be d4 ac ed 3e
       -0.77872205 0.25143242 -0.3101931 0.4642092
000310 4a 75 b6 3e 83 c9 4d bf 0c e7 0d be 8e c8 55 3f
       0.3563636 -0.8038561 -0.13857669 0.8350915
000320 db 68 8c bf fa 2b 53 3e 6e d0 52 3e 83 95 12 c0
       -1.0969499 0.20622244 0.20587322 -2.2903755
000330 cb cb 75 3e ca 49 f6 bd 17 1d 75 3f 6a 06 3b 3f
       0.24003522 -0.12025793 0.9574751 0.7305666
000340 30 61 d3 be 66 2a 6e 3e 2e 8e 0b bf 51 ee a7 3e
       -0.41285086 0.23258361 -0.54513824 0.32799008
000350 fb 13 d2 3d 96 57 89 3f 87 77 79 be 48 22 0c 3d
       0.10257717 1.0729854 -0.24362002 0.03421238
000360 6c 43 be 3f e8 64 b9 be ce e2 82 3e dc c1 92 bf
       1.4864326 -0.36209798 0.25563663 -1.1465411
000370 f6 16 3d be ae ad c4 bf cd 87 ab 3f be 97 6f bf
       -0.1846579 -1.5365503 1.3400818 -0.93590915
000380 80 2d 37 3f 32 c5 4e 3f d4 c5 c5 bf 1d 79 6a bf
       0.715538 0.80769646 -1.5450997 -0.91591054
000390 ec f3 5a be 43 9c 4b 3f 83 cf b0 3d 7d 06 30 be
       -0.21382111 0.7953531 0.0863333 -0.17189975
0003a0 ca 2d 40 3e 86 a0 cf be 86 98 75 3f 6c 30 11 be
       0.18767467 -0.40552157 0.9593586 -0.14178628
0003b0 65 61 b6 3d c2 07 6f bf 9d 3c 95 bf 09 13 61 be
       0.08905295 -0.9337121 -1.1659123 -0.21979918
0003c0 4b 62 27 3f 01 48 16 3f 5e 81 8b 3f e8 fa e8 3e
       0.6538436 0.5870362 1.0898855 0.45503926
0003d0 c7 c5 06 bf 29 3a 8d 3d 5b 4f 04 3e a6 74 e5 3e
       -0.52645534 0.06895859 0.12920897 0.44815558
0003e0 d3 d8 a3 bf 0c 23 8f 3d ad f9 3e 3f eb bb 93 bf
       -1.2800545 0.069891065 0.74599725 -1.1541723
0003f0 59 fd e3 be 0b 11 0f be b0 64 a5 bf 73 fb 8f bf
       -0.44529226 -0.13971345 -1.2921352 -1.1248611

mobilenet/dw_conv_10/pointwise_convolution/Conv2D_bias f4 [102]
000000 cc b0 f3 be bd fd 51 bf e5 b0 bf be 0a 1a e3 bd
       -0.47595823 -0.820278 -0.37439647 -0.11088951
000010 0d ea e5 3d 0f 80 5d 3e 78 8e e5 be 8a 03 3d 3e
       0.11226282 0.21630882 -0.44835258 0.18458381
000020 dc 69 4a 3e 3e 28 88 be ab 6c 8f 3e af b0 52 3d
       0.19766945 -0.26593202 0.28012595 0.05143803
000030 8f d0 1a be f9 cc 4f bd 3d f3 b5 bd 48 0b 71 bc
       -0.15118621 -0.050732587 -0.08884285 -0.014712162
000040 bf 1e ba be d1 27 79 be 2f cc a6 bc 37 d9 61 3e
       -0.36351582 -0.24331595 -0.020361034 0.22055517
000050 80 65 06 3e c2 88 ca be 4d c7 1f bf 44 a3 10 bf
       0.13124657 -0.39557463 -0.62413484 -0.56499124
000060 09 78 a2 3e 6a 9f 81 3e 08 e0 ca 3d 72 06 80 3e
       0.31732205 0.25316936 0.09906012 0.25004917
000070 3b d6 44 3e 07 d0 91 3c 4e 0f 94 bd a3 9c 33 be
       0.19222347 0.01779939 -0.07229482 -0.17540221
000080 81 a0 c0 3d 34 36 01 bd 16 bf 6c be d8 1a 0e bf
       0.09405614 -0.031545833 -0.23119769 -0.5550971
000090 ee fa 18 bf d8 b3 44 be 6f 9a b1 be 01 5e 0c 3e
       -0.5975789 -0.1920923 -0.34688136 0.13707735
0000a0 71 69 39 3d 09 d3 0a bf 3c ad 7d be 1b 14 06 be
       0.045266572 -0.54228264 -0.24773115 -0.13093607
0000b0 14 b7 3b bf 80 4e f2 be 2f 65 c7 bd b1 f7 08 be
       -0.7332623 -0.47325516 -0.09736096 -0.13375737
0000c0 28 c6 32 3e 7c b3 91 be 14 48 a2 be 5d dc b2 be
       0.17458403 -0.28457248 -0.31695616 -0.3493375
0000d0 df 1d af be 23 fc c1 bd 8a 70 8a be 4f c5 a3 be
       -0.34202477 -0.094719194 -0.27038985 -0.31986472
0000e0 9f 72 03 bf ba 35 c3 be 94 83 88 bb 6f 1d 7c be
       -0.5134677 -0.38126928 -0.004166076 -0.24620603
0000f0 68 b4 00 3e 27 32 91 be 91 9f 64 3e 39 80 95 be
       0.1256882 -0.28358576 0.22326495 -0.2919939
000100 7f d5 3f 3e 15 4a ba be 58 5f c0 3d 16 be 4a be
       0.18733786 -0.36384645 0.093931854 -0.19799075
000110 9f 45 fe bd 9a a5 12 bd 1d 75 ec be c0 f5 54 be
       -0.12415623 -0.03580246 -0.461831 -0.20796871
000120 3a fc db be 94 0a 2e be 39 73 a1 3e 92 63 34 bd
       -0.4296587 -0.16996223 0.3153322 -0.04404027
000130 38 3e 23 3e 35 85 93 be 21 92 de 3e 8b 84 57 3e
       0.15941703 -0.28812566 0.43470863 0.21046655
000140 50 6b 62 be 5f 0e 98 be 60 e7 c9 bd d4 44 32 3e
       -0.22111249 -0.29698464 -0.098585844 0.17409068
000150 10 df 1d bf 4e 45 bc 3e 0a 2a 82 bc 72 1c 0b 3e
       -0.6166849 0.36771625 -0.015889186 0.1358507
000160 44 29 20 bf 4e 60 26 be 91 9e 7c be 7d 7a c3 be
       -0.62562966 -0.16247675 -0.24669863 -0.3817939
000170 17 99 1b bd 8d 8a ad bd 8c 90 26 bf 92 f2 ec be
       -0.037987795 -0.08473692 -0.6506431 -0.46278816
000180 49 eb 1f bf 3e 7c 36 bf 18 39 e7 be 8e d5 5b bf
       -0.6246839 -0.7128333 -0.45160747 -0.85872734
000190 fc a1 e1 3d 04 35 78 bc
       0.11017224 -0.015149359

mobilenet/dw_conv_10/pointwise_convolution/kernel f4 [102, 1, 1, 102]
000000 5e ab 75 bc af 30 67 bd cb 60 4d bd a7 dc ad bc
       -0.01499447 -0.056442913 -0.050141137 -0.02122338
000010 48 ca 14 be 60 47 93 bc f7 ea 11 3d 2f 82 33 3e
       -0.14530289 -0.01797837 0.03562447 0.1753013
000020 8c 17 8d 3c a6 e7 9f 3d 29 c5 cc 3c 4f b8 39 bc
       0.017223142 0.07807855 0.024996357 -0.0113354465
000030 02 13 4a 3c a5 9f 7c 3c 3f ec 89 3c 27 7b 45 bb
       0.012333633 0.015418922 0.016836284 -0.003013322
000040 e6 dd c8 bc be 20 4e 3d 04 e7 47 3d 6e c0 43 bd
       -0.024519872 0.050324194 0.048804298 -0.047790937
000050 60 0e 9c 3c a4 bc b4 3c 7b a0 05 bc 5d e2 d6 bc
       0.019049823 0.022062607 -0.008155937 -0.026230985
000060 35 df c5 bc fe 18 2d 3e 37 35 e1 bc 0f 9c 40 3e
       -0.024154285 0.16904065 -0.027491195 0.18809532
000070 7b f8 db bc 35 a1 2d 3c 5e e5 cd bc 1b 25 43 3b
       -0.026851883 0.010597517 -0.025133785 0.0029776755
000080 b8 11 b8 bb e1 ba f3 bc 41 7c 38 3b f1 f6 a5 3d
       -0.0056173466 -0.029752197 0.0028150233 0.08103741
000090 3b 80 1e 3e 27 67 85 3d 8f f2 55 3d 2e 19 8c bd
       0.15478604 0.065138154 0.052233275 -0.0684074
0000a0 ec 27 b8 bd 40 a6 d4 bc 16 00 84 bd ad 47 69 3a
       -0.089919895 -0.02595818 -0.06445329 0.0008898925
0000b0 ea 2a 40 3d 5a 21 e5 bc 60 a2 b4 ba a8 78 33 ba
       0.046915926 -0.027970005 -0.0013781302 -0.0006846287
0000c0 5e 4b 50 bd ec d8 02 bc 00 4b d4 3b f4 d6 40 bb
       -0.050853126 -0.0079862885 0.0064786673 -0.0029424997
0000d0 63 3e 8c 3c 90 08 4f bd 67 6e cd 3b c0 92 0f 3f
       0.017119592 -0.050545275 0.0062692645 0.560833
0000e0 fc 7d b4 bc da 55 ae 3d 7a d6 aa bc b0 6f 69 3d
       -0.02203273 0.08512469 -0.020854224 0.05699128
0000f0 6a 9f b5 bb 37 c6 83 be 61 2d d0 bc 25 df e8 bc
       -0.0055426853 -0.25737163 -0.025412263 -0.028426716
000100 f6 36 a9 bc 9d 78 f3 bc 2c 1b 1a 3d 37 95 9a bd
       -0.02065609 -0.029720599 0.03762357 -0.07547992
000110 2e 69 70 3c 47 d5 81 3d 01 67 d8 bd 22 ff a9 bc
       0.014673514 0.063395076 -0.105665214 -0.02075154
000120 be ef 6c bd 57 01 b9 bb de 45 04 bc 50 13 96 bd
       -0.057845823 -0.0056459117 -0.008073298 -0.07327902
000130 ea 0d fb bd 2a 20 59 3c 7d fa d9 bc 0d e5 f6 bc
       -0.12258513 0.013252297 -0.0266087 -0.030138517
000140 46 79 03 bd 52 6d 99 3c 9a e8 91 bc d7 ba ee bc
       -0.032098077 0.018728886 -0.017811108 -0.029141827
000150 2c 08 2d bc 8b 61 8b bc c2 19 1d bd 60 dd 76 3d
       -0.01056103 -0.017014286 -0.038354643 0.060269713
000160 55 5f 89 3c 00 39 b5 3c 94 dd de bc dc 29 20 bc
       0.01676909 0.022121906 -0.027205266 -0.009775605
000170 66 70 da bc 96 8e 93 3b 3d d3 b8 bd 20 cc 82 bd
       -0.026664924 0.0045030816 -0.090246655 -0.0638659
000180 99 ac 21 3c 83 67 3e 3f 47 93 e0 bb 42 ad fb 3e
       0.009867811 0.74376696 -0.0068534943 0.49155623
000190 7c 2a 07 3d 76 12 1d 3c 8c 9e ed 3d cd 7f 48 3e
       0.0329995 0.009586921 0.11602506 0.19580002
0001a0 5b 33 e9 3d 88 79 88 3d 4a 86 28 bd 77 1c ed bc
       0.113867484 0.06663805 -0.041143693 -0.028944237
0001b0 39 e1 68 3e 61 0c c5 3d d4 66 db bc c6 68 ff bb
       0.22742166 0.09621502 -0.02678243 -0.0077944724
0001c0 55 79 96 bc eb 73 e6 3d 0c 6d c7 3d 6f f3 f5 3c
       -0.018368402 0.11252578 0.09737596 0.030023305
0001d0 dc 28 a2 3c 19 da 9b 3c 2b 43 39 3d b6 1a 02 3c
       0.019794874 0.019024896 0.045230072 0.007940939
0001e0 21 63 56 3d e1 1d b1 3c e3 06 25 bd f8 0e e1 bc
       0.05234063 0.021620693 -0.04028977 -0.027472958
0001f0 99 b8 82 3c 0b 96 ab 3d 6e 53 f9 3d ff b0 2e 3c
       0.015957164 0.08378228 0.12174116 0.010662316
000200 56 25 38 3d c1 6d 95 3d 08 10 dd 3d cf bb 88 bc
       0.04495748 0.072963245 0.10794073 -0.016691117
000210 49 ba 08 3d e1 02 e2 bc 32 08 45 3c 86 2e f6 bc
       0.03338078 -0.027589263 0.01202588 -0.030051481
000220 d7 fa 13 3c c6 17 68 3d 69 e0 59 3d ed e5 d0 bd
       0.009031973 0.056663297 0.05319253 -0.10200105
000230 17 b9 2a bd da 2e 4f bb 5b 72 55 bd 81 3d b1 bd
       -0.04168042 -0.003161362 -0.05211101 -0.08654309
000240 f9 2c 89 bd 4f da dc bc a0 df 39 3d 31 b1 05 3c
       -0.06698031 -0.026959566 0.04537928 0.0081599215
000250 c9 48 5d 3d 40 48 1b bc ae c4 aa bd 37 fb 87 3d
       0.05402449 -0.009477675 -0.08338295 0.06639712
000260 cc 79 2b bc fe f3 c5 3b a0 9e f9 3c e1 f8 e9 bc
       -0.01046605 0.006041049 0.030471146 -0.028561058
000270 bc 4f 3d bd fe 2d 01 bc 8e 7b 8e 3b d2 69 45 3e
       -0.04621862 -0.007884501 0.004348225 0.19278648
000280 2a 57 63 3b fa c3 33 3d dc 83 19 bd 9c 58 43 3e
       0.0034689405 0.04388807 -0.037479267 0.1907677
000290 90 6a 1a bb 39 e3 71 3d 5b 0c 85 bd 79 b6 4b bc
       -0.0023562051 0.059054587 -0.06496497 -0.012433642
0002a0 0c f3 e4 bb 68 ff 06 3d 76 77 2d bc d9 31 b5 bc
       -0.0069869813 0.032958418 -0.010587564 -0.022118496
0002b0 12 58 2f 3e 4f 91 ba 3d be 8f 2c 3e 67 3a d7 bb
       0.1712344 0.09109747 0.16851708 -0.0065682414
0002c0 a5 b5 36 bd 60 87 cb 3c f2 4d c6 bd 84 81 dd 3c
       -0.044606823 0.024844825 -0.09682836 0.027039297
0002d0 43 2a e4 3d fd b9 25 bd f6 45 81 3c b6 ad 94 bc
       0.11140873 -0.040460575 0.01578043 -0.018149238
0002e0 0e d9 e0 3c 2d 56 40 3b 09 d9 11 3e 8a 1f 9c 3d
       0.02744725 0.002934824 0.14242949 0.07623203
0002f0 18 4b b3 bd 0c ee c1 3c 2d 0e f6 bd ac c7 e1 3c
       -0.08754557 0.02367308 -0.120144226 0.027561031
000300 ea a6 2d 3e 27 5f 07 bc a4 8e bf bc 70 68 5d bb
       0.16958204 -0.008262432 -0.023383446 -0.0033784173
000310 b0 99 02 3e 5d 8e f1 bc 06 c9 cc 3c a1 5f 15 3d
       0.1275394 -0.02948683 0.0249982 0.036468152
000320 23 be e0 bc 60 87 81 3d a9 1b d0 bc f4 61 f2 3d
       -0.027434414 0.06324649 -0.025403814 0.11835089
000330 a4 41 9a bd 5e 39 93 3d ef ac 41 3e e1 6d 9a 3b
       -0.07532051 0.07188676 0.18913625 0.0047128056
000340 f7 c6 47 3e 04 e3 bf 3a c8 ba d3 3b 84 9f 89 3c
       0.19509493 0.00146398 0.006461475 0.016799696
000350 49 c1 b0 bd 40 5d a9 3d f3 43 b8 3d 6d 38 75 3e
       -0.08630616 0.08269739 0.08997335 0.23947306
000360 ed 40 6d 3c 11 86 e8 3c e9 aa 03 3d 1c cb 79 bd
       0.014480812 0.02838424 0.032145415 -0.060984716
000370 ce 37 37 ba 16 e9 04 3e 8b a4 87 3a af e8 21 bd
       -0.00069892115 0.1297954 0.001034872 -0.039528545
000380 cb 41 06 bc 68 1e 4a 3d 95 e6 6b 3b 20 4d 4c 3a
       -0.008194397 0.049345404 0.0035995592 0.0007793475
000390 28 cb 03 3c 5e 51 f4 bd 1f a9 12 bd ed f9 e4 3d
       0.008044042 -0.11929582 -0.035805818 0.11180482
0003a0 4f 49 8f bb cc 32 9a 3d f9 00 29 bd 81 87 8b bc
       -0.0043727527 0.0752922 -0.041260693 -0.017032387
0003b0 fa 55 12 3d 0f 75 c2 bb 01 d4 7a 3d 19 b1 70 3e
       0.035726525 -0.0059343646 0.06123734 0.23505057
0003c0 08 ec 3c be a1 27 cc bd 3c 3a e9 3c 93 16 8b 3d
       -0.18449414 -0.09968496 0.028470151 0.06791415
0003d0 20 77 4c bd 30 e1 9f bd dd e9 9b 3d 75 66 24 3d
       -0.049918294 -0.07806623 0.07612965 0.040136773
0003e0 c0 f1 af 3c 55 3d 98 3c db d6 92 3d 79 b0 93 bb
       0.02147758 0.018583933 0.07169887 -0.004507121
0003f0 e5 a3 20 be d9 20 fe bc d0 c2 b2 bd c1 e5 8d 3b
       -0.15687521 -0.031021522 -0.08728564 0.0043303673

mobilenet/dw_conv_11/dw_conv2d/sep_conv_bias f4 [102]
000000 4b 5b 13 bf 5b 14 03 bf ca 47 07 be ea 30 1c 3f
       -0.57561177 -0.51202935 -0.13210979 0.61012137
000010 ce 08 68 bf 0c be 9b 3d e1 11 04 be b1 4c 07 bf
       -0.90638435 0.07604608 -0.12897445 -0.52851397
000020 02 8c 16 bf 13 89 55 3f 1f c3 30 bf f4 34 1a be
       -0.58807385 0.83412284 -0.6904773 -0.15059263
000030 f4 d2 cf be 9e 99 3e 3f 8c fb ba 3d ad 11 8b 3f
       -0.40590632 0.7445315 0.0913001 1.0864769
000040 4d 8a ae bd e0 9f ad be bc a1 a4 3e 25 1f f5 3e
       -0.085224725 -0.33911037 0.32154644 0.47875324
000050 e4 a5 68 3f d5 fd 0d bf a3 4f cc be c3 13 01 bf
       0.9087813 -0.5546544 -0.39904508 -0.5042078
000060 86 ba 7c 3f 51 83 83 3f 6d 23 6a be 9e f0 11 3f
       0.9872211 1.027445 -0.22865076 0.5700778
000070 79 b0 a0 3f 0f b0 e3 3e 09 34 9c 3e d0 13 ec be
       1.2553855 0.4447026 0.3050845 -0.46108866
000080 49 a2 5e 3f 6e e6 0e 3f 96 11 4c be 0d c6 f3 be
       0.8696638 0.5582036 -0.19928584 -0.47612038
000090 d8 66 12 be cb ed 24 3f 53 31 ee be a8 1e 44 3f
       -0.14297044 0.64425343 -0.46522006 0.7660928
0000a0 a0 42 f7 3e 97 e6 da be 82 c5 6a 3e 3b 11 5e 3f
       0.48293018 -0.4275405 0.22926906 0.8674504
0000b0 35 18 cb be b3 b7 a1 3d 7b 7c 48 3f 9d 35 ba 3e
       -0.39666906 0.07896366 0.7831494 0.3636903
0000c0 73 6e 88 3f 66 b7 05 3f f3 3d c8 bc 63 4b 0e bf
       1.0658706 0.5223297 -0.024443602 -0.5558378
0000d0 a7 d6 3d 3f f3 f4 71 3e 89 4e c3 3e 3a 8d e7 be
       0.7415566 0.23628597 0.38145855 -0.45224935
0000e0 7b bd 00 bf aa 0e d3 3d a4 71 37 be d4 e1 17 be
       -0.50289124 0.10305531 -0.17914444 -0.1483224
0000f0 e3 5c 69 3d 6b e0 51 3f 0d 0a a2 be a7 05 0f 3e
       0.05697335 0.8198306 -0.31648293 0.13967
000100 34 fe fe be 3b 66 e2 be c4 26 2c 3f 52 5b c5 3c
       -0.49803317 -0.4421862 0.6724665 0.024091396
000110 6d b6 8a 3c 01 b7 33 3f c7 1d 28 bf a8 63 48 3f
       0.01693269 0.70201117 -0.65670437 0.78277063
000120 e6 2a b2 be 99 f2 9e 3c 23 58 0e 3f 53 80 ed bd
       -0.34798354 0.019402789 0.55603236 -0.115967415
000130 d2 04 24 3f 26 90 d4 be 0d e1 0a 3f 7d 4b 44 3f
       0.64069855 -0.41516227 0.5424965 0.76677686
000140 b9 04 1d bd 97 13 95 be 46 30 4a be 02 9a 86 3f
       -0.038334582 -0.29116508 -0.19744977 1.051575
000150 c0 bc 4d be ce de 83 3f 31 c9 0f 3e ac 96 6a 3f
       -0.20091534 1.030237 0.14041592 0.9163616
000160 75 1f 3b 3e 7a bd d5 3e b0 75 9b be e7 8d 09 bf
       0.18273719 0.41746122 -0.30363226 -0.5373215
000170 01 c7 0d bc 93 e0 52 3f 3c be 2b be 05 a2 11 bf
       -0.008653403 0.82373923 -0.16771787 -0.5688785
000180 5d c3 6f 3f 0c 04 fe be 4f bf d9 bd d0 8d 00 bf
       0.93657476 -0.49612463 -0.10632192 -0.5021639
000190 bb 80 14 bf 8d 79 45 3f
       -0.5800893 0.77138597

mobilenet/dw_conv_11/dw_conv2d/weights f4 [1, 3, 3, 102]
000000 6f 70 2b be 34 67 92 3f 29 a8 1e bf 11 7f 45 bf
       -0.16742109 1.1437745 -0.6197534 -0.7714701
000010 26 06 a5 3f 2b 19 17 bc 6d a3 1f be cd 0e 8f 3e
       1.2892501 -0.009222309 -0.15589686 0.2794098
000020 69 74 c8 3d f9 ee 2f be 5d 0d 93 3c d8 fe c1 3f
       0.097878285 -0.17181005 0.017950708 1.5155897
000030 ea 50 8f 3e b6 33 69 bd a0 20 e8 be 70 75 75 bf
       0.2799142 -0.05693408 -0.4533739 -0.9588232
000040 d2 ec ae 3e a4 f8 2a bd e7 45 91 be 9c 92 6b 3f
       0.34165055 -0.04174103 -0.28373644 0.92020583
000050 5a d1 16 3f 8e f4 1e 3f 35 aa 87 3f 27 e2 95 be
       0.58913195 0.6209191 1.0598818 -0.29274103
000060 98 ab c9 bd 13 de 46 bf ed d3 09 3e 35 eb 1f 3f
       -0.09847182 -0.7768261 0.1345975 0.6246827
000070 5f 12 87 bf 09 ad 72 be 24 99 7b bf df c0 92 be
       -1.0552481 -0.2369882 -0.9828055 -0.28662774
000080 f6 d5 f9 be 4f 37 6f bd 51 19 8a be d6 cf 8e bd
       -0.48796052 -0.058402356 -0.2697244 -0.06973235
000090 2c 40 a9 3f 9a 08 a2 bf 3d c1 a4 3e 22 62 ae 3d
       1.3222709 -1.2658875 0.3217868 0.08514811
0000a0 99 ae d0 be 71 77 9c 3f c8 a2 c3 be 4b 92 fb be
       -0.40758207 1.2223951 -0.3821013 -0.4913505
0000b0 40 bd 97 be 42 54 3a be c2 5b 89 bf b2 27 ad 3e
       -0.29636574 -0.18196204 -1.0731127 0.33819348
0000c0 4c 65 20 bf 31 f0 ed 3e b3 2b 85 bf 87 c3 20 3e
       -0.62654567 0.46472314 -1.0403961 0.15699588
0000d0 b9 cb d4 bf e1 1b 6a bf 3a 77 b8 3f 01 9a 10 3f
       -1.6624671 -0.9144879 1.4411385 0.5648499
0000e0 dd bf 1f be f9 15 f8 3e a2 e0 bc 3d 52 87 64 be
       -0.15600534 0.48454264 0.09222533 -0.22317246
0000f0 83 f6 7b 3f 4a 58 c3 be ae cd 9c 3e fb 68 73 bf
       0.9842302 -0.38153297 0.3062567 -0.9508206
000100 16 65 20 bf a9 85 05 bf 52 92 fd bf 22 e1 1b be
       -0.62654245 -0.52157074 -1.9810278 -0.152226
000110 8a 9a 65 bf e6 f4 6b 3e 08 71 f1 3e 66 d2 28 be
       -0.8968893 0.2304264 0.47156549 -0.1648651
000120 7b a4 81 3e d1 29 8c 3e f1 0f 14 bf 28 16 db 3b
       0.253208 0.27375653 -0.57836825 0.006685991
000130 f5 2f 49 3e 8a 9c 8a 3e 3d dd c4 3f 7e 5c 8e bf
       0.196472 0.27072555 1.5380017 -1.1121976
000140 83 26 81 3d af d3 aa 3d 7e 4f 56 be 08 36 a3 be
       0.06306174 0.08341157 -0.20928761 -0.3187716
000150 e6 c2 fc 3d 02 4f 15 3f 4f 82 82 3e 71 36 71 bf
       0.123418614 0.5832368 0.25490043 -0.94223696
000160 14 f7 c9 be d2 85 92 3f c9 d3 f0 bd 2f 44 26 3e
       -0.39446318 1.1447089 -0.11759145 0.16236947
000170 89 05 f9 3f 28 59 1c 3f 4a 6b d5 bd 92 38 9d 3f
       1.9454814 0.6107354 -0.104208544 1.2282889
000180 3a 7e b6 3e f9 2d 15 bd f5 7d 11 3e d3 28 3c 3e
       0.35643178 -0.036420796 0.14208205 0.18374948
000190 b5 31 12 3e b8 67 ee bf 21 5a e0 be e8 6b a4 be
       0.14276774 -1.8625402 -0.43818763 -0.32113576
0001a0 75 50 c1 be 5b 10 a0 bf a4 48 e4 3e c1 d4 2e bf
       -0.37756696 -1.2504991 0.4458667 -0.68293387
0001b0 a3 f0 22 bf 89 01 67 3e df b9 23 3e 01 43 81 bf
       -0.6364843 0.2255918 0.15988873 -1.0098573
0001c0 5e 16 92 3f c3 d5 4a 3f 6b e4 02 be 60 84 35 be
       1.1413076 0.79232424 -0.12782447 -0.17726278
0001d0 23 20 7c be 73 7a 7d be d1 10 82 3f 50 96 0b bf
       -0.24621634 -0.24753742 1.0161382 -0.54526234
0001e0 98 d0 cf 3e 7c 44 46 bf ce 18 9d bf 9a 84 36 3d
       0.40588832 -0.7744825 -1.2273195 0.044560052
0001f0 a5 c1 83 3d 5c 73 05 3f 96 21 04 bf 4f 85 0f bf
       0.06433419 0.5212915 -0.5161375 -0.5606279
000200 f8 68 8b bf b5 4b aa bf d9 98 b9 bf 90 2e a2 bd
       -1.0891409 -1.3304354 -1.449977 -0.07919037
000210 3f c2 09 bf 75 33 31 3f 2a 57 16 bd 88 2f 6f 3f
       -0.5381202 0.6921914 -0.03670422 0.934319
000220 94 5b e5 3f 26 c0 21 3f 8d 82 98 3d d0 14 30 be
       1.7918572 0.6318382 0.074467756 -0.1719544
000230 6c 36 3d bf 6c 49 81 bf 13 3c a9 bf 79 3c d1 3e
       -0.73911166 -1.0100532 -1.3221458 0.4086645
000240 d9 37 3e bf e5 19 cf be 26 c5 ac 3e 05 75 45 bf
       -0.74303967 -0.40449443 0.33744162 -0.7713168
000250 14 7d 96 bf 38 02 04 3c bb 5e 3b bf a7 6a 22 3f
       -1.1756921 0.00805717 -0.7319142 0.6344399
000260 41 94 97 3d c4 fa b7 3e 54 8d fa 3e bc d0 0f c0
       0.07401324 0.35933506 0.4893595 -2.2471151
000270 51 53 e4 be 0b 1f cc 3e 73 30 e4 3d 76 7f d4 bd
       -0.44594815 0.39867434 0.111420535 -0.10375874
000280 8f 21 b1 3f 79 60 96 3f 00 99 5e be 72 84 5b bf
       1.3838366 1.1748191 -0.21738052 -0.8574897
000290 13 3d 71 bf 83 9e ac bc 69 c4 8b 3f ab 19 24 be
       -0.94233817 -0.021071678 1.0919315 -0.16025417
0002a0 f8 3f 3a bf 16 49 c4 bb a3 0e 6d bf 2f 8e 88 bf
       -0.7275386 -0.005990158 -0.9260046 -1.0668391
0002b0 dd 17 7f 3e aa 16 dd 3e 4a 8d ab be cf 85 c7 3c
       0.24911447 0.43181354 -0.33506233 0.024355797
0002c0 33 54 ec be 9d 69 05 bf d6 d5 d2 be db de 43 3e
       -0.4615799 -0.5211428 -0.4117877 0.19127981
0002d0 fd d3 63 be 73 df 27 bf 69 96 81 3d b2 c7 2f 3f
       -0.22248836 -0.6557533 0.063275166 0.68664086
0002e0 1b 3c 1d bf 53 1a 96 bf d4 47 3b 3f 0e 5d 9e bf
       -0.6141984 -1.1726784 0.73156476 -1.2372148
0002f0 d1 6c 8e 3f 18 7e 4b bf 49 81 41 bf a9 3e 7a bf
       1.1126958 -0.7948928 -0.755879 -0.9775186
000300 4d 19 56 be 7b 95 1b be 93 7f 3e bf 4e 6b 22 3d
       -0.20908089 -0.15193741 -0.7441341 0.039653115
000310 7d 39 39 bf f5 c7 f6 be ad a0 17 be 9e 46 a3 3e
       -0.72353345 -0.4819943 -0.14807387 0.31889814
000320 07 91 0a 3e 8e 3f ba be 8c 52 68 3d 72 6e 4e 3d
       0.13531886 -0.36376613 0.056719348 0.050398298
000330 16 a4 d6 3e 2a be 76 3f d3 8a a3 bf 02 e9 d1 be
       0.41922063 0.9638392 -1.2776741 -0.40998083
000340 8d da 81 3d 5b 8b e5 be c7 c0 35 bf 18 73 07 3f
       0.063405134 -0.44832882 -0.7099728 0.52909994
000350 f6 68 91 3e 7b 52 a4 bf b1 08 ca be 40 96 93 3e
       0.2840039 -1.2837671 -0.39459756 0.2882557
000360 95 c4 60 be 24 99 91 bf 00 82 85 3f db 09 d3 be
       -0.2194999 -1.137486 1.0430298 -0.41218457
000370 d0 92 67 be 83 7a 83 3f af c7 ca 3f cb f2 24 3f
       -0.22614598 1.0271763 1.5842189 0.6443297
000380 27 a6 64 bf 50 b2 37 3f 74 2e 98 3e ae 33 a7 bd
       -0.8931603 0.7175646 0.2972294 -0.08164154
000390 08 39 f5 be 4d 84 9c be 42 3e cc be a8 27 8b bf
       -0.47895074 -0.30569687 -0.3989125 -1.0871477
0003a0 a7 a7 65 be 59 e8 8c 3f 9b e8 99 bf 21 89 70 be
       -0.22427236 1.1008407 -1.202411 -0.2348981
0003b0 bb 51 20 bf 3f 1d 00 3e 76 0e 50 bf 68 cf 1d bf
       -0.6262471 0.12511156 -0.81272066 -0.616446
0003c0 51 d2 fa 3e 7c 53 3b bf d3 a1 c1 be 41 47 40 3f
       0.48988584 -0.7317426 -0.37818775 0.75108725
0003d0 64 94 55 be 46 5f f5 3e 1c b1 3c bf a2 b9 a5 bf
       -0.20857388 0.4792425 -0.7370775 -1.2947276
0003e0 b6 97 19 3e cc fd b7 bd 30 30 63 bf 16 ec 8f be
       0.1499928 -0.08983955 -0.88745403 -0.28109807
0003f0 5d 85 48 bf 90 2f 5b 3e c4 34 98 3e 89 7e 5e 3f
       -0.78328496 0.21404862 0.29727757 0.8691183

mobilenet/dw_conv_11/pointwise_convolution/Conv2D_bias f4 [102]
000000 e2 1c 9c 3c 73 a7 93 be 0a 22 c9 be 6e ec 0f 3d
       0.019056741 -0.2883869 -0.39283782 0.035137586
000010 67 44 bf be b4 a2 95 3e bf 89 f8 3d 96 b6 5f bd
       -0.37356874 0.29225695 0.12135648 -0.054617487
000020 a2 7b a5 bd 82 0b ff be 69 f1 a7 be d8 94 94 bb
       -0.08080222 -0.49813467 -0.3280137 -0.004534345
000030 fa c4 47 3e cc 50 ef be e0 2c 87 be a7 dd 6f 3e
       0.19508734 -0.4674133 -0.26401424 0.23424397
000040 2f cf 24 3d 39 c2 98 be b1 ea c5 bd ba 7a 01 3f
       0.04023665 -0.2983568 -0.096639045 0.5057789
000050 fa 8a 90 be c5 24 1f be 8c 80 1f bd 50 47 a7 3e
       -0.2823103 -0.1554137 -0.03894095 0.32671595
000060 c8 0d 98 be 4b 6d 52 be ee f1 04 3e 87 49 bf 3e
       -0.29698014 -0.20549504 0.12982914 0.37360784
000070 8e 38 d2 3e a3 e5 b9 bd c4 cf ad 3c 6d 0d 0b be
       0.41058773 -0.09077003 0.021217234 -0.1357934
000080 c8 e8 64 be 2a 97 87 3d 98 9a 02 3f c8 4b 84 3d
       -0.22354424 0.06620629 0.5101714 0.064597666
000090 2d 4f c3 3d 68 60 85 3e e8 89 fc bc 20 f9 ec bc
       0.09536586 0.26050115 -0.030827478 -0.028927386
0000a0 62 43 ab be ce 1b 16 bd be e0 45 be 50 43 23 3e
       -0.33449847 -0.03664761 -0.19324014 0.15943646
0000b0 d0 b4 8c be b1 bf be 3d d0 74 1b be 10 41 9a 3e
       -0.274817 0.09313906 -0.15181279 0.30127764
0000c0 bc 19 79 be 8a 18 21 be 8c 47 d4 3d 10 a2 bc 3c
       -0.24326223 -0.15732017 0.10365209 0.023026496
0000d0 5b 2b 8e 3d a8 b5 0a 3e 18 d3 84 be 71 0b d2 bd
       0.06941863 0.13545859 -0.25942302 -0.102560885
0000e0 9b d6 7e 3e 78 7c b6 3b c3 7f 95 3e 7b f6 81 be
       0.24886553 0.005569037 0.29199037 -0.25383362
0000f0 7e 4c 9b 3d 70 8b 9e 3e 4b 23 69 3d a1 a9 6d 3e
       0.07582949 0.30965757 0.056918424 0.2320924
000100 2e a1 68 3e 1c 11 ea bd 3f 01 f2 3d 0a ee 0d 3c
       0.22717735 -0.114290446 0.11816644 0.00866271
000110 4e f3 1d 3f 5a dc eb bd 93 96 01 3e 76 af 21 3e
       0.6169938 -0.11516638 0.12655096 0.1578959
000120 af e4 d3 3d 64 1f 85 bd 56 39 45 be 4e a6 7d 3d
       0.10346352 -0.06500128 -0.19260153 0.06192618
000130 8c 21 a7 be 71 e6 10 be df 62 4d 3e e8 ce 39 bc
       -0.32642782 -0.14150406 0.20057248 -0.011340834
000140 f6 74 a8 3d 18 ce d8 be e6 97 50 be 52 62 4e 3e
       0.082254335 -0.42344737 -0.20370445 0.20154694
000150 44 b7 f0 bd e5 53 68 bc f0 5e d9 bd 10 88 04 3f
       -0.11753705 -0.014180158 -0.10613811 0.51770115
000160 0b 56 93 3d e3 fe 8c bd fb 84 1c 3d b7 5c 04 3e
       0.07194146 -0.06884553 0.038212758 0.12925993
000170 a9 18 23 be 73 d9 31 be f4 3a 5d be 6d 65 d1 be
       -0.15927376 -0.17368107 -0.2160452 -0.40897694
000180 93 f7 fe bd b6 89 61 be 90 28 b1 ba bf ee da 3d
       -0.12449565 -0.22025189 -0.0013516117 0.106900685
000190 1c fc d9 bd ce 42 4e 3e
       -0.10643789 0.20142671

mobilenet/dw_conv_11/pointwise_convolution/kernel f4 [102, 1, 1, 102]
000000 be bc 97 bd 23 7b 78 be 1e d8 41 bd 50 7f d7 bb
       -0.074090466 -0.24265723 -0.047325246 -0.006576456
000010 a9 eb 45 bd de be a7 bc 1c 55 54 bd 9f 77 c1 bd
       -0.048320446 -0.020476755 -0.05183898 -0.09446644
000020 b4 ba 96 3e 16 18 bd 3b fa 4c ba 3c 37 38 11 3c
       0.29439318 0.0057706935 0.022741783 0.0088635
000030 b8 f0 f8 bc 61 69 a5 3c 0c 9c 61 bd c0 a3 63 bc
       -0.030388221 0.02019185 -0.05508046 -0.0138940215
000040 77 aa e6 bc 7d d5 ac bd cc ac cb bb a6 fd c9 bd
       -0.028157456 -0.08439157 -0.0062156674 -0.09862833
000050 38 e8 d2 bc 87 4a f3 3d e8 80 04 be 92 41 12 be
       -0.025745496 0.11879449 -0.12939799 -0.14282826
000060 5b 72 b4 bc c8 12 cd bb ca a0 21 3d a5 fe f8 3c
       -0.022027185 -0.0062583424 0.03945998 0.030394861
000070 f3 16 86 3b df f5 d2 ba 4e f1 22 bd 5b b4 84 3e
       0.004092091 -0.0016095004 -0.039780907 0.2591885
000080 2e 88 0a 3d 09 ac 6d bc 5d 25 bf 3d 4b 33 ac bd
       0.033821277 -0.014506348 0.09333298 -0.08408221
000090 45 48 b4 3c 7b 74 73 3c 84 1f 18 be 02 d4 03 bc
       0.022007117 0.014859314 -0.14855772 -0.008046152
0000a0 e8 4d 1d bb 68 b5 12 bc 4e fc cd bb 7f 5f 8c 3c
       -0.0024002735 -0.008954383 -0.0062861806 0.01713538
0000b0 21 44 f9 3c c0 90 27 bd 51 6b 92 bc be e5 bc 3a
       0.030427994 -0.04090953 -0.017873438 0.001441173
0000c0 42 84 3d bc 2d 53 ff bb 5c be c7 bd bf e1 17 bd
       -0.011567177 -0.0077918977 -0.09753105 -0.037080523
0000d0 4b 15 04 3c ba 18 58 bb 95 b4 9f 3d ff 84 85 bd
       0.008061717 -0.0032973723 0.07798115 -0.065195076
0000e0 5f 11 dd bc 52 01 ba 3a 2f ff 20 be 90 e0 7f bd
       -0.026985822 0.0014191067 -0.15722345 -0.06247002
0000f0 00 ff 57 3d b7 32 bf 3c 5d 1f 21 3e f7 75 92 3c
       0.05273342 0.023339612 0.1573462 0.017878516
000100 f6 f6 5d bb 24 a4 b4 bd d7 27 31 bb a5 9d d7 bd
       -0.0033869124 -0.0882037 -0.0027031803 -0.10528115
000110 6a 23 85 bd ac dc 19 b8 bd 76 4c 3c b2 e3 fd 3b
       -0.06500895 -3.668356e-05 0.012479481 0.0077480907
000120 1c d6 be bd 1e e9 ea bc 77 f6 95 bc e5 7e 2d 3c
       -0.09318182 -0.028675612 -0.018306 0.010589336
000130 7a df f5 3c b8 32 2f bd c8 bc fb bc 8a b1 37 3b
       0.030013788 -0.04277298 -0.030729666 0.0028029406
000140 1e c5 4a 3e 9f 01 71 bd a2 88 9c bd d1 d0 b8 3c
       0.19801757 -0.058839437 -0.07643248 0.022560509
000150 92 58 32 bd 0b d1 a9 3a a4 25 d8 3c 3f eb ea bc
       -0.0435415 0.0012955976 0.026385136 -0.028676627
000160 84 85 d5 bc 99 34 68 bc 29 8d 16 3e c8 f3 e1 bd
       -0.026064642 -0.0141726965 0.14702286 -0.11032826
000170 a9 64 0f bd 97 2a 7d 3c 70 f7 8a bc 26 e0 2b bc
       -0.035008106 0.015452049 -0.01696369 -0.010490453
000180 f5 35 05 3d 41 7b c8 3e 1e 46 b8 3e 93 83 64 3e
       0.03252216 0.39156535 0.35990995 0.22315817
000190 fc d6 23 3e 03 53 06 3d c9 cf ff 3c 69 ce 26 bd
       0.15999979 0.03279401 0.03122701 -0.04072419
0001a0 7b 48 9b 3a 89 fd 6b bd 05 b4 1d 3e 6a 8d e2 3d
       0.0011847162 -0.057614837 0.15400703 0.11062129
0001b0 ea e3 e5 3b c9 29 5a 3d c3 cd a4 bc 26 f4 b2 3b
       0.007015695 0.053262506 -0.020117646 0.0054612337
0001c0 b8 cb 02 3d 6a 2a 63 3c ac 21 98 bc 10 5d 52 3c
       0.031932563 0.013865093 -0.018570744 0.012839571
0001d0 5b c2 d6 3d 53 64 1a bd f1 cc ed 3c fe 41 66 3d
       0.10486289 -0.037693333 0.029028388 0.05621528
0001e0 25 a9 61 bd 7f 2d 23 3c 29 1e 0a bd 54 34 d5 ba
       -0.05509295 0.009959578 -0.03372017 -0.0016266205
0001f0 d1 61 d7 bd 2c c5 0a bd 07 64 de 3c c3 1a 01 bc
       -0.10516704 -0.033879444 0.027147306 -0.007879916
000200 3c ad 83 bd 52 ea cd 3d d2 63 27 bb 31 c0 57 bd
       -0.06429526 0.10054459 -0.0025541675 -0.052673522
000210 09 52 06 bd 1e 35 f5 3c 8d 9a 71 bd d9 4c 88 3d
       -0.03279308 0.029932555 -0.05898528 0.066552825
000220 94 09 36 3d c7 3b 7f ba 7b 96 1c 3e 85 88 10 3c
       0.04444273 -0.00097363855 0.15291779 0.008821611
000230 f1 d9 e2 bd 81 12 95 bd ea b1 1e 3e d9 83 4b 3d
       -0.11076725 -0.0727892 0.15497556 0.049686287
000240 8e 8e b2 3d 94 9c bf bd 7d 9b 47 bc 97 78 40 3e
       0.087185964 -0.09356037 -0.012183067 0.18796001
000250 25 e6 16 bc 5f 22 88 3d 08 e1 ce 3c 15 cb 2f 3e
       -0.009210144 0.06647181 0.025253788 0.17167313
000260 13 cd eb 3c d7 3b b6 3d 2f 7c 52 bd 33 28 c0 3c
       0.02878431 0.08898132 -0.051387962 0.023456668
000270 19 ed f8 3d e3 23 2c bd 30 8d 29 bb 9d 51 da 3d
       0.12154598 -0.04202641 -0.0025871508 0.10660098
000280 de 8e ac 3c fb 64 80 be 34 a2 8f 3d d2 75 05 3d
       0.021064218 -0.25077042 0.0701336 0.032583065
000290 82 5a 4e 3d ab 2f 87 3b 00 62 68 3d 2b 6c dc 3c
       0.050379284 0.0041255555 0.056734085 0.026907047
0002a0 69 b6 f8 bc 6e 76 39 3c 82 dd c1 3c a4 32 23 bc
       -0.030360417 0.01131974 0.023665193 -0.009960804
0002b0 9f a1 88 bc 72 20 c8 bd 61 ae ba bc 0c 9b 28 3c
       -0.01667863 -0.097718135 -0.022788228 0.010290872
0002c0 b2 ab 31 3d cf af ad 3b 54 b3 8e 3c 45 6c cd bd
       0.043376632 0.005300499 0.017419495 -0.100304164
0002d0 10 db 65 3d f9 49 02 bc 92 cd 6a 3e df a8 45 bd
       0.056117117 -0.007952207 0.22929981 -0.04825675
0002e0 7e e8 80 3c 65 bc 93 3d 56 b8 bc bd ee 5d cc bd
       0.01573586 0.07213668 -0.09214847 -0.09978853
0002f0 bf 25 bb bd 5b 44 72 3d cc e5 8a bd 42 b7 93 bd
       -0.09138059 0.05914722 -0.067821115 -0.07212688
000300 c2 23 dd 3d 7a cb 15 3c d7 92 ac bc b0 3f e6 3c
       0.10797836 0.009142751 -0.021066112 0.02810654
000310 b6 1a 27 be 1e 07 07 bd c7 64 b7 3d 96 5e c2 bd
       -0.16318783 -0.03296577 0.08954769 -0.09490697
000320 80 91 b9 bd f1 5e 89 3d de 94 99 3d 24 cc 22 3d
       -0.09060955 0.06707562 0.07499097 0.039745465
000330 1d af 50 bd 60 38 8a 3e aa 1e e6 3a 6e 28 21 3d
       -0.05094825 0.26996136 0.0017556746 0.039345197
000340 47 8a 0a be b9 95 47 3d 50 c3 23 bc cb 1a 8d bd
       -0.13529311 0.04872677 -0.009995297 -0.06889876
000350 9d 3d ff bb 23 55 bf 3c f4 59 15 bd 93 d7 65 bb
       -0.0077893273 0.023356026 -0.03646274 -0.003507112
000360 85 69 59 bd e4 df e0 3b 1d 9c 8b bc 5e f9 d7 bb
       -0.053079147 0.0068626273 -0.017042214 -0.006591006
000370 1d fe cf 3d a8 54 b0 bc f5 7a 1b 3d fd 73 39 3d
       0.1015589 -0.021524742 0.037959058 0.04527663
000380 41 6b 99 bb 3b 9e 14 be fb 48 ef 3c 15 40 03 be
       -0.004681975 -0.14513485 0.029209604 -0.12817414
000390 9b da 7e 3d b0 3d 32 3b b4 43 03 3e 74 f4 ff 3c
       0.062220197 0.0027197413 0.12818795 0.031244494
0003a0 5d db 17 bd 4e 86 4a 3e f2 4d 41 bd a8 11 ca 3e
       -0.037074436 0.19777796 -0.047193475 0.39466596
0003b0 0f 5a 05 bd 91 1a 9e bc 83 75 de 3d 58 14 d6 bc
       -0.03255659 -0.019299777 0.10862257 -0.026132748
0003c0 c6 ad 48 3d 76 02 84 3b ef df 5d 3e 95 90 3f bc
       0.04899385 0.0040286137 0.21667455 -0.011692186
0003d0 d4 52 38 bd 28 cc 4d be 75 1f 84 3b 1c 52 35 3d
       -0.045000866 -0.2009741 0.0040320703 0.04426776
0003e0 c1 89 c5 bd 9a 64 0c 3d 87 13 04 bc be 4f 37 3d
       -0.09645415 0.03427563 -0.008061296 0.044753782
0003f0 28 b1 65 bc 90 48 96 3c c2 cd 13 be c0 bc 36 bd
       -0.014019288 0.018345147 -0.14433959 -0.0446136

mobilenet/dw_conv_12/dw_conv2d/sep_conv_bias f4 [102]
000000 31 16 12 bf b5 8d 2a 3e 9b eb c6 be 14 0d e1 3e
       -0.5706511 0.1665562 -0.38851628 0.4395529
000010 c9 8f 77 be 19 b1 e9 3e 58 02 59 bd b0 fc 26 3b
       -0.24175943 0.45642927 -0.05298075 0.0025480203
000020 38 a8 d6 be 66 29 0c bf 78 82 f3 be 41 90 f9 3e
       -0.41925216 -0.5475067 -0.47560477 0.4874287
000030 5a 12 83 3f 16 d8 19 bf 56 25 24 3e d2 85 79 3f
       1.0239975 -0.60095346 0.16029868 0.9746982
000040 dd 83 21 bf 81 48 5e 3f f2 af 1b bd d8 20 40 3f
       -0.6309183 0.8682938 -0.03800959 0.75050116
000050 55 5e cd be 03 a0 18 3f 68 de 95 3d 97 3d 93 bf
       -0.40111032 0.5961916 0.07317811 -1.1503171
000060 76 c2 29 bf 65 00 50 3f 46 94 2a bd 43 3b 72 3f
       -0.6631235 0.812506 -0.04164531 0.94621676
000070 56 61 68 3f b5 62 dc bc 63 54 f6 be 8a 39 dd be
       0.9077352 -0.026902536 -0.48111257 -0.4320796
000080 ea 61 a0 be 5b e4 d4 be 35 04 41 be 79 17 4a 3f
       -0.31324703 -0.4158047 -0.18849261 0.78942066
000090 f2 70 83 bf d9 03 33 3f 61 56 69 3f f8 b7 03 3f
       -1.0268843 0.69927746 0.9114743 0.5145259
0000a0 c9 84 da bd bd f8 6b 3f fb 46 81 3e aa 7a d4 be
       -0.10669858 0.9217642 0.25249466 -0.41499835
0000b0 88 27 d1 be b7 d5 5c 3f 30 5b a0 ba a0 7d 84 3f
       -0.40850472 0.862636 -0.0012234207 1.0350838
0000c0 48 6b 8c 3f 9d c5 62 3e 04 9e fc be e5 9d 8f 3e
       1.097024 0.22145696 -0.49339306 0.2805015
0000d0 08 be 40 3e d9 55 32 3f b8 39 81 3f 79 4d 55 3f
       0.18822491 0.69662243 1.0095739 0.8332134
0000e0 d8 6d 27 3e db fa e6 be 67 2d 43 3f dc ab fa be
       0.16350496 -0.45113263 0.76241153 -0.48959243
0000f0 74 25 75 3f f2 b4 50 3f 0f 8b 84 3e 83 ae 83 3f
       0.95760274 0.815261 0.25887343 1.0287632
000100 9d bb c5 3c 8d dc ba 3e c3 47 b0 3e b4 23 07 bc
       0.024137313 0.36496392 0.3442975 -0.008248258
000110 74 27 4b 3f 00 80 6f 3f 27 00 60 3f 00 a5 8f 3f
       0.79357076 0.9355469 0.8750023 1.1222229
000120 d5 55 31 bf e4 0b 6c 3f 06 55 7f bd fa 4f 9b be
       -0.69271594 0.92205644 -0.062336944 -0.30334455
000130 7e be 06 bf fd 7e 46 3e 2b 5d c2 be cc 3d bd 3e
       -0.5263442 0.1938438 -0.37961707 0.3696121
000140 c3 58 c8 be b8 51 bf 3e 94 9e 00 bf 43 da bc 3d
       -0.3913022 0.37367034 -0.5024197 0.092213176
000150 df d9 90 be 11 41 de bd c5 f2 ab be df 6b 6c 3e
       -0.28291222 -0.10852254 -0.33583656 0.23088025
000160 17 cd 97 3d f0 83 3d 3f 05 35 d8 be 4c 46 d0 be
       0.07412165 0.74029446 -0.4222795 -0.40678632
000170 cb 48 25 bf f4 ae b0 3c 56 7e cd be 67 53 60 3f
       -0.645642 0.0215678 -0.4013545 0.8762726
000180 59 62 4f be 3a 47 29 be 11 f4 f6 3d 39 93 09 be
       -0.2025236 -0.16531077 0.12058271 -0.13435067
000190 2c 7c 10 be a5 a1 48 bf
       -0.14109868 -0.7837165
