source/assets/cozmo_resources/config/engine/vision/dnn_models/hand_detector_eab4e3e9d256409e8fbb265143aca195.tflite (tflite, 758432 bytes, 57 tensors)

mobilenet/conv_1/conv/Conv2D_bias f4 [6]
0	0xbcd7f4e4	-0.02636189
1	0x3eca70b1	0.39539102
2	0xbbbe3b48	-0.0058054067
3	0xbd94bbce	-0.072623834
4	0x3ea48408	0.32131982
5	0x3ebc58ec	0.36786592

mobilenet/conv_1/conv/kernel f4 [6, 3, 3, 3]
0	0x3cd9d1aa	0.026589233
1	0xbd854621	-0.06507517
2	0xbc2c8fef	-0.010532363
3	0x3d4d0141	0.050050024
4	0xbd8bd804	-0.06828311
5	0xbc02a1e9	-0.007973173
6	0x3ccf7c77	0.025327904
7	0xbd949d19	-0.072565265
8	0xbcaeac59	-0.021322416
9	0xbaf7bfe9	-0.0018901798
10	0xbd939a76	-0.072071955
11	0x3c3573ad	0.011074943
12	0xbc2f7f91	-0.010711567
13	0xbd806f80	-0.06271267
14	0xbbca0f25	-0.006166356
15	0xbd07187d	-0.03298234
16	0xbdbeabc5	-0.09310106
17	0xba4c7e30	-0.0007800786
18	0x3cb9e562	0.022692386
19	0xbc8db2b2	-0.017297123
20	0x3cade2db	0.021226337
21	0xbc4441f7	-0.011978618
22	0xbd85692c	-0.065142006
23	0x3afac798	0.001913297
24	0xbd82a910	-0.06379902
25	0xbdd150ea	-0.10220511
26	0xbd5295a0	-0.051412225
27	0x3eecdf5b	0.46264157
28	0xbe88518e	-0.2662472
29	0x3ce67de2	0.028136197
30	0x3e0e03c7	0.13868628
31	0xbef16f0f	-0.47155043
32	0x3e8ce932	0.27521664
33	0x3dc08eae	0.09402214
34	0xbf031fa5	-0.5122016
35	0x3ede957c	0.43473423
36	0x3e0d8d67	0.13823472
37	0xbf19a53e	-0.60017765
38	0x3e147e36	0.1450127
39	0x3ca72985	0.02040554
40	0xbe83eb43	-0.25765428
41	0x3e599a3b	0.2125024
42	0x3e7070ff	0.23480605
43	0x3c688547	0.014191932
44	0xbe077638	-0.1322869
45	0x3e94ebf3	0.29086265
46	0xbe64a818	-0.22329748
47	0xbe0c42e8	-0.13697398
48	0x3e20cd76	0.15703377
49	0xbe8a9881	-0.27069476
50	0x3e04c7ca	0.12966838
51	0x3e962811	0.29327443
52	0xbe39a8ed	-0.18130846
53	0xbd3dd463	-0.046345126
54	0xbe0c81bb	-0.13721363
55	0x3cc07cc5	0.023496995
56	0x3e5efe91	0.21776797
57	0xbe08e2ad	-0.1336772
58	0x3e654df0	0.22393012
59	0x3e080f15	0.13287003
60	0x3ec34320	0.3813715
61	0x3ddd9a24	0.108204156
62	0x3de72246	0.11285834
63	0x3ea5460f	0.32280013
64	0x3db05950	0.08610785
65	0xbe4f9f13	-0.20275526
66	0xbf144946	-0.57924306
67	0xbe7dce91	-0.2478583
68	0x3af1be32	0.0018443523
69	0xbe91dc7a	-0.28488523
70	0x3c07c4d5	0.0082866745
71	0xbe0efa90	-0.1396277
72	0x3d9af405	0.07566074
73	0xbcc87fc1	-0.02447498
74	0xbd757629	-0.05992714
75	0xbe772b48	-0.24137604
76	0xbd95224f	-0.072819345
77	0x3e0ecae7	0.13944589
78	0x3e2a94a7	0.16658269
79	0x3dd919c7	0.1060062
80	0xbde4d500	-0.11173439
81	0xbdf2e1fc	-0.11859509
82	0xbd23b99b	-0.03997193
83	0x3dc05d47	0.09392791
84	0xbe73b56d	-0.23799677
85	0xbcf47534	-0.029841043
86	0x3d638f61	0.05555666
87	0xbe655b34	-0.22398072
88	0xbc53e6b4	-0.012933422
89	0x3d934cd7	0.071923904
90	0xbe246176	-0.16052803
91	0x3a378d21	0.0007001926
92	0x3e735f79	0.23766889
93	0xbe582cf2	-0.21110895
94	0xbd7b906b	-0.061417025
95	0x3e67ae58	0.226251
96	0xbe678abf	-0.22611521
97	0xbd8b0912	-0.067888394
98	0x3e20c4c8	0.15700066
99	0xbe04c5fa	-0.12966147
100	0xbd7b6547	-0.061375882
101	0x3c5340a4	0.0128938295
102	0xbe0ac004	-0.1354981
103	0xbd1d7605	-0.03844263
104	0x3d8964b2	0.06708659
105	0xbe072b3a	-0.13200083
106	0x3d562168	0.052277952
107	0x3dea7e45	0.11449865
108	0x3dc4228a	0.095769
109	0x3d4172bb	0.047228556
110	0x3da701da	0.0815465
111	0x3de65800	0.112472534
112	0x3cc65a62	0.02421302
113	0x3dc2711b	0.094942294
114	0x3dcbe5bb	0.09955927
115	0xbc84eee6	-0.016227197
116	0x3d29203c	0.041290507
117	0x3d2e78d0	0.042595685
118	0x3cb9bbf9	0.02267264
119	0x3dc7004b	0.09716853
120	0x3cd4f49a	0.025995541
121	0xbc9a427c	-0.01883053
122	0x3d95df6a	0.073180035
123	0x3d839253	0.064243935
124	0xbc0b719d	-0.008510974
125	0x3d2e0acd	0.04249077
126	0xbc1b88df	-0.009493082
127	0xbbf3f820	-0.0074453503
128	0x3d872af2	0.06599988
129	0x3d5238ee	0.051323824
130	0x3cc7876a	0.024356563
131	0x3db6f090	0.089326024
132	0x3d9af4cd	0.07566223
133	0x3caea92c	0.021320902
134	0x3da8159c	0.08207247
135	0x3da3ac8c	0.07991895
136	0x3d827360	0.06369662
137	0xbb87b270	-0.0041411445
138	0x3e05bc0b	0.13060014
139	0x3dfad1b9	0.12247033
140	0x3b693220	0.0035582855
141	0x3df4dfc8	0.119567454
142	0x3dc33428	0.095314324
143	0xbcbd9cc2	-0.023146037
144	0x3c0da461	0.008645148
145	0x3c648c03	0.013949397
146	0xbd218a43	-0.039438497
147	0x3deb6a7b	0.11494919
148	0x3daf34d1	0.08554996
149	0x3c8764df	0.016527591
150	0x3d924452	0.07141937
151	0x3dc99528	0.098429024
152	0x3c4fe561	0.012688966
153	0x3d2268e9	0.03965083
154	0x3cf94790	0.030429631
155	0xbd45608a	-0.04818777
156	0x3dd77185	0.10519699
157	0x3da23b58	0.07921475
158	0xbba5777a	-0.005049643
159	0x3dccdb9d	0.100028254
160	0x3d839973	0.064257525
161	0x3b17ed4c	0.0023182211

mobilenet/dw_conv_1/dw_conv2d/sep_conv_bias f4 [6]
0	0xbf93de3a	-1.1552193
1	0xc03bc556	-2.9339194
2	0x3e0c3f70	0.13696074
3	0xbf6d321e	-0.926546
4	0xbf1340cf	-0.57520765
5	0x3ef7ff3c	0.48436916

mobilenet/dw_conv_1/dw_conv2d/weights f4 [1, 3, 3, 6]
0	0x3f16b750	0.5887346
1	0xc06a25e8	-3.6585636
2	0x40c37145	6.107577
3	0xbe0f3e66	-0.13988647
4	0x3ff9cf64	1.9516416
5	0x3ebffea4	0.37498963
6	0xbda73e6b	-0.08166202
7	0x3fb905a1	1.4454843
8	0xc0ed8565	-7.4225335
9	0xc04a07ff	-3.156738
10	0xbfd550c2	-1.666527
11	0x3f2990d8	0.6623664
12	0x3f92c55f	1.1466483
13	0x40adb53c	5.4283733
14	0xc02a0482	-2.6565251
15	0x400445a6	2.066751
16	0xbf8c498a	-1.0959942
17	0xbf54845c	-0.83014464
18	0x4004ea1d	2.0767891
19	0xbe6c12c5	-0.23054035
20	0xbf377384	-0.7166064
21	0xbf56383a	-0.83679545
22	0xbf9487fb	-1.1603998
23	0x3f9bd641	1.217476
24	0x400a7074	2.1631136
25	0x408607d2	4.1884546
26	0xc0b1a50d	-5.551398
27	0x4004501f	2.0673902
28	0x3fcffae5	1.6248442
29	0xbfaecb55	-1.3655802
30	0x3fcf2722	1.6183817
31	0x3f9ea51a	1.2394135
32	0x41058067	8.343848
33	0xbe346d8e	-0.17619917
34	0x3ff5ac72	1.9193251
35	0xc074df2d	-3.8261216
36	0x3ece1d26	0.40256613
37	0xc027824a	-2.6173272
38	0x40809b1d	4.0189347
39	0x3f820ac6	1.0159538
40	0x3f86685c	1.0500598
41	0x3f4ed698	0.80796194
42	0xbecc164d	-0.39860764
43	0x404fb001	3.2451174
44	0xbff38b5a	-1.9026902
45	0x3fa7c5a0	1.3107185
46	0x3f485009	0.78247124
47	0x3fec5048	1.8462
48	0x3f4d02ef	0.800826
49	0xbf463fb1	-0.77440935
50	0xbff28b0c	-1.8948684
51	0x4088cba7	4.27486
52	0xbe00f0b9	-0.12591828
53	0xbf548c7a	-0.8302685

mobilenet/dw_conv_1/pointwise_convolution/Conv2D_bias f4 [12]
0	0xbcea90de	-0.028633531
1	0xba7c29d0	-0.00096192677
2	0xbd2d0bc4	-0.04224755
3	0x3e49e3e2	0.19715837
4	0xbd88d681	-0.066815384
5	0xbe584f07	-0.21123897
6	0xbc940bb0	-0.01807198
7	0xbdcd5282	-0.10025503
8	0xbe8a75d6	-0.27043027
9	0x3e4a2caa	0.197436
10	0xbda96b2e	-0.08272396
11	0x3de9d66b	0.1141785

mobilenet/dw_conv_1/pointwise_convolution/kernel f4 [12, 1, 1, 6]
0	0xbd62a9ca	-0.055337705
1	0xbdd74c64	-0.10512617
2	0xbd91f4cb	-0.07126769
3	0x3de13cf0	0.10997951
4	0xbcf9b6f4	-0.030482747
5	0x3d75a7ca	0.05997447
6	0xbdee0113	-0.11621299
7	0x3e8b8f6c	0.2725786
8	0xb933347a	-0.0001709032
9	0xbddc4478	-0.10755247
10	0xbd7cf190	-0.06175381
11	0xbc453226	-0.012035882
12	0x3da6e1b2	0.08148517
13	0xbca8cd9d	-0.020605857
14	0xbe14bd19	-0.1452526
15	0x3e4e7180	0.20160484
16	0xbe893b32	-0.26802975
17	0xbdd93864	-0.10606459
18	0xbe568b7f	-0.20951651
19	0x3e6c192a	0.23056474
20	0xbd0a78e1	-0.033806685
21	0xbdcdfdf3	-0.100582026
22	0x3df2c865	0.118546285
23	0xbde41369	-0.11136515
24	0xbd8c39fe	-0.06846999
25	0x3d9b464b	0.07581767
26	0x3d62ce35	0.055372436
27	0x3e873b76	0.26412553
28	0xbe3905de	-0.18068644
29	0x3e55d2f4	0.20881253
30	0x3dcaac07	0.09896093
31	0xb9cc9691	-0.00039022093
32	0x3e96f588	0.294842
33	0x3e065926	0.13119945
34	0x3dcd3767	0.10020333
35	0xbd773576	-0.06035372
36	0x3dbd12fa	0.09232135
37	0xbdeffe90	-0.11718476
38	0x3eca39ed	0.3949732
39	0x3e005ab5	0.12534602
40	0xbd2a4370	-0.04156822
41	0xbd5a2932	-0.053261943
42	0x3ca7a4af	0.02046427
43	0x3e37943e	0.17927644
44	0x3dee9871	0.1165017
45	0xbd81858b	-0.063242994
46	0xbe229f81	-0.15881158
47	0xbd240b68	-0.04004994
48	0x3d1e2cc5	0.038616914
49	0x3d9b726f	0.07590186
50	0xbc2ba9ab	-0.010477464
51	0x3de4e917	0.11177271
52	0xbe4aeca8	-0.1981684
53	0x3e754ebe	0.23955819
54	0xbd0a97aa	-0.033836044
55	0x3e391350	0.18073773
56	0x3c6cb8c8	0.014448352
57	0x3d2f7cb7	0.042843547
58	0xbd317161	-0.043321017
59	0x3d163ab2	0.03667707
60	0x3e6a3798	0.2287277
61	0x3e3668c9	0.1781341
62	0xbd65a62d	-0.05606668
63	0xbe2d17ec	-0.16903657
64	0xbe5cd592	-0.21565846
65	0x3e62aa91	0.22135378
66	0xbd8d7ea8	-0.069089234
67	0xbe079608	-0.13240826
68	0x3c9c1337	0.019052131
69	0xbdc1f017	-0.09469622
70	0x3e17c9da	0.14823094
71	0x3e0045a6	0.12526569

mobilenet/dw_conv_10/dw_conv2d/sep_conv_bias f4 [102]
0	0x3d42132c	0.047381565
1	0xbd23eb3e	-0.040019266
2	0x3d849963	0.06474569
3	0xbefeefc8	-0.49792314
4	0xbe975cb9	-0.2956293
5	0xbdb13713	-0.08653083
6	0x3db8cbea	0.090232685
7	0x3d7fedaa	0.062482513
8	0xbd2a8578	-0.041631192
9	0xbf5fc43c	-0.87408805
10	0xbc1de69b	-0.0096375
11	0xbc2b8bbc	-0.010470327
12	0x3ebe3267	0.3714783
13	0xbc3843f0	-0.011246666
14	0xbb982b55	-0.0046438375
15	0x3c8ceab0	0.017201751
16	0xbe3128d8	-0.17300737
17	0x3f1b386b	0.6063296
18	0x3ce849c1	0.028355481
19	0x3d4d61b4	0.050142005
20	0x3e043ffc	0.12915033
21	0x3e448d7c	0.19194597
22	0x3b8fc85a	0.0043878974
23	0x3eb8189c	0.35956275
24	0xbcdc6f1c	-0.02690845
25	0xbe7a5fd4	-0.24450618
26	0xbe3a6cc1	-0.18205549
27	0xbebb9e3f	-0.3664417
28	0x3bf3cb61	0.007440016
29	0x3f1fd77d	0.62438184
30	0xbcf0f831	-0.029415222
31	0x3c7a2bd7	0.015269241
32	0x3bc8c259	0.0061266837
33	0x3c9861b6	0.01860128
34	0xbdb7c37f	-0.08972835
35	0xbee89005	-0.45422378
36	0xbe052d14	-0.13005477
37	0xbc5bd7f4	-0.013418186
38	0x3d26e82c	0.04074876
39	0xbe129745	-0.14315517
40	0xbe8bcfb0	-0.2730689
41	0x3c14a380	0.009072185
42	0xbdd6ecef	-0.1049441
43	0xbc0b5eb4	-0.008506466
44	0x3d1ce5bc	0.03830503
45	0x3e02c02c	0.1276862
46	0xbdb6242e	-0.088936195
47	0xbaffc8c0	-0.0019514784
48	0x3c021a50	0.007940844
49	0xbd43a21a	-0.047762014
50	0x3cc64f53	0.024207747
51	0x3b0a6891	0.0021119455
52	0xbd89f639	-0.06736416
53	0xbd108f07	-0.03529265
54	0x3d53a20e	0.05166822
55	0xbe5cb45e	-0.2155318
56	0xbd0d9652	-0.034567185
57	0xbe3627ab	-0.1778857
58	0x3db1b9a9	0.0867799
59	0xbca7eb74	-0.020498015
60	0x3f2342f8	0.6377406
61	0xbea26e13	-0.31724605
62	0xb9b243ca	-0.00034001312
63	0x3c26174e	0.010137392
64	0x3c3f65b9	0.011681967
65	0x3c87d612	0.016581569
66	0x3f49ef32	0.7888061
67	0xbd583a4f	-0.052789982
68	0xbd8195ce	-0.06327401
69	0x3e2f4ec8	0.17119896
70	0xbef47835	-0.4774796
71	0xbbcca4f9	-0.006245252
72	0xbe21a1ad	-0.1578433
73	0xbce20f38	-0.027595147
74	0x3edd80f5	0.4326245
75	0xbf032940	-0.5123482
76	0xbdaed563	-0.08536794
77	0x3f4d4399	0.8018127
78	0xbd1426e0	-0.036169887
79	0xbcf506ff	-0.029910563
80	0x3d158632	0.03650493
81	0x3d897374	0.06711474
82	0xbd4a3f1c	-0.049376592
83	0x3c49de76	0.012321105
84	0xbd685baf	-0.05672806
85	0xbd0c74ed	-0.034291197
86	0x3e03a4cd	0.12855835
87	0xbd34f6be	-0.044180624
88	0xbe0ead62	-0.13933328
89	0x3f8ad9fd	1.0847775
90	0x3dab6e35	0.0837063
91	0xbbcd3f6c	-0.006263664
92	0xbe0434a0	-0.129107
93	0xbda3043a	-0.079597905
94	0x3b90bcba	0.004417029
95	0x3d941f55	0.072325386
96	0xbcb2f8fd	-0.021847242
97	0xbe572edf	-0.21013974
98	0x3e4e7dba	0.20165148
99	0xbf5dd137	-0.8664736
100	0xbe101d28	-0.14073622
101	0xbd80b3f8	-0.06284326

mobilenet/dw_conv_10/dw_conv2d/weights f4 [1, 3, 3, 102]
0	0x40c35ea0	6.105301
1	0x40880730	4.2508774
2	0x3fb68dd8	1.4262037
3	0xbdb3997a	-0.08769508
4	0x3fb92148	1.4463282
5	0x3f847142	1.0347064
6	0xbfb02087	-1.3759927
7	0x40d3d04b	6.6191764
8	0xbfc21f44	-1.5165792
9	0x3f161134	0.5862
10	0x4008ef38	2.1396008
11	0x3f34c16e	0.7060765
12	0xbfc79eeb	-1.5595373
13	0x3ff6d483	1.9283603
14	0xc04038f7	-3.0034769
15	0xc0185cba	-2.3806596
16	0xbf3dac64	-0.7409117
17	0xbe1b4b1c	-0.1516537
18	0xc01625d8	-2.3460598
19	0xc085375e	-4.1630087
20	0xc094759f	-4.639358
21	0xc00427c0	-2.0649261
22	0xbf148e80	-0.5802994
23	0x3fc1dda3	1.5145763
24	0xc037d1c5	-2.8721783
25	0x3f94dedf	1.1630515
26	0x40ca3c5c	6.319868
27	0x403055cc	2.7552366
28	0xc030b29c	-2.7609015
29	0x3e33900a	0.17535415
30	0x40784f03	3.8798225
31	0xbff34b7d	-1.9007412
32	0xc082cf65	-4.0878167
33	0xbf3a1bcb	-0.7269866
34	0x3ea95dcf	0.33079383
35	0xbfa0da54	-1.2566628
36	0x403be8a3	2.936074
37	0x40c1a1c1	6.0509953
38	0xbfb68777	-1.426009
39	0xbe31b200	-0.17353058
40	0x4073404e	3.8007998
41	0xbf6d620a	-0.9272772
42	0xbf6427df	-0.8912334
43	0xc045819b	-3.0860355
44	0xc0a8536d	-5.260184
45	0xc0a8bea1	-5.27327
46	0x3f35ccde	0.7101573
47	0xbf29cdf2	-0.6632987
48	0xc014d28c	-2.3253508
49	0xc07d854e	-3.9612613
50	0xbf9d9eb8	-1.2314062
51	0xc013fda8	-2.312357
52	0xc035f841	-2.8432772
53	0x3f7b744a	0.9822432
54	0xbfbc42f6	-1.4707935
55	0xbf56d5dc	-0.83920074
56	0x408f5e60	4.4802704
57	0x4001e9b9	2.0298903
58	0xbf88034c	-1.0626006
59	0x4020e80a	2.5141625
60	0xc09bcc0d	-4.8686585
61	0x3f828480	1.0196686
62	0xbfc51bdd	-1.5399128
63	0x3df144b9	0.11780686
64	0xc009ec2b	-2.1550395
65	0x40520212	3.2813764
66	0xbf973659	-1.181346
67	0x3fc8a5a9	1.5675555
68	0xbffdd071	-1.9829236
69	0x40725149	3.7862113
70	0x40000006	2.0000014
71	0xbf223005	-0.6335452
72	0xbf455273	-0.7707893
73	0x404bb9ba	3.1832108
74	0xbfaf0650	-1.3673801
75	0x3fab491e	1.3381689
76	0x3facb88e	1.3493822
77	0xbfeb5a42	-1.838692
78	0x403e003a	2.9687638
79	0x3e2b5737	0.16732489
80	0xc0440cfb	-3.0632923
81	0xbeac2c09	-0.33627346
82	0xbfcfeaa5	-1.6243483
83	0xc0832da8	-4.0993233
84	0xbf457715	-0.7713483
85	0x3fd16ea5	1.6361891
86	0xc0d6225e	-6.691695
87	0xc003a953	-2.0572097
88	0xbe2bcfeb	-0.16778533
89	0x401100c3	2.2656715
90	0xbde75945	-0.11296324
91	0xc045598d	-3.0835907
92	0x3ff635e5	1.9235197
93	0x400107cc	2.016101
94	0xbec774f8	-0.38956428
95	0xbfebf203	-1.8433231
96	0x4010833f	2.2580106
97	0x4023de90	2.5604591
98	0xc052a7b7	-3.2914865
99	0x3fbf866e	1.49629
100	0x3fe6aaf9	1.8020927
101	0x3f3ec8f3	0.74525374
102	0xc04e3ab9	-3.2223341
103	0x402b12d5	2.6730244
104	0x4019e378	2.4045086
105	0x3f8445e3	1.0333828
106	0xbe858c83	-0.26083764
107	0xc06592e0	-3.5870895
108	0xbf2f6f89	-0.68529564
109	0xc01b44b5	-2.4260685
110	0xbfd2d9d4	-1.6472726
111	0x3f094f12	0.53636277
112	0xbf6f4f37	-0.9348025
113	0x4081c504	4.0552998
114	0x3edfe2a5	0.43727604
115	0xc03ecfa5	-2.9814236
116	0xbfe8e495	-1.8194758
117	0xbf237eb9	-0.6386524
118	0x3f4dd922	0.80409443
119	0x3e813e5e	0.25242895
120	0xc00c68de	-2.1939006
121	0xbe822ceb	-0.25424895
122	0xbf923b74	-1.1424394
123	0x3eef2348	0.46706605
124	0xbf92acaa	-1.1458943
125	0x4002726e	2.0382342
126	0x3f960a72	1.1721938
127	0x3fa82a92	1.3137991
128	0x4033a575	2.8069737
129	0x3fa3dc86	1.2801673
130	0xc0c740cf	-6.226661
131	0x3f258b00	0.6466522
132	0xbf95fada	-1.1717179
133	0x4020b0a3	2.510781
134	0xc096f8d0	-4.7178726
135	0xc01c0f06	-2.438417
136	0x3d2cd45b	0.042194705
137	0x3fbaa5ba	1.4581826
138	0xbf005e96	-0.50144327
139	0x40201041	2.500992
140	0x40150466	2.3283935
141	0xc029a1cb	-2.6505
142	0x4047f061	3.1240466
143	0x3e4ccff4	0.20001203
144	0x3bf15bb6	0.007365669
145	0x3f4a1442	0.7893716
146	0xc06ab947	-3.6675584
147	0xbf308103	-0.68946856
148	0x3f766c9e	0.96259487
149	0x3f8b3b92	1.0877554
150	0x406e0f65	3.7196896
151	0x3ff26814	1.8938012
152	0xbeb89fa0	-0.36059284
153	0xc085e248	-4.183872
154	0xc06fe9d3	-3.7486465
155	0x3ee531ac	0.4476446
156	0xbfe87208	-1.81598
157	0xbf8d4f8a	-1.1039898
158	0xbfc34a9c	-1.5257144
159	0x407d77b3	3.9604309
160	0x3fdc6d83	1.722092
161	0x409f752b	4.9830527
162	0x3ee5248c	0.44754446
163	0x4043fe40	3.0623932
164	0xc0527e6e	-3.2889667
165	0x3efa39d0	0.48872232
166	0xc0a9d779	-5.307553
167	0xc09c6a49	-4.8879743
168	0xc0277262	-2.6163564
169	0x3d92fe65	0.07177428
170	0xbff3b849	-1.9040614
171	0xbeade9e6	-0.33967513
172	0x3e8964f0	0.26834822
173	0x3ffa9bb1	1.9578763
174	0x3e39dd3a	0.18150797
175	0x408b912b	4.3614707
176	0xbfd31605	-1.6491095
177	0x3fc75aae	1.5574548
178	0xbe85f08b	-0.26160082
179	0xbed87912	-0.4227987
180	0x3e6117db	0.21981756
181	0x40cd233c	6.410551
182	0xbe956b79	-0.29183558
183	0xbfa8cf81	-1.3188325
184	0xc08ca562	-4.3951883
185	0xc0773e81	-3.86319
186	0x3f5ae390	0.8550348
187	0xc00f421e	-2.2384105
188	0xc0946560	-4.637375
189	0xbfe3b9fb	-1.7791132
190	0x3f547f9a	0.83007205
191	0xbed0b5bd	-0.40763655
192	0xbfbef04c	-1.4917083
193	0x3f11387c	0.56726813
194	0xbfac7aeb	-1.3475012
195	0x40707fc0	3.7577972
196	0x4021f78e	2.5307345
197	0xc0017105	-2.0225232
198	0xbeef1879	-0.4669836
199	0x4017d5f2	2.3724332
200	0xc05a3411	-3.409428
201	0x3ed62aa8	0.4182942
202	0x3f5d1bea	0.8637072
203	0xc0900855	-4.501017
204	0x3f3fa69e	0.7486361
205	0xbdb2a63a	-0.087231115
206	0x406a0096	3.6562858
207	0x3fc60831	1.547125
208	0xc00d1ed5	-2.2050068
209	0x3f37157c	0.7151716
210	0xbf9aa6de	-1.2082174
211	0x3f91b02b	1.1381887
212	0x3e6a891b	0.22903864
213	0x3fa0d4fa	1.2564995
214	0xbf4b14a5	-0.79328376
215	0xbec6ab99	-0.38802794
216	0x405a2ccc	3.4089842
217	0xbf8b9ca3	-1.0907177
218	0x3f5d28d1	0.86390406
219	0xc0739978	-3.806242
220	0xbf6fdf0d	-0.93699723
221	0xbfdd5721	-1.7292215
222	0x402a9e9e	2.6659312
223	0xc018d9e2	-2.3882985
224	0x40135adc	2.3024206
225	0x3fe2e047	1.7724694
226	0xc0659b01	-3.5875857
227	0xbff1db3d	-1.8895031
228	0xbf6f366c	-0.93442416
229	0x40596a25	3.3971035
230	0x3eecfdb7	0.4628732
231	0xbfa5d7e0	-1.2956505
232	0x3d309a82	0.0431161
233	0xbe590e37	-0.21196829
234	0x40b0b923	5.5225997
235	0xbeef862e	-0.46782058
236	0x3ea66f64	0.3250686
237	0xc0849f58	-4.144451
238	0xc0491d84	-3.1424265
239	0xbecd397f	-0.4008293
240	0x40827155	4.0763345
241	0x40b20d37	5.564113
242	0x4011e03e	2.2793117
243	0x3f56fc1f	0.83978456
244	0xc017a2af	-2.3693044
245	0x3f1e5aa4	0.61857057
246	0x3ce826b2	0.028338764
247	0x3ffb7e5d	1.9647938
248	0xc030ab7e	-2.760467
249	0x3eb85675	0.3600346
250	0x4062e78a	3.545382
251	0xbff9dd47	-1.9520653
252	0xc0346b0e	-2.819034
253	0xbf67288c	-0.90296245
254	0xc0823356	-4.0687666
255	0xc0476873	-3.11575

mobilenet/dw_conv_10/pointwise_convolution/Conv2D_bias f4 [102]
0	0x3e50b490	0.20381379
1	0x3e213f32	0.15746763
2	0xbbedce56	-0.007257263
3	0xbcaec65c	-0.02133482
4	0xbbce783c	-0.006300954
5	0xbc8b385d	-0.01699465
6	0xbc70dd7e	-0.014701245
7	0xbe39c7cf	-0.18142627
8	0x3d9a8fa4	0.075469285
9	0x3bd5f9cd	0.0065300227
10	0xbcbb7589	-0.022883194
11	0x3e725ab9	0.2366742
12	0x3e58d83e	0.2117624
13	0xbbeb9656	-0.0071895523
14	0xbcd3576b	-0.02579852
15	0xbb25492b	-0.0025220613
16	0xbbf51ea1	-0.007480458
17	0xbb3767b9	-0.0027985408
18	0xbb41bb30	-0.0029561035
19	0xbb258175	-0.0025254164
20	0x3b640e27	0.0034798475
21	0x3cf4e370	0.029893607
22	0x3d5601de	0.052247874
23	0xbcff49a0	-0.031163037
24	0xba8c3e82	-0.0010699781
25	0xbd042d7a	-0.032269932
26	0x3cad0f88	0.02112557
27	0xbb8aa139	-0.004230645
28	0xba7eaa95	-0.000971475
29	0xbbaa490b	-0.0051966957
30	0xba09ef34	-0.00052617793
31	0x3af2c06b	0.001852048
32	0xbbac1894	-0.0052519534
33	0xbc374753	-0.011186439
34	0xbc1ba226	-0.009499108
35	0xbd1fe1dd	-0.03903376
36	0xbbaebc78	-0.005332526
37	0xbc27d247	-0.010243005
38	0x3e963a26	0.2934124
39	0xba5b902b	-0.000837567
40	0xbc0cab54	-0.00858577
41	0x3d8b5d06	0.06804852
42	0xbc43ba71	-0.011946307
43	0xbd944392	-0.072394505
44	0xbd0b8c6c	-0.034069464
45	0xb9b0b3a5	-0.00033703182
46	0xbb314731	-0.002705049
47	0xba0b4215	-0.0005312276
48	0xbba7d2c9	-0.005121563
49	0xbb16f086	-0.0023031547
50	0x3de24a64	0.11049345
51	0xbc8b85c2	-0.017031554
52	0xbb8a4427	-0.00421955
53	0xbb0f4963	-0.002186381
54	0x3b83cfcb	0.0040225736
55	0xbb47dc92	-0.003049646
56	0xbd33d0bf	-0.043900248
57	0x3a267618	0.0006349995
58	0xbc004adb	-0.007830347
59	0x3e53fd67	0.20702134
60	0xb995eaf3	-0.00028594545
61	0xbbce89be	-0.0063030412
62	0xbbd187ef	-0.0063943784
63	0x3dc46f65	0.09591559
64	0xbc2a898b	-0.010408769
65	0xbc335fe2	-0.010948153
66	0x3e520c87	0.20512591
67	0x3e203e5b	0.15648787
68	0xbb7e2b78	-0.0038783234
69	0x3ac94ea1	0.0015358516
70	0x3d26ec45	0.040752668
71	0x3a897139	0.0010486013
72	0xbca4f375	-0.02013562
73	0xbc58ec48	-0.013239928
74	0xbb50165e	-0.0031751613
75	0xbd0947d0	-0.03351575
76	0x3c00302c	0.007823985
77	0xbd04ac79	-0.032391045
78	0x3b503334	0.00317688
79	0x3dd1c7fc	0.10243222
80	0x3cf8e5b6	0.030382972
81	0x3c6a0ae6	0.014284825
82	0x3cef429c	0.029206567
83	0xbd7c2fdc	-0.06156908
84	0xbd3cefa0	-0.04612696
85	0xbca5d974	-0.020245291
86	0xbbbb0f36	-0.0057086004
87	0x3b1eedb2	0.0024250564
88	0xbb58488e	-0.003300223
89	0xbc426bd3	-0.011866528
90	0xba6a6ed8	-0.00089429086
91	0xbbf3bc9e	-0.0074382564
92	0xbb27fa9d	-0.0025631555
93	0xbb420b91	-0.0029608945
94	0x3d1582a6	0.03650155
95	0xbd81b062	-0.063324705
96	0xbbc85400	-0.006113529
97	0xbd12036b	-0.03564779
98	0xbd1e49b8	-0.038644522
99	0xbb7d67fb	-0.0038666714
100	0xbc0cb1d6	-0.008587321
101	0x3c9234b2	0.017847393

mobilenet/dw_conv_10/pointwise_convolution/kernel f4 [102, 1, 1, 102]
0	0xbd85ee79	-0.06539626
1	0x86b97d3f	-6.97733e-35
2	0xbd37c86c	-0.04486887
3	0xbdd5598c	-0.1041747
4	0xbd2c4137	-0.04205438
5	0xbc23aea6	-0.00999037
6	0xbe138a3a	-0.14408198
7	0x321719fa	8.795263e-09
8	0xbd4714a8	-0.048603684
9	0xbda672c3	-0.08127358
10	0x86b9565d	-6.9716165e-35
11	0x86b98a69	-6.979264e-35
12	0xbd3b60fc	-0.04574679
13	0x06b94bc8	6.9700616e-35
14	0xaed45c16	-9.6570016e-11
15	0x318c444e	4.0823016e-09
16	0xbdea36c2	-0.114362255
17	0x3df2d323	0.118566774
18	0xbdcb3a29	-0.099232025
19	0x3112d886	2.1368876e-09
20	0xbc585105	-0.01320291
21	0x3d066988	0.032815486
22	0xb0808232	-9.35023e-10
23	0xbc8c20ad	-0.017105425
24	0x86b9724d	-6.9757215e-35
25	0xbd50b90d	-0.05095773
26	0xbc6643ed	-0.014054281
27	0xbd2c9596	-0.042134844
28	0x3113d709	2.1513549e-09
29	0x3d5dbeb7	0.054136958
30	0x2ff8da44	4.5266024e-10
31	0xb20bccd5	-8.137438e-09
32	0x31eac5b9	6.832775e-09
33	0x2fdd4729	4.0250228e-10
34	0x37730bf2	1.448671e-05
35	0xbd4222a1	-0.047396306
36	0xbb8c0a8b	-0.0042737178
37	0xb67d21b9	-3.7719567e-06
38	0xb191fed1	-4.2490247e-09
39	0x3d519987	0.051171806
40	0xbb3f7224	-0.002921232
41	0x39656b3a	0.00021879087
42	0x3d766240	0.060152292
43	0x210808af	4.6090085e-19
44	0x31a5b625	4.8228395e-09
45	0xba03bf26	-0.0005025737
46	0xbbba3409	-0.0056824726
47	0x86b95529	-6.97144e-35
48	0x2e2be0f3	3.9080694e-11
49	0xb936e68c	-0.00017442758
50	0x31918be7	4.2359605e-09
51	0x31168f25	2.190924e-09
52	0xbab7046d	-0.0013963111
53	0xb1001b1e	-1.8641866e-09
54	0xbd71b1e0	-0.059007525
55	0xbcdb2e8d	-0.026755596
56	0x06b98b1d	6.9793674e-35
57	0xbc83ccba	-0.016088832
58	0xbd1a6012	-0.037689276
59	0x104206a7	3.826488e-29
60	0xbc978e7a	-0.018500555
61	0xbd0f7c02	-0.035030372
62	0xa7ebbd3f	-6.5430784e-15
63	0x32dd8e81	2.579259e-08
64	0xb0a08695	-1.1679783e-09
65	0xb9393ad6	-0.00017664893
66	0xbca01928	-0.019543245
67	0xb506739b	-5.008712e-07
68	0x06b97592	6.976202e-35
69	0xbd3f1655	-0.046652157
70	0xbdd847d1	-0.10560573
71	0x3ab05565	0.0013453184
72	0x3bc37ec2	0.0059660384
73	0x3869a54e	5.570548e-05
74	0x3da9b7b1	0.082869895
75	0x3bb3aea0	0.0054834634
76	0x15df7512	9.025369e-26
77	0xbc51675f	-0.012780993
78	0x06b96b2c	6.974674e-35
79	0x86b98fc1	-6.9800493e-35
80	0x34045b49	1.2326667e-07
81	0x3b1f8ca5	0.0024345305
82	0x86b987cd	-6.9788807e-35
83	0xb008422e	-4.957056e-10
84	0xba4a7037	-0.000772241
85	0x30371f86	6.661981e-10
86	0xbb01e685	-0.0019821238
87	0xaec375df	-8.8885115e-11
88	0x3b6c8a47	0.0036093162
89	0xbd94b07f	-0.072602265
90	0xbd57bdc0	-0.052671194
91	0x29c50f77	8.75124e-14
92	0x39635c67	0.0002168283
93	0x06b9890d	6.9790644e-35
94	0xb0bcffe9	-1.3751534e-09
95	0xbe0e8be9	-0.13920559
96	0xbb946524	-0.0045286585
97	0x3cce4370	0.025178641
98	0xb9580add	-0.00020603412
99	0x3df3e90c	0.119096845
100	0x39b1f2bd	0.00033940925
101	0x06b8bc42	6.948973e-35
102	0xbd34962b	-0.044088524
103	0x06c4607c	7.3868777e-35
104	0xbd2ec036	-0.042663775
105	0xbccf86db	-0.025332859
106	0xbc1979cd	-0.0093674185
107	0xbc7ae7c7	-0.015314049
108	0x3d625ac8	0.055262357
109	0x300aab8e	5.04479e-10
110	0x3d163483	0.036671173
111	0xbd158832	-0.03650684
112	0x86c3f7bf	-7.371488e-35
113	0x06c42813	7.378589e-35
114	0xb9890f1f	-0.00026141942
115	0x06c431bd	7.380009e-35
116	0x91d18e41	-3.3062057e-28
117	0xb0cb284e	-1.4781649e-09
118	0x3d894b29	0.06703789
119	0x3c1c0bbb	0.009524281
120	0xbcf4faed	-0.029904807
121	0xb1c152e8	-5.6264646e-09
122	0x3c0f9318	0.008763097
123	0xbbeb22d5	-0.007175783
124	0xae829f93	-5.9400616e-11
125	0xbc783846	-0.015150135
126	0x86c445d4	-7.382961e-35
127	0xbc3a7344	-0.0113800205
128	0xbd31c05d	-0.043396343
129	0xbb3be7e2	-0.0028672148
130	0x2fe958ea	4.244563e-10
131	0x3c1a92d1	0.009434418
132	0x98016adc	-1.672681e-24
133	0xb101cfef	-1.8890167e-09
134	0xafe8ed33	-4.2369094e-10
135	0x309a8dfa	1.1245327e-09
136	0xb083f416	-9.600878e-10
137	0xbcbb4b12	-0.022862945
138	0xbb44f289	-0.0030051789
139	0xb01e29a5	-5.7539246e-10
140	0x3096c14e	1.0968877e-09
141	0xbd6abc97	-0.05730876
142	0xbd06c959	-0.032906864
143	0x368e60e0	4.2432075e-06
144	0xbcecb153	-0.028893149
145	0x06c4542e	7.3850697e-35
146	0x30a11414	1.1719998e-09
147	0x3c08a765	0.008340691
148	0xbc69c034	-0.014267016
149	0x06c3baf6	7.362556e-35
150	0xaffd3fbc	-4.6065718e-10
151	0x382d2242	4.127832e-05
152	0x30b9403f	1.3478781e-09
153	0xaed94419	-9.880114e-11
154	0xbadb1ea7	-0.0016717509
155	0xa6760e3b	-8.536768e-16
156	0x3da01736	0.07816927
157	0xbd7a488a	-0.061104335
158	0x86c42855	-7.378627e-35
159	0xbc565956	-0.013082823
160	0x3ba9a423	0.0051770373
161	0x86c448be	-7.383389e-35
162	0x3cbac5f4	0.02279947
163	0xbd183b7d	-0.037166107
164	0x86c46560	-7.387596e-35
165	0xae103f98	-3.2798292e-11
166	0xb019c51b	-5.594118e-10
167	0xb6de1b62	-6.6193033e-06
168	0xbb56bf3a	-0.0032767789
169	0xa799e8b7	-4.271834e-15
170	0x06c435d0	7.3806076e-35
171	0xbd3809d2	-0.04493124
172	0x3b861d8b	0.0040928773
173	0x36071790	2.0130283e-06
174	0xbcdcb57c	-0.026942007
175	0x3880965f	6.1315244e-05
176	0x3d322058	0.043487877
177	0xbd749127	-0.05970874
178	0x86c45193	-7.384687e-35
179	0xbc19ed0b	-0.009394894
180	0x06c44277	7.3824667e-35
181	0x06c45034	7.3844854e-35
182	0xb0e4021e	-1.6589785e-09
183	0x3abb01e8	0.0014267536
184	0x86c3de0b	-7.367711e-35
185	0xafd6c555	-3.9066586e-10
186	0xb6bff6b8	-5.7209654e-06
187	0x1df78dae	6.552685e-21
188	0x3b988ada	0.0046552243
189	0x1be46ac4	3.7788432e-22
190	0x3a98ed00	0.0011667311
191	0xbcf2fb45	-0.02966083
192	0xbd311b53	-0.04323895
193	0x06c45a77	7.385993e-35
194	0x3cfa6ed8	0.030570433
195	0x86c441c8	-7.382366e-35
196	0x2d4a02dc	1.14830055e-11
197	0x3ce5c50a	0.028048057
198	0xbbfd0ffd	-0.007722853
199	0xbd28cb61	-0.041209582
200	0x3b426b82	0.002966613
201	0xbcdd8189	-0.027039306
202	0x3bc948f5	0.0061427304
203	0x06c460d3	7.3869276e-35
204	0x1b6b7a40	1.9478246e-22
205	0x86c4d246	-7.4035975e-35
206	0x1fe865d8	9.842431e-20
207	0x98822296	-3.3639135e-24
208	0x279e6b6c	4.3970277e-15
209	0x94064685	-6.779179e-27
210	0x9616cf68	-1.2182349e-25
211	0x06c46baa	7.3885204e-35
212	0x95714269	-4.872195e-26
213	0xaa12e4fb	-1.3046848e-13
214	0x86c4a875	-7.397453e-35
215	0x86c49790	-7.3949707e-35
216	0x95be8d8c	-7.696371e-26
217	0x86c4af6d	-7.398477e-35
218	0x86c4b0ff	-7.398708e-35
219	0x86c4c8e6	-7.40222e-35
220	0x9201c9ed	-4.0954115e-28
221	0x86c4b03e	-7.398597e-35
222	0x8d4881b1	-6.178587e-31
223	0x86c49a3c	-7.395363e-35
224	0x06c4c441	7.4015375e-35
225	0x06c4a6c0	7.397202e-35
226	0x06c4aee3	7.398398e-35
227	0x87cf1649	-3.1158996e-34
228	0x06c4cc57	7.4027256e-35
229	0x1d87aa3c	3.591022e-21
230	0x1a5ea25f	4.6039686e-23
231	0x1a517a95	4.3319208e-23
232	0x06c4a529	7.3969687e-35
233	0x86c4c83e	-7.4021235e-35
234	0x86c4d4c0	-7.4039614e-35
235	0x06c4b420	7.3991676e-35
236	0x06c4c655	7.401843e-35
237	0x86c4cd79	-7.402892e-35
238	0x86c4a0eb	-7.3963453e-35
239	0xaa8230b3	-2.312643e-13
240	0x9d090b59	-1.8137666e-21
241	0xa1143025	-5.020807e-19
242	0x06c4c530	7.4016747e-35
243	0xa9853624	-5.9157784e-14
244	0xa0bccdc4	-3.1984603e-19
245	0x19344157	9.318977e-24
246	0x25b52ffe	3.1431016e-16
247	0x06c4afb9	7.3985207e-35
248	0x06c4a64d	7.397136e-35
249	0x86c4bc58	-7.400375e-35
250	0x17a9058b	1.0922768e-24
251	0x06c4c0ce	7.4010307e-35
252	0x06c4c347	7.401394e-35
253	0x8df8e88b	-1.5340163e-30
254	0x06c4a0cd	7.396328e-35
255	0x06c4805f	7.391563e-35

mobilenet/dw_conv_11/dw_conv2d/sep_conv_bias f4 [102]
0	0xbf28bb7b	-0.6591107
1	0xbe80e29e	-0.25172895
2	0xbaae1982	-0.0013282748
3	0x3cb5f130	0.022209734
4	0xbd24526d	-0.04011767
5	0xbbcd8ec8	-0.0062731244
6	0x3b3ade60	0.0028513893
7	0xbe9c5976	-0.30537003
8	0xbf020c13	-0.50799674
9	0x3d2d598f	0.042321738
10	0x3b844d3b	0.004037527
11	0xbef3cb84	-0.47616208
12	0xbeca8917	-0.39557716
13	0xbb2bf255	-0.002623697
14	0xbca5eaa1	-0.020253481
15	0x3c91c661	0.01779479
16	0x3ca4c76d	0.020114625
17	0x3cb904eb	0.022585353
18	0xbaac14c8	-0.0013128752
19	0x3c69f188	0.014278777
20	0x3cbc9df8	0.023024544
21	0xbdc8f93d	-0.098131634
22	0xbb3859a8	-0.0028129611
23	0xbc009b41	-0.007849515
24	0x3b9b1ca7	0.0047336402
25	0x3f0cf414	0.55059934
26	0xbd89c19a	-0.0672638
27	0xbb169099	-0.002297437
28	0x3b385e53	0.0028132393
29	0x3d2e38f6	0.04253479
30	0xbbd04210	-0.0063555315
31	0xbc95d93c	-0.018292062
32	0x3d24b26e	0.040209226
33	0x3d1ebe2c	0.03875558
34	0xbc881d61	-0.016615571
35	0xbe18a650	-0.14907193
36	0xbb115b56	-0.0022179685
37	0xbce04400	-0.027376175
38	0xbf556168	-0.83351755
39	0xbc1af35b	-0.0094574345
40	0xb92adf17	-0.00016295571
41	0xbe32e0f7	-0.1746863
42	0x3c4f35b7	0.012647084
43	0x3f305fe4	0.6889632
44	0xbc320f25	-0.010867869
45	0xbbcab2fc	-0.0061858874
46	0xba2774cc	-0.00063879485
47	0xbc96adc5	-0.018393407
48	0xbc6817d5	-0.014165838
49	0xbd0fc7e0	-0.035102725
50	0x3d4827ad	0.048865963
51	0xbcb3b5c3	-0.021937257
52	0xbb0d3254	-0.002154489
53	0xbb0ddab9	-0.0021645261
54	0x3ab579a0	0.0013845451
55	0xbcc6d856	-0.024273079
56	0xbd30030a	-0.04297165
57	0xbb87a976	-0.0041400744
58	0x3d47495d	0.04865395
59	0x3da99f8c	0.08282384
60	0xbc188519	-0.009309077
61	0x3c3f71ff	0.011684894
62	0x3d27e36c	0.04098837
63	0x3e114d0a	0.14189544
64	0xbd048466	-0.032352827
65	0x3cfb642f	0.03068742
66	0x3f69a311	0.91264445
67	0xbdc5fe59	-0.096676536
68	0x371374ad	8.7890485e-06
69	0x3c0bad80	0.008525252
70	0xbf223270	-0.6335821
71	0xbd0c7892	-0.034294672
72	0x3b50d700	0.0031866431
73	0xba5c7549	-0.0008409811
74	0x3c1b5bab	0.009482305
75	0x3dd78b38	0.10524601
76	0x3eaed921	0.3415003
77	0xbd10302d	-0.035202194
78	0xbc1c1eaa	-0.009528795
79	0x3f0cb8ca	0.54969466
80	0x3ea6048c	0.32425344
81	0xbce8074c	-0.028323792
82	0xbf158432	-0.5840484
83	0x3f35f816	0.71081674
84	0x3cd635c4	0.026148684
85	0x3f21ccdb	0.6320321
86	0x3bc39161	0.0059682583
87	0x3c204896	0.009782931
88	0xbb7c6447	-0.0038511918
89	0x3d89fd99	0.06737823
90	0x38b8fd7f	8.821021e-05
91	0x3ba14357	0.0049213576
92	0x3ca2e152	0.019882832
93	0x3ccccef5	0.025001029
94	0x3e3a8167	0.18213426
95	0xbe85f316	-0.26162022
96	0x3c8c4688	0.017123476
97	0xbcaa7508	-0.020807758
98	0x3e03b5ed	0.12862368
99	0xbb15d4d2	-0.0022862446
100	0x3ca5cab8	0.020238265
101	0x3dd543bf	0.10413312

mobilenet/dw_conv_11/dw_conv2d/weights f4 [1, 3, 3, 102]
0	0xbf517946	-0.81825674
1	0x405db6a0	3.4642715
2	0xbffd6b77	-1.9798421
3	0xc037df1e	-2.872993
4	0x408df7bf	4.4364924
5	0xbcf05876	-0.029339056
6	0xbf4ec033	-0.8076202
7	0x3f4c177f	0.7972335
8	0x3eda5800	0.42645264
9	0xbe9356c5	-0.28777137
10	0x3ed7fe8d	0.42186394
11	0x40447180	3.0694275
12	0x3f8a4b70	1.0804272
13	0x3c149e11	0.009070889
14	0xbfc99eed	-1.5751625
15	0xc0292ac6	-2.6432357
16	0x3fc9c3e4	1.5762906
17	0xbf43d667	-0.76499027
18	0xbf7b3e06	-0.98141515
19	0x400c195f	2.1890485
20	0x3fb9dcab	1.4520468
21	0x4017a25c	2.3692846
22	0x40411194	3.016698
23	0xc015e914	-2.342351
24	0x3c95e77f	0.018298863
25	0xbfd96955	-1.698527
26	0x3e2da0d5	0.16955884
27	0x3fe9370a	1.8219922
28	0xc048af02	-3.1356816
29	0xbfdac414	-1.7091088
30	0xc028f020	-2.639656
31	0xbf901a8f	-1.1258105
32	0xbfe7704e	-1.8081148
33	0xbf33dfea	-0.7026354
34	0xbf9d9160	-1.230999
35	0xbf82ee09	-1.0228893
36	0x40b22173	5.566583
37	0xc03ea49f	-2.9787977
38	0x40018c13	2.0241745
39	0x3e7caa32	0.246743
40	0xbfb0fe75	-1.3827654
41	0x40532a3c	3.2994528
42	0xbfbf3d30	-1.4940548
43	0xbf8b0dae	-1.086355
44	0xc02f7de2	-2.7420583
45	0xbf370ca0	-0.7150364
46	0xc03a5307	-2.9113176
47	0x3f84bfb5	1.0371004
48	0xbf97954c	-1.1842437
49	0x3fb254d5	1.3932139
50	0xc07a826e	-3.9142108
51	0x3f59d728	0.8509393
52	0xc065100d	-3.5791047
53	0xc01133d7	-2.268789
54	0x40679b4e	3.618854
55	0x402a2da0	2.6590347
56	0xc031c8d8	-2.7778835
57	0x3f943c2f	1.1580867
58	0x3e803ec7	0.25047895
59	0xbfad0a72	-1.3518813
60	0x40221d5e	2.5330424
61	0xbf9b4641	-1.2130815
62	0x3f2cb26d	0.67459756
63	0xc0283563	-2.6282585
64	0xbfa427c1	-1.2824632
65	0xc01d1622	-2.4544759
66	0xbfdeeff7	-1.7416981
67	0xbf5c2239	-0.8598972
68	0xc0550927	-3.3286836
69	0x3e82c61f	0.2554178
70	0x40079ec4	2.1190653
71	0xbec4c591	-0.3843198
72	0x400015b2	2.0013242
73	0x3e9888ad	0.29791775
74	0xbfd358aa	-1.6511433
75	0x3e200f90	0.15630937
76	0x3e1930e2	0.14960054
77	0x3f664fd2	0.89965546
78	0x407f5bd4	3.9899797
79	0xbff86f8d	-1.9409043
80	0x3da37d34	0.07982865
81	0x3e9497fa	0.290222
82	0xbe0afd9a	-0.13573304
83	0x3e54f261	0.20795585
84	0x3f094ce2	0.5363294
85	0x3f0cb840	0.54968643
86	0x3e85bf90	0.26122713
87	0xc0309fb2	-2.759747
88	0xbfc5aebd	-1.5443951
89	0x404ca839	3.1977675
90	0xbf67ed9b	-0.9059693
91	0x3e2c91a2	0.1685243
92	0x40a3e2aa	5.121419
93	0x403aeae5	2.9205868
94	0xbf86156d	-1.0475289
95	0x404c9c3e	3.1970363
96	0x3f9cfe57	1.2265118
97	0xbf03919d	-0.51394063
98	0x3fa791ab	1.3091329
99	0x3f7eede9	0.9958177
100	0x3f652af5	0.8951867
101	0xc0a73d47	-5.22623
102	0xbfc5f4b3	-1.5465301
103	0xbf6ef62a	-0.93344367
104	0xbf92f533	-1.1481079
105	0xc092d5d0	-4.5886
106	0x3fb3029b	1.398517
107	0xc0281812	-2.6264691
108	0xc021437c	-2.519744
109	0x3e868a9e	0.26277632
110	0x3f44e5e0	0.7691326
111	0xc01ddc38	-2.466566
112	0x40863900	4.194458
113	0x40078cb5	2.117963
114	0xbeb0a2a9	-0.344991
115	0xbe2f9cbd	-0.17149635
116	0xbf783239	-0.96951634
117	0x3e48aa70	0.19596267
118	0x40a1860a	5.047612
119	0xc0164741	-2.348099
120	0x3f6450cc	0.89185786
121	0xc022ed66	-2.5457397
122	0xc033ba63	-2.8082511
123	0xbf286914	-0.65785336
124	0xbe94c107	-0.29053518
125	0x40568d05	3.3523571
126	0xbfca0b96	-1.5784786
127	0xbfadd16a	-1.3579533
128	0xc0982151	-4.754067
129	0xc036119c	-2.8448248
130	0xc0835247	-4.1037936
131	0xbf8a00b5	-1.0781466
132	0xbfd25547	-1.6432275
133	0x401b60c2	2.4277806
134	0x3d37775c	0.044791564
135	0x407672ae	3.8507495
136	0x40a161b2	5.0431757
137	0x408018c2	4.003022
138	0xbd0aaf20	-0.03385842
139	0xbec08900	-0.37604523
140	0xc02d57e1	-2.7084887
141	0xbfe04894	-1.7522149
142	0xc05ee9b4	-3.483014
143	0x3edcffcb	0.43163905
144	0xc04520ae	-3.0801196
145	0xbf031423	-0.512026
146	0x4022fb48	2.546587
147	0xc03b4319	-2.9259703
148	0xc05fcbdd	-3.4968178
149	0x3e3911aa	0.18073145
150	0xbfd2e654	-1.647654
151	0x3fd0f18b	1.6323713
152	0x3e9c63db	0.30544934
153	0x3fc951ea	1.5728123
154	0x3fc05d21	1.5028421
155	0xc0a08e49	-5.017369
156	0xbfc373f5	-1.5269762
157	0x3fe8a163	1.8174251
158	0xbdbab7fc	-0.091171235
159	0xbf7261a5	-0.94680244
160	0x409d4373	4.9144835
161	0x402e5bc5	2.7243512
162	0xbf91e98a	-1.1399395
163	0xc0593fce	-3.3945193
164	0xc023f80d	-2.5620148
165	0x3ee40b86	0.44540042
166	0x404f0512	3.2346845
167	0xbf5715a7	-0.84017414
168	0xbf1567dd	-0.5836161
169	0x3e51eddf	0.20500897
170	0xc04cca43	-3.199845
171	0xc023f0c2	-2.5615697
172	0x3f5de933	0.8668396
173	0x3fea8335	1.8321291
174	0xc0000d1a	-2.0007997
175	0x3de77082	0.11300756
176	0xbfb5449b	-1.4161562
177	0xc0002e07	-2.0028093
178	0xbfabafdc	-1.3413043
179	0x3ef1278f	0.47100493
180	0xbe91a719	-0.28447798
181	0xbf55e9f7	-0.8356013
182	0x3de6ef97	0.11276167
183	0x404bd2ea	3.1847482
184	0xbf1479ab	-0.5799815
185	0xc02142a1	-2.5196917
186	0x4042a6c3	3.0414283
187	0xbfd1e932	-1.639929
188	0x40134c25	2.3015225
189	0xc01a8441	-2.4143221
190	0xc042b6d1	-3.0424082
191	0xc02749dc	-2.613883
192	0xbf9b0579	-1.2111045
193	0xbf73e009	-0.95263726
194	0xc028c38d	-2.6369355
195	0x3f28368f	0.6570825
196	0xc041bdc2	-3.027207
197	0xc0014578	-2.019865
198	0xbed2d43a	-0.4117754
199	0x404633eb	3.0969188
200	0x3fada0fa	1.3564751
201	0xc0199637	-2.3997934
202	0x3ebb2f74	0.3655964
203	0xbda6f5c0	-0.08152342
204	0x3f95c9cc	1.1702209
205	0x403121e8	2.7676945
206	0xc0954139	-4.6642118
207	0xbfd46484	-1.6593175
208	0x3d8fe0f1	0.07025326
209	0xbfdefcd0	-1.7420902
210	0xc04dd2bd	-3.2159874
211	0x3fe8a4c6	1.8175285
212	0x3fcf6930	1.6203976
213	0xc036905d	-2.8525612
214	0xbfe4917c	-1.7856898
215	0x3fab9c99	1.3407165
216	0xbe850741	-0.25982097
217	0xc023fc4e	-2.5622745
218	0x40846e9c	4.138502
219	0xbf9a43f7	-1.2051991
220	0xbf974234	-1.1817079
221	0x404c235e	3.1896586
222	0x40848171	4.140801
223	0x3fe92549	1.8214504
224	0xc000028b	-2.0001552
225	0x40276e3c	2.6161032
226	0x3f4bd4de	0.79621685
227	0xbf7df077	-0.99195045
228	0xbfa3cdcd	-1.279718
229	0xbf671ecc	-0.9028137
230	0xbfd95b94	-1.6981072
231	0xc01ed75a	-2.481894
232	0xbf5ae15f	-0.8550014
233	0x4073c0c1	3.8086398
234	0xc05556bc	-3.3334188
235	0xbf8136e0	-1.0094872
236	0xc01f64ea	-2.4905343
237	0x3f0e979b	0.5570008
238	0xc0383703	-2.8783576
239	0xc088b8bd	-4.272551
240	0x40215778	2.5209637
241	0xbfded60d	-1.7409073
242	0xbf84d0c2	-1.0376208
243	0x3f9d586d	1.229261
244	0xbeb65a2c	-0.3561567
245	0x3f3a1606	0.72689855
246	0xc048d485	-3.1379712
247	0xc00a1206	-2.15735
248	0x3f714233	0.94241637
249	0xbde7d8b8	-0.11320633
250	0xc016f71e	-2.3588328
251	0xbf23583b	-0.63806504
252	0xbfc57c17	-1.5428494
253	0x3eb56415	0.3542792
254	0x3fc76e3a	1.5580513
255	0x407d0dd4	3.953969

mobilenet/dw_conv_11/pointwise_convolution/Conv2D_bias f4 [102]
0	0x3f4ce381	0.80034643
1	0x3ba641be	0.005073755
2	0x3e143a40	0.14475346
3	0xbc8346d9	-0.016024994
4	0x3d163f6e	0.036681585
5	0x3c711cb9	0.014716321
6	0xbca33c38	-0.019926175
7	0x3d017ae8	0.031611353
8	0x3c6a5526	0.0143025275
9	0x3cc1c50d	0.023653531
10	0xbdad52ec	-0.08463082
11	0x3def1691	0.11674226
12	0xbd734af4	-0.059397653
13	0xbd8d579f	-0.06901478
14	0x3ccbbf2f	0.024871437
15	0xbd38e08d	-0.045136023
16	0xbd4ff1c8	-0.05076769
17	0xbb614cbe	-0.0034378017
18	0x3cd8e9d8	0.026478693
19	0xbc6bc5b4	-0.014390398
20	0xbd61e15f	-0.05514657
21	0x3ca38787	0.019962085
22	0x3e990f36	0.29894418
23	0xbde08aa5	-0.10963944
24	0xbd49599b	-0.04915772
25	0x3b076992	0.002066229
26	0x3d19a3e6	0.03750982
27	0x3bc4ead8	0.006009441
28	0x3d295bd7	0.04134735
29	0x3cad3ee3	0.02114815
30	0xbd93895c	-0.072039336
31	0x3d213efd	0.03936671
32	0x3cd94e29	0.026526527
33	0x3ce62969	0.028095918
34	0x3cdae8fe	0.026722427
35	0x3c9b7c01	0.018980028
36	0xbe465499	-0.19368209
37	0x3d182272	0.037142225
38	0x3a82f875	0.0009992259
39	0x3d3b6b8b	0.045756858
40	0xbbc71482	-0.006075443
41	0x3a70cd22	0.00091858406
42	0xbb9e17a6	-0.0048245965
43	0x3cb90d3c	0.022589318
44	0x3d4e6a01	0.050394062
45	0x3b0f358e	0.002185199
46	0x3cc75263	0.024331277
47	0x3c8139ba	0.015774596
48	0x3898f559	7.2936244e-05
49	0x3c9a24b5	0.018816331
50	0x3dbda895	0.0926067
51	0x3d4ab4a1	0.049488667
52	0x3a63d3ab	0.0008690904
53	0xbb8b67ab	-0.0042543015
54	0x3c12aec1	0.008952797
55	0xbce2b68e	-0.02767494
56	0x3c6f535d	0.014607278
57	0x3c4fcfee	0.012683852
58	0xbcb907b4	-0.022586681
59	0x3b5c1d5a	0.003358683
60	0x3c5a8e10	0.013339534
61	0x3e02aa54	0.12760288
62	0x3e13c254	0.14429599
63	0x3cb7dc3a	0.02244388
64	0xbd417e1f	-0.04723942
65	0x3de2b422	0.11069514
66	0x3c97481f	0.018467007
67	0xbbd85105	-0.006601455
68	0x3d43f9be	0.047845595
69	0x3c6135fd	0.013745782
70	0xbc49b81a	-0.01231196
71	0xbd7422a8	-0.059603363
72	0xbbe94c3b	-0.007119683
73	0x3b013e33	0.0019720912
74	0x3cc5fa48	0.024167195
75	0x3cb6838d	0.022279525
76	0xbda276c6	-0.079328105
77	0x3dc45535	0.095865645
78	0x3d0a1f75	0.033721406
79	0x3e0dde27	0.13854276
80	0x3c983760	0.018581092
81	0x3c0c22f5	0.008553256
82	0xbd235eeb	-0.039885443
83	0x3ca58d2e	0.020208921
84	0x3befe18a	0.0073205875
85	0x3cd26204	0.025681503
86	0xbd62e2de	-0.05539214
87	0xbcb27489	-0.021784084
88	0x3b385128	0.0028124545
89	0x3b436cfe	0.0029819603
90	0xbe00ce9c	-0.12578815
91	0x3d1469e3	0.036233794
92	0xbd6d7f13	-0.057982516
93	0xbd839e1b	-0.064266406
94	0x3e144623	0.1447988
95	0x3d111e33	0.03542919
96	0xbdde9525	-0.10868291
97	0xbbf478b0	-0.007460676
98	0x3c8e7920	0.017391741
99	0x3df57841	0.11985827
100	0xbdb60676	-0.08887951
101	0xbda8eac2	-0.082479015

mobilenet/dw_conv_11/pointwise_convolution/kernel f4 [102, 1, 1, 102]
0	0xbe11e7ef	-0.14248632
1	0x3d78bdd1	0.060727898
2	0x9e416682	-1.0238533e-20
3	0xb0ed321a	-1.7258259e-09
4	0x1107c281	1.0709558e-28
5	0x06cd0c0b	7.7130125e-35
6	0xb02bad7a	-6.245596e-10
7	0xbd6bfa99	-0.057612035
8	0x3bd05c96	0.0063586934
9	0x38fcbaf4	0.00012051119
10	0x30775f20	8.999326e-10
11	0xbe602111	-0.21887614
12	0xbb7c75c8	-0.0038522352
13	0x06cd271a	7.7169884e-35
14	0x06cd225b	7.716291e-35
15	0x323b4e3a	1.0902619e-08
16	0x31617572	3.280857e-09
17	0x36f7b383	7.3820715e-06
18	0x86cd06e2	-7.712254e-35
19	0x31c9a2fd	5.8683995e-09
20	0xb9689b4c	-0.00022183097
21	0xbaf21005	-0.0018467909
22	0xbc086396	-0.008324524
23	0x9507c77e	-2.7420404e-26
24	0x2e401748	4.3676424e-11
25	0xbd1730f7	-0.03691193
26	0xbc3c9a2b	-0.011511366
27	0x06ccf842	7.7101053e-35
28	0xb080bfd8	-9.367751e-10
29	0x321c2c18	9.090421e-09
30	0x86ccff2f	-7.711123e-35
31	0xb87431a2	-5.8220357e-05
32	0xb2d447d7	-2.4712717e-08
33	0xb1f8b8ec	-7.238773e-09
34	0xbc827e1c	-0.015929274
35	0xbd0cc769	-0.03436986
36	0x06cd1b92	7.715294e-35
37	0x06ccbc9e	7.701342e-35
38	0x3c438af4	0.0119349845
39	0x06ccaa2d	7.698632e-35
40	0x06cd21f6	7.716233e-35
41	0xbc692101	-0.01422906
42	0x30b2b356	1.3002175e-09
43	0xbe119327	-0.1421629
44	0x86d5c31f	-8.04084e-35
45	0x86cd2025	-7.715966e-35
46	0x06cced4a	7.7084936e-35
47	0x06ccd6da	7.705197e-35
48	0x06ccf2af	7.709286e-35
49	0x06ccf920	7.710233e-35
50	0xba84b50b	-0.0010124756
51	0x86cd282d	-7.717146e-35
52	0x86ccd1ff	-7.704483e-35
53	0x06ccdb3d	7.7058413e-35
54	0xb9407c4b	-0.0001835685
55	0x9956cb78	-1.1104631e-23
56	0xa3c5a85d	-2.1430087e-17
57	0x06ccec13	7.708315e-35
58	0x31b5886f	5.283304e-09
59	0xbcb6cd41	-0.02231467
60	0xa107f281	-4.606073e-19
61	0x30a1d237	1.1774038e-09
62	0x30de8f30	1.6193322e-09
63	0xbc79c167	-0.015243865
64	0x86cd2997	-7.717354e-35
65	0xb22f8882	-1.0217379e-08
66	0xbeae606a	-0.34057933
67	0xbd217fdd	-0.03942858
68	0x2cb0036f	5.002602e-12
69	0xb8b802a7	-8.774298e-05
70	0xbe09056d	-0.13380976
71	0x86cd1f55	-7.715847e-35
72	0xb62261ba	-2.4196765e-06
73	0x06cd19eb	7.715051e-35
74	0x31bb12b1	5.4445413e-09
75	0xbd0da69e	-0.034582727
76	0xbb262c6f	-0.0025356074
77	0x1a382fb2	3.8088836e-23
78	0x86cd26ea	-7.716961e-35
79	0xbcf89e62	-0.03034896
80	0xbd831944	-0.064013034
81	0xbb23e31b	-0.0025007192
82	0xbe5b23ec	-0.21400422
83	0xbdb297ff	-0.08720397
84	0xbb4b0e9b	-0.0030984047
85	0xbe6413ba	-0.2227315
86	0xb085a392	-9.723513e-10
87	0x86cd07b7	-7.7123765e-35
88	0xa2f6c994	-6.6891863e-18
89	0x3aa7f864	0.0012815115
90	0xb856f2f2	-5.1247836e-05
91	0x30493b31	7.320749e-10
92	0x321a4a17	8.980826e-09
93	0xb288a206	-1.5906163e-08
94	0x3c3d14ba	0.011540586
95	0xbd5ecb8a	-0.05439333
96	0x321646bf	8.747235e-09
97	0x86cd1888	-7.7148475e-35
98	0x3c8d89cd	0.017277623
99	0x12f94c0c	1.5732856e-27
100	0xad20764d	-9.121215e-12
101	0x3b5b042e	0.003341924
102	0x3ac88c72	0.0015300645
103	0xba936cec	-0.0011247671
104	0x06c60c2b	7.44972e-35
105	0xadaba393	-1.951309e-11
106	0x86c60322	-7.4483925e-35
107	0x86c60a4c	-7.449445e-35
108	0x2b2e6f5c	6.197176e-13
109	0x3a4fc315	0.0007925493
110	0x389caa13	7.4703385e-05
111	0xb488e51a	-2.5498667e-07
112	0xab6e092e	-8.4567325e-13
113	0x39838db6	0.0002509185
114	0x3a172ae2	0.0005766583
115	0x06c57957	7.4281457e-35
116	0x06c5c096	7.4386143e-35
117	0x2dcd52e5	2.3342614e-11
118	0x2d735f1e	1.3834071e-11
119	0x2b0f944c	5.100961e-13
120	0x06c61235	7.4506075e-35
121	0xacab7782	-4.8733803e-12
122	0xb39319bc	-6.849902e-08
123	0xb89ebaf4	-7.56885e-05
124	0x391f3bff	0.00015185772
125	0x86c5cd98	-7.4405257e-35
126	0xac189b2f	-2.1686643e-12
127	0x39012c4d	0.00012318902
128	0x3a5154a0	0.00079853274
129	0x06c5874b	7.430196e-35
130	0x2bcaf522	1.4421001e-12
131	0xae0dfc03	-3.228352e-11
132	0x06c5e1d4	7.443499e-35
133	0xb4d64e85	-3.9917737e-07
134	0xad2faa12	-9.9853615e-12
135	0xad29112d	-9.610352e-12
136	0x399c24e9	0.0002978214
137	0x39710006	0.0002298356
138	0x06c5d514	7.4416254e-35
139	0x06c5d941	7.442239e-35
140	0xb900051d	-0.00012208936
141	0x86c57caa	-7.428634e-35
142	0x86c52964	-7.416398e-35
143	0xb96a8c6a	-0.00022368287
144	0xadbef162	-2.1707695e-11
145	0x3aa440cb	0.0012531517
146	0x86c5c5fc	-7.4394076e-35
147	0x06c5eb56	7.444896e-35
148	0x86c5dbb1	-7.442597e-35
149	0x86c61cde	-7.452174e-35
150	0x86c602ad	-7.4483254e-35
151	0x86c5aafc	-7.43544e-35
152	0x395485ca	0.00020267736
153	0x86c5d431	-7.441495e-35
154	0x86c57ee2	-7.42896e-35
155	0x06c592c4	7.4318817e-35
156	0xb3983b70	-7.088863e-08
157	0x86c5c611	-7.4394196e-35
158	0x86c61914	-7.451617e-35
159	0x86c4848e	-7.392178e-35
160	0xadf345c9	-2.7656892e-11
161	0x3ab67a37	0.0013921921
162	0x06c60618	7.4488276e-35
163	0xaba721fa	-1.1875494e-12
164	0xae65dd83	-5.2265314e-11
165	0xb935171d	-0.00017270115
166	0x86c571b1	-7.427022e-35
167	0xae645950	-5.1920523e-11
168	0x3a670cd6	0.00088138634
169	0x3ad1f286	0.0016017712
170	0xa8b695ca	-2.027102e-14
171	0xb4accb95	-3.2185622e-07
172	0x395a92aa	0.00020844737
173	0x06c5b6b9	7.437165e-35
174	0xac5c6322	-3.131891e-12
175	0x86c58d4f	-7.43108e-35
176	0x2d560f12	1.2167838e-11
177	0x3abce78a	0.0014412266
178	0x3864fd05	5.459508e-05
179	0x06c5952e	7.4322364e-35
180	0x86c5b14c	-7.436368e-35
181	0x3698fc40	4.5593188e-06
182	0x3897e106	7.242155e-05
183	0xb7becb66	-2.274448e-05
184	0x3ac30c06	0.0014880903
185	0x38a1d857	7.717375e-05
186	0x387b95a1	5.9982416e-05
187	0xba05a2c9	-0.0005097804
188	0xab7159a2	-8.574479e-13
189	0x86c5be7f	-7.438307e-35
190	0x06c5154f	7.4134474e-35
191	0xaecd2234	-9.3283964e-11
192	0x356ac33f	8.7455913e-07
193	0xaca4c2e2	-4.6827967e-12
194	0xad0c1d26	-7.964551e-12
195	0xae27eded	-3.8182724e-11
196	0xb918d667	-0.0001457572
197	0x3a6a5bbb	0.00089400605
198	0x2c67726b	3.289059e-12
199	0x06c58913	7.4304576e-35
200	0xb98018d8	-0.00024432573
201	0x86c578cb	-7.4280653e-35
202	0xadbb8256	-2.131732e-11
203	0x387c4b69	6.0151713e-05
204	0xbd1bf099	-0.03807125
205	0xbc038fa6	-0.008029854
206	0x100cd042	2.7770568e-29
207	0xb0386e94	-6.709595e-10
208	0x86ca98ec	-7.6208653e-35
209	0x86ca8eac	-7.619359e-35
210	0xaecea1c3	-9.39653e-11
211	0x3d6cb1e9	0.057786856
212	0xbc2c7f13	-0.010528344
213	0xb81b5024	-3.7029517e-05
214	0xaea6e2c2	-7.589086e-11
215	0xbc8fbd2b	-0.017546257
216	0xbbf64316	-0.0075153215
217	0x86ca7dd3	-7.6168837e-35
218	0x06ca8908	7.6185304e-35
219	0x3008d3f4	4.9777715e-10
220	0xadb8601a	-2.0961056e-11
221	0xb702324f	-7.760317e-06
222	0x06ca9d10	7.621474e-35
223	0xae15b267	-3.403713e-11
224	0x37e65cd5	2.7461365e-05
225	0x3aebe160	0.0017996244
226	0x3d0abdd1	0.03387243
227	0x86ca9548	-7.6203304e-35
228	0x2e14fadd	3.3874115e-11
229	0xbbb67e82	-0.00556928
230	0xbc2fe445	-0.010735576
231	0x06ca5616	7.6110447e-35
232	0x2eaa2572	7.7373566e-11
233	0xaf8cf373	-2.5638833e-10
234	0x06ca9e83	7.6216867e-35
235	0xb72057e0	-9.557203e-06
236	0x2fbec9d7	3.4704215e-10
237	0xb050584d	-7.579544e-10
238	0xbc29e84b	-0.010370324
239	0xbcdd3fdb	-0.027007988
240	0x86ca8c25	-7.618988e-35
241	0x06ca79e4	7.6163057e-35
242	0xbc9e1a0c	-0.01929953
243	0x06ca51ff	7.610444e-35
244	0x06ca1406	7.6013377e-35
245	0xbd069b3a	-0.03286288
246	0xafe38a42	-4.1389298e-10
247	0xbbe6648b	-0.0070310286
248	0x0b57ac15	4.1536954e-32
249	0x86ca6f5d	-7.614759e-35
250	0x06ca94ff	7.6202885e-35
251	0x86caa7c8	-7.623049e-35
252	0x06ca7a12	7.616332e-35
253	0x86ca8e46	-7.6193007e-35
254	0xbbd984e5	-0.0066381567
255	0x0c82f0e5	2.0174655e-31

mobilenet/dw_conv_12/dw_conv2d/sep_conv_bias f4 [102]
0	0xbfaf6041	-1.3701249
1	0x3d918455	0.071053185
2	0xbed60a79	-0.41804865
3	0x3b6048d0	0.0034223087
4	0xbd8e411e	-0.06946014
5	0x3d2cfdb9	0.042234156
6	0xbed2678a	-0.4109462
7	0xbed0d8df	-0.4079046
8	0xbec0444d	-0.3755211
9	0xbef249e4	-0.47322
10	0xbeeefac8	-0.46675706
11	0xbdf3dada	-0.11906977
12	0x3f23861b	0.63876504
13	0xbea28712	-0.31743675
14	0x3e185ae4	0.14878422
15	0x3f4847f8	0.78234816
16	0xbee0f981	-0.43940356
17	0x3c9c1253	0.019051706
18	0xbdd7601b	-0.105163775
19	0xbc884bc5	-0.016637692
20	0xbed74dab	-0.42051443
21	0x3e84c008	0.25927758
22	0x3d3d921d	0.046281923
23	0xbeedc6ef	-0.46440837
24	0xbeafbcfd	-0.34323874
25	0x3b8a2fec	0.0042171385
26	0xbe122490	-0.1427176
27	0x3d5d3634	0.05400677
28	0x3f1166c3	0.56797427
29	0xbc1d5a3a	-0.009604031
30	0xbec4a6a5	-0.3840839
31	0xbed306b8	-0.41216063
32	0xbebab2a7	-0.36464426
33	0xbec0d29c	-0.37660682
34	0xbe0d17d6	-0.13778624
35	0x3dbfa933	0.09358444
36	0xbf0654c6	-0.52473104
37	0x3f595fce	0.8491181
38	0x3b8523d8	0.004063111
39	0x3eb6b862	0.35687548
40	0x3b456629	0.0030120707
41	0x3c811caf	0.015760748
42	0xbbe31ce6	-0.006930935
43	0xbc2c3ac4	-0.010512058
44	0xbf19de98	-0.60105276
45	0x3cb95596	0.022623818
46	0x3d9b2045	0.07574514
47	0x3ee9fa03	0.45698556
48	0xbc705b43	-0.014670196
49	0xbd4e87b4	-0.050422385
50	0xbecc9516	-0.39957494
51	0xbd1a9171	-0.03773636
52	0x3c506334	0.012718964
53	0xbcac4262	-0.021027748
54	0x3e03d752	0.12875107
55	0x3f57e750	0.8433733
56	0xbbebad9e	-0.0071923276
57	0xbecef9bb	-0.40424904
58	0x3eeecdb2	0.46641308
59	0xbeea9cd6	-0.4582278
60	0x3ead2140	0.3381443
61	0x3f1997fd	0.5999754
62	0xbea3f4ec	-0.32022798
63	0x3ebcf2c6	0.3690397
64	0xbea2c1dd	-0.3178853
65	0xbe2f2afe	-0.17106244
66	0x3e1f933d	0.1558351
67	0xbc0bcc0f	-0.008532538
68	0x3ee2af8b	0.44274554
69	0x3e388984	0.18021208
70	0x3f28142d	0.65655786
71	0x3f59de71	0.85105044
72	0x3b67640f	0.0035307442
73	0x3d004e69	0.031324778
74	0x3e04f034	0.12982255
75	0xbe136137	-0.14392553
76	0xbecb88a8	-0.39752698
77	0x3f2ed7df	0.68298143
78	0xbdd5d595	-0.10441128
79	0xbd0fad5a	-0.03507743
80	0xbe080aa2	-0.13285306
81	0x3d2b2f9e	0.04179346
82	0xbed2b875	-0.41156355
83	0x3cebcfb0	0.028785557
84	0xbd1cd601	-0.038290028
85	0xbde85bba	-0.113456205
86	0xbf007fd2	-0.5019504
87	0xbb8ae175	-0.0042383024
88	0x3bb4efd8	0.0055217557
89	0x3d579da9	0.05264059
90	0xbeba439d	-0.3637971
91	0xbe421173	-0.18951969
92	0xbeec5d52	-0.46164948
93	0xbe8a463b	-0.27006707
94	0xbf55cb75	-0.83513576
95	0x3f09bed6	0.5380682
96	0xbec8076c	-0.39068162
97	0xbebe4abd	-0.37166396
98	0x3e8c856c	0.27445543
99	0xbe4782ed	-0.19483538
100	0xbeb03a0f	-0.34419295
101	0xbed6fce4	-0.41989815
