source/assets/cozmo_resources/config/engine/vision/dnn_models/hand_detector_8aa03f0ea79a46bf93950b483c508f10.tflite (tflite, 361208 bytes, 57 tensors)

mobilenet/conv_1/conv/Conv2D_bias f4 [3]
0.052917067 0.23287126 -0.06178154
00000000: 91bf 583d ce75 6e3e a40e 7dbd

mobilenet/conv_1/conv/kernel f4 [3, 3, 3, 3]
0.2122619 -0.46477163 0.15681377 0.2761985 -0.2924576 0.21296461 -0.11172571 -0.42717132
0.06047344 0.2923613 -0.45684287 0.052921716 0.35650066 -0.3598082 0.102935396 0.37727872
-0.33161175 0.13154936 0.31970748 -0.4584781 0.17497937 0.36573198 -0.41757986 0.083909385
0.37110895 -0.35642922 0.17337829 -0.081248224 0.0111433165 0.017290391 0.36903077 0.0769759
-0.07718276 0.36328563 0.1403199 -0.006410519 -0.18552423 0.10244231 0.100214556 0.0078527415
0.05867853 -0.0054977313 0.022388462 0.12364821 -0.041704744 0.15443431 0.004897622 -0.013760469
-0.51312697 -0.104603544 0.103014044 -0.20558251 0.012703296 0.059024278 -0.18739961 -0.055104222
0.0026459456 -0.32762066 0.009831252 0.07396184 -0.23463078 0.017685294 0.088305004 -0.04727689
-0.032449063 0.017081805 -0.35661554 0.090406224 0.1146877 -0.28350174 0.04495024 0.12220213
0.107538566 0.15084085 0.15153068 -0.40294322 0.09863362 -0.010697585 -0.17530788 0.0892799
0.026454845
00000000: 2f5b 593e 8cf6 edbe ca93 203e e469 8d3e
00000010: 01bd 95be 6513 5a3e 73d0 e4bd 33b6 dabe
00000020: ffb2 773d 61b0 953e 4fe7 e9be 71c4 583d
00000030: 4187 b63e c838 b8be cbcf d23d ad2a c13e
00000040: 04c9 a9be e0b4 063e b3b0 a33e a4bd eabe
00000050: cb2d 333e 3941 bb3e 07cd d5be afd8 ab3d
00000060: fe01 be3e e47d b6be 148a 313e 7865 a6bd
00000070: 7592 363c 94a4 8d3c 9af1 bc3e 8aa5 9d3d
00000080: ff11 9ebd 9300 ba3e 05b0 0f3e 550f d2bb
00000090: 10fa 3dbe 46cd d13d 4a3d cd3d c9a8 003c
000000a0: e658 703d 5026 b4bb 0268 b73c 463b fd3d
000000b0: 98d2 2abd 0724 1e3e 3b7c a03b 9773 61bc
000000c0: 4a5c 03bf 623a d6bd 07f9 d23d 3984 52be
000000d0: 7c21 503c 71c3 713d afe5 3fbe f7b4 61bd
000000e0: 9a67 2d3b e5bd a7be 4213 213c 4e79 973d
000000f0: 0d43 70be c0e0 903c 41d9 b43d 6aa5 41bd
00000100: 4fe9 04bd 24ef 8b3c 5096 b6be e626 b93d
00000110: 63e1 ea3d 2427 91be be1d 383d 1c45 fa3d
00000120: 2e3d dc3d 0676 1a3e dc2a 1b3e 934e cebe
00000130: 6c00 ca3d ec44 2fbc e983 33be 61d8 b63d
00000140: d5b7 d83c

mobilenet/dw_conv_1/dw_conv2d/sep_conv_bias f4 [3]
0.51247644 0.1531713 -0.48896018
00000000: a831 033f f0d8 1c3e fd58 fabe

mobilenet/dw_conv_1/dw_conv2d/weights f4 [1, 3, 3, 3]
1.3341846 -3.5059936 3.794643 -7.713785 -3.256902 2.009711 -4.891831 -2.0201333
2.1486423 -5.6544805 4.5019627 1.2894367 5.828824 -1.7440894 2.7652385 -1.1998223
0.5202963 -2.6850915 8.220931 2.0055585 0.16154265 -0.7492372 3.8170757 -4.056731
-5.311364 -0.25009403 -2.6896493
00000000: 90c6 aa3f 3362 60c0 6edb 7240 54d7 f6c0
00000010: 1571 50c0 1b9f 0040 e189 9cc0 dd49 01c0
00000020: 5b83 0940 81f1 b4c0 1410 9040 430c a53f
00000030: ba85 ba40 523e dfbf abf9 3040 c793 99bf
00000040: 2332 053f 8ad8 2bc0 ef88 0341 125b 0040
00000050: 706b 253e 02ce 3fbf f84a 7440 bed0 81c0
00000060: b2f6 a9c0 530c 80be 3723 2cc0

mobilenet/dw_conv_1/pointwise_convolution/Conv2D_bias f4 [6]
-0.11455442 0.05197179 0.0789011 0.059293956 0.22605252 0.21742117
00000000: 829b eabd 5fe0 543d e696 a13d 38de 723d
00000010: 507a 673e a8a3 5e3e

mobilenet/dw_conv_1/pointwise_convolution/kernel f4 [6, 1, 1, 3]
0.18234864 0.12830856 0.265682 -0.16372289 0.096154764 0.06863332 -0.0918111 -0.305743
-0.074195325 -0.054861765 0.17070779 -0.17331974 -0.080190316 -0.21232511 -0.18809013 0.11031637
-0.17261115 -0.1795539
00000000: 9ab9 3a3e 5263 033e 7907 883e f9a6 27be
00000010: caec c43d a08f 8c3d 7507 bcbd 598a 9cbe
00000020: b8f3 97bd bbb6 60bd 06ce 2e3e bb7a 31be
00000030: d23a a4bd c16b 59be b39a 40be 8ded e13d
00000040: fac0 30be fadc 37be

mobilenet/dw_conv_10/dw_conv2d/sep_conv_bias f4 [51]
0.096321926 -0.45170495 0.075765125 0.0005746637 -0.03072442 -0.004226656 -0.0028443988 -0.0045150686
-0.0007398719 -0.0006556841 0.0013115158 0.05111321 -0.0014550801 0.3520037 0.0007098671 -0.0009712351
0.00049767946 0.00010911713 -0.0027542445 0.0017239974 0.007661807 0.00025535285 0.0011961486 0.002187559
0.0003603134 0.007292371 0.00024815957 -0.23876897 -0.002294806 -0.57746553 0.0012096289 0.32503116
1.1570336 0.002226319 0.0025835766 0.0026884668 -0.0009073731 -0.001748288 0.299222 0.277005
0.00081209996 -0.20252717 -0.0015316661 -0.000800853 0.00045899098 -0.0010037114 -0.0036245312 9.739428e-05
0.15623972 0.0016122727 0.0033437435
00000000: 6e44 c53d df45 e7be bf2a 9b3d 07a5 163a
00000010: c7b1 fbbc c37f 8abb 1869 3abb 24f3 93bb
00000020: f6f3 41ba 37e2 2bba 2be7 ab3a 165c 513d
00000030: 63b8 beba d439 b43e 6016 3a3a 7c9a 7eba
00000040: b476 023a d0d5 e438 8e80 34bb c1f7 e13a
00000050: e50f fb3b e1e0 8539 16c8 9c3a 265d 0f3b
00000060: 72e8 bc39 d7f4 ee3b 6a1b 8239 da7f 74be
00000070: 7564 16bb c8d4 13bf 698c 9e3a 7c6a a63e
00000080: ad19 943f 6fe7 113b 3951 293b fd30 303b
00000090: c7dc 6dba d026 e5ba a033 993e 99d3 8d3e
000000a0: 1be3 543a 4863 4fbe 30c2 c8ba 56f0 51ba
000000b0: baa4 f039 f78e 83ba 8b89 6dbb 2840 cc38
000000c0: 4efd 1f3e e552 d33a b522 5b3b

mobilenet/dw_conv_10/dw_conv2d/weights f4 [1, 3, 3, 51]
0.33213127 3.0702832 2.474996 -0.34681645 0.5301601 2.4695966 1.1262001 -1.7311001
2.1313825 -1.1375175 1.0404258 2.730762 -3.237397 -1.693444 1.8547615 -2.8543398
-2.641922 -0.5116534 -2.0455077 2.1831207 -0.85963553 -3.1962109 1.3747008 -0.6722522
-0.6658034 -3.288362 0.87799513 3.25325 -1.4163646 -0.06842082 3.317547 -0.74610835
-1.8886448 1.8515483 0.88463265 0.5575693 2.2874913 0.25908 1.5722383 2.0515842
-2.213882 3.494371 -0.11804891 2.9728856 2.7398875 1.6657797 1.2668873 -3.2666814
-2.5411458 -2.2358012 1.3828887 -0.7095746 -1.6321719 1.8743602 1.777876 1.426589
-0.4615115 -1.1616944 -2.6008632 1.5698656 0.060476854 2.128689 -2.8709826 3.0719159
2.040125 -2.9430444 2.7706714 0.83098465 -2.8997767 -0.5152907 -1.8685777 1.9453169
-2.3320074 0.20270558 2.5626423 -1.0783284 0.26471546 3.1552134 0.10311718 3.0530417
0.3559461 -2.3426473 0.81722367 1.2952086 2.2388937 2.188951 -2.3637538 1.8751404
1.8530535 -1.865496 -1.0877614 0.5411711 -1.0977972 -2.2163892 1.576592 3.0561664
-3.2585511 -1.4674006 3.1791413 -3.0307565 2.081598 -1.905595 2.1056206 2.8460214
-0.050588973 -0.45806706 1.4629964 1.5163603 1.502734 0.9187105 1.0741801 1.2179352
-1.3022612 1.2709363 1.2202224 1.8846465 0.62084377 -0.058549583 -0.19585662 0.15781236
-0.8865273 0.45105764 2.5313857 1.450753 2.6334612 0.94856405 1.2871462 -1.499354
1.2483078 -0.27909797 1.1631579 1.7764709 -3.3803492 2.2126808 -2.3804808 2.1488938
0.12944178 -3.3281665 3.8812604 -3.0853248 1.8304659 -2.3252404 0.48765394 3.851769
0.8569535 -1.9164945 -2.617184 1.1795864 -0.7737645 -2.6256096 -2.6949286 -0.014873381
-2.3337405 -4.16604 0.9085191 0.8337244 2.21176 -2.3278604 -0.11321028 -1.2426558
2.797072 -3.059019 1.635019 -0.113391295 0.4241796 0.2521525 1.3457695 1.421796
1.2787362 -0.58658844 0.6244177 -3.5456605 3.0180402 1.6989194 2.5721068 0.3859524
1.3583753 -3.390713 -3.416121 -2.2512798 3.2632139 -0.5814324 2.0881972 3.4159155
0.42012906 -0.06373517 3.652766 -1.8102983 1.4664147 -1.9659706 -2.1702292 -3.1397626
-1.8644736 1.8513223 -0.9849124 -0.69336474 -2.5018137 0.7115787 2.1858141 2.0253944
-2.8306365 0.52039033 -3.5561323 -0.018652314 -0.8386267 -1.3211278 0.3203931 -0.90536666
-1.826495 1.6618228 1.2939315 -3.2553506 -1.1548189 -2.206203 3.2085438 -2.69476
-2.686706 2.3588026 0.73100406 -2.1472518 -2.5284677 -3.1033688 -2.3802521 1.6537454
1.2398804 2.8161368 2.4127998 -3.2251742 1.0349739 -2.326522 3.5315692 -1.2115246
-3.15986 2.6881752 2.8802571 -1.5013198 0.6279638 -1.03277 -3.2719593 -1.6662443
3.0194547 2.5436988 0.58249414 3.5246093 -0.4450102 -1.7572806 0.18955776 -3.3357477
-0.45457673 -0.42365134 0.7244037 0.61364734 -0.24697948 -2.6302094 3.019531 2.341477
00000000: 1c0d aa3e 857f 4440 5666 1e40 ed91 b1be
00000010: 93b8 073f df0d 1e40 5327 903f b094 ddbf
00000020: 9268 0840 2c9a 91bf ac2c 853f cec4 2e40
00000030: 8331 4fc0 c6c2 d8bf d368 ed3f 81ad 36c0
00000040: 4015 29c0 b8fb 02bf 99e9 02c0 40b8 0b40
00000050: 1311 5cbf b88e 4cc0 32f6 af3f b818 2cbf
00000060: 1772 2abf 8674 52c0 4ac4 603f 3f35 5040
00000070: 6f4b b5bf 3720 8cbd b152 5440 f500 3fbf
00000080: 1dbf f1bf 89ff ec3f 4977 623f ddbc 0e3f
00000090: 4266 1240 22a6 843e 1b3f c93f 284d 0340
000000a0: 3eb0 0dc0 c6a3 5f40 a0c3 f1bd c243 3e40
000000b0: 515a 2f40 4538 d53f 5d29 a23f 4f11 51c0
000000c0: 22a2 22c0 5e17 0fc0 7f02 b13f aea6 35bf
000000d0: 02eb d0bf 09eb ef3f 7191 e33f 789a b63f
000000e0: 3c4b ecbe 67b2 94bf 8b74 26c0 5bf1 c83f
000000f0: 94b6 773d 713c 0840 2ebe 37c0 459a 4440
00000100: 6891 0240 d75a 3cc0 ae52 3140 69bb 543f
00000110: f195 39c0 17ea 03bf 8e2d efbf 2500 f93f
00000120: 9c3f 15c0 0d92 4f3e 5502 2440 aa06 8abf
00000130: c988 873e 04ef 4940 1a2f d33d 0965 4340
00000140: 913e b63e efed 15c0 9235 513f 65c9 a53f
00000150: 094a 0f40 c617 0c40 be47 17c0 9a04 f03f
00000160: db30 ed3f 93c8 eebf c43b 8bbf 308a 0a3f
00000170: 9e84 8cbf 52d9 0dc0 c4cd c93f 3b98 4340
00000180: 1a8c 50c0 c8d3 bbbf 0d77 4b40 eaf7 41c0
00000190: e738 0540 89ea f3bf 7dc2 0640 3725 3640
000001a0: 6236 4fbd c487 eabe 7743 bb3f 1818 c23f
000001b0: 9659 c03f 9c30 6b3f bc7e 893f 4de5 9b3f
000001c0: 7fb0 a6bf 0aae a23f 3f30 9c3f 193c f13f
000001d0: 9eef 1e3f b0d1 6fbd a38e 48be 9099 213e
000001e0: 74f3 62bf 07f1 e63e 3902 2240 46b2 b93f
000001f0: a18a 2840 18d5 723f 35c1 a43f d5ea bfbf
00000200: 8dc8 9f3f eee5 8ebe 5ce2 943f 6663 e33f
00000210: a457 58c0 909c 0d40 cc59 18c0 7a87 0940
00000220: 638c 043e ae00 55c0 9266 7840 f675 45c0
00000230: b54c ea3f bdd0 14c0 c7ad f93e 6283 7640
00000240: 4e61 5b3f b14f f5bf f17f 27c0 b0fc 963f
00000250: 6e15 46bf fd09 28c0 b679 2cc0 7baf 73bc
00000260: 015c 15c0 3350 85c0 b594 683f f66e 553f
00000270: 7a8d 0d40 aafb 14c0 cbda e7bd 580f 9fbf
00000280: 3a03 3340 f8c6 43c0 4d48 d13f b239 e8bd
00000290: 122e d93e 221a 813e 2d42 ac3f 69fd b53f
000002a0: a1ad a33f a92a 16bf d7d9 1f3f 1aec 62c0
000002b0: 9227 4140 3176 d93f 669d 2440 8e9b c53e
000002c0: 3edf ad3f 7101 59c0 baa1 5ac0 f814 10c0
000002d0: 7fd8 5040 c1d8 14bf 06a5 0540 5c9e 5a40
000002e0: 281b d73e 9687 82bd ebc6 6940 dbb7 e7bf
000002f0: 7ab3 bb3f eda4 fbbf 09e5 0ac0 dff1 48c0
00000300: 12a7 eebf 21f8 ec3f 3823 7cbf 5a80 31bf
00000310: b71d 20c0 062a 363f 61e4 0b40 10a0 0140
00000320: 2629 35c0 4d38 053f ac97 63c0 bdcc 98bc
00000330: 3db0 56bf b71a a9bf 900a a43e 1cc6 67bf
00000340: 97ca e9bf 9cb6 d43f 8c9f a53f aa57 50c0
00000350: 1bd1 93bf 6e32 0dc0 c858 4d40 f376 2cc0
00000360: fef2 2bc0 9ff6 1640 1523 3b3f 936c 09c0
00000370: 6ad2 21c0 989d 46c0 0d56 18c0 eead d33f
00000380: 67b4 9e3f 963b 3440 506b 1a40 4169 4ec0
00000390: 067a 843f bde5 14c0 3b05 6240 3d13 9bbf
000003a0: 253b 4ac0 100b 2c40 2256 3840 3f2b c0bf
000003b0: 3cc2 203f cf31 84bf c867 51c0 7e47 d5bf
000003c0: bf3e 4140 f6cb 2240 561e 153f 3393 6140
000003d0: 60d8 e3be 92ee e0bf 6e1b 423e e47c 55c0
000003e0: 48be e8be d4e8 d8be 8572 393f fe17 1d3f
000003f0: 30e8 7cbe 5a55 28c0 ff3f 4140 c2da 1540

mobilenet/dw_conv_10/pointwise_convolution/Conv2D_bias f4 [51]
-0.0046557337 -0.0006281666 -0.00016216378 -0.0023846952 0.00029070937 0.15725018 -0.034666047 -0.12061766
-0.073181346 -0.00018215193 -0.026917858 -0.0032202571 -5.6343088e-05 -0.0062638265 0.14095417 -0.009198899
-0.0011546134 0.15728101 -0.042489924 0.097312845 0.18650298 -0.09471291 -0.0004571178 0.09098226
-0.0014789642 -0.092030846 0.00045064697 -0.0068916753 -0.0018289646 -0.0002578291 -0.0058855014 -0.0008933589
-0.0011112241 0.14848186 0.22957227 -0.00031787358 0.010900557 -0.0013181987 -0.0017549555 0.06893896
-0.0006442685 0.10286726 0.13086256 4.5565022e-05 0.0009031103 0.012550594 0.050829783 0.0951859
-0.00138268 0.079524994 -0.04010342
00000000: 208f 98bb 8cab 24ba 820a 2ab9 8c48 1cbb
00000010: 5a6a 9839 3106 213e fcfd 0dbd 6406 f7bd
00000020: 1ae0 95bd 0900 3fb9 d782 dcbc f30a 53bb
00000030: ee51 6cb8 c940 cdbb 4a56 103e fbb6 16bc
00000040: 6656 97ba 460e 213e ea09 2ebd f54b c73d
00000050: a3fa 3e3e d8f8 c1bd 50a9 efb9 e854 ba3d
00000060: ced9 c1ba ab7a bcbd d044 ec39 90d3 e1bb
00000070: deb9 efba 3c2d 87b9 2adb c0bb 4d30 6aba
00000080: 7ea6 91ba a10b 183e fe14 6b3e 45a8 a6b9
00000090: 4098 323c 69c7 acba 8906 e6ba df2f 8d3d
000000a0: 21e4 28ba 12ac d23d d600 063e 121d 3f38
000000b0: b5be 6c3a 02a1 4d3c e432 503d d3f0 c23d
000000c0: 0b3b b5ba 00de a23d 7c43 24bd

mobilenet/dw_conv_10/pointwise_convolution/kernel f4 [51, 1, 1, 51]
0.021979425 0.050962813 0.056916676 -9.1559854e-10 -0.049283605 -3.7898334e-35 3.7671535e-35 7.5923716e-35
-3.7830247e-35 3.781571e-35 2.012477e-09 0.07927197 -3.7722552e-35 0.010464546 8.315267e-10 -3.7779622e-35
1.11183486e-10 2.952628e-10 7.589021e-35 -1.3788488e-09 -7.644149e-11 -7.20426e-13 1.8552826e-09 3.5684122e-09
2.1228841e-12 2.47065e-08 6.2760536e-10 -0.07564873 -3.790741e-35 0.10851406 2.5610674e-09 0.030180331
0.027517498 9.368884e-09 2.6568785e-09 -0.019556366 3.791411e-35 -3.7842082e-35 -0.0033219329 0.074136145
-2.3073936e-09 0.14562733 7.5946853e-35 -3.773782e-35 1.0462942e-09 7.597171e-35 -7.604139e-35 2.8271693e-10
-0.04842827 3.9034465e-09 7.0418316e-09 -7.4219703e-35 -7.428845e-35 -7.424353e-35 7.3369616e-35 7.417196e-35
-3.705942e-35 3.6882903e-35 7.4236423e-35 -3.6880458e-35 3.7139517e-35 -7.389366e-35 -7.419065e-35 3.7091338e-35
-7.4151234e-35 7.3760336e-35 -3.7115804e-35 7.396786e-35 -7.3288566e-35 7.3831233e-35 -7.355877e-35 -7.419651e-35
-7.341519e-35 -7.3205294e-35 -7.4233765e-35 7.3268936e-35 7.3930484e-35 -7.3354234e-35 7.416625e-35 -3.7100272e-35
-7.4219525e-35 -7.370483e-35 -7.4206307e-35 7.424919e-35 7.31834e-35 -7.408802e-35 7.416504e-35 3.6819063e-35
-3.690525e-35 -7.3959895e-35 -7.4037524e-35 -7.4090554e-35 7.42651e-35 7.418308e-35 3.6553983e-35 7.4116245e-35
-7.415116e-35 -7.39326e-35 7.3777785e-35 7.420726e-35 7.3702313e-35 7.3458416e-35 -7.4507613e-35 -7.34336e-35
7.3633064e-35 7.4547544e-35 -7.413201e-35 3.7172877e-35 -3.7237118e-35 7.38922e-35 -3.662444e-35 3.6804886e-35
7.456609e-35 -7.3567763e-35 -3.6658747e-35 7.413606e-35 7.376018e-35 -3.7010747e-35 7.4466236e-35 -7.4477353e-35
7.4293e-35 -7.373067e-35 -7.416414e-35 -7.344267e-35 7.363564e-35 -7.416246e-35 -7.4234414e-35 7.454579e-35
-7.411546e-35 7.3432346e-35 -3.7204253e-35 -7.4254486e-35 7.348965e-35 7.3693067e-35 7.403088e-35 7.4496777e-35
-7.425418e-35 -7.4263486e-35 3.7271072e-35 -3.7093993e-35 7.448437e-35 7.407564e-35 7.3529846e-35 -7.430286e-35
-7.37509e-35 -3.7060886e-35 -7.409788e-35 7.434768e-35 7.4212293e-35 7.4336386e-35 -7.4268083e-35 7.415074e-35
-7.407039e-35 -7.442793e-35 7.444183e-35 -7.4437227e-35 7.347771e-35 -7.4423153e-35 -3.6627325e-35 -3.679754e-35
7.435855e-35 -3.7012256e-35 3.7102327e-35 7.3902543e-35 -7.437441e-35 -3.678181e-35 -7.4390603e-35 -7.341929e-35
-3.712837e-35 -7.384971e-35 7.3829965e-35 7.4237657e-35 -7.3826676e-35 7.438606e-35 -7.398687e-35 7.431634e-35
-7.4282536e-35 -7.429035e-35 7.3732206e-35 7.334102e-35 -7.4393835e-35 3.632605e-35 1.9447891e-33 7.364375e-35
-7.4445504e-35 7.4431694e-35 -7.418814e-35 -7.3593563e-35 7.437259e-35 3.6889558e-35 -3.6227493e-35 7.4434426e-35
-7.4428003e-35 7.3937556e-35 -7.44362e-35 -7.437689e-35 3.7034173e-35 7.3511204e-35 -7.430095e-35 7.4312e-35
-7.3337394e-35 -7.442362e-35 7.443504e-35 7.3370374e-35 -7.3070385e-07 -1.1721718e-07 6.4905436e-07 3.113617e-15
-4.825685e-07 -3.6528662e-35 3.701526e-35 7.387772e-35 3.690872e-35 3.6684963e-35 8.360111e-15 1.6723155e-07
-3.635556e-35 4.357374e-07 -4.164976e-15 3.639044e-35 1.2459414e-15 1.07619056e-16 7.407772e-35 6.7535495e-15
1.454963e-14 2.9630163e-15 2.6000286e-15 4.583264e-14 2.5052984e-15 6.213451e-14 -8.895163e-16 3.2980222e-07
-3.7124746e-35 1.0730511e-06 1.3089434e-14 2.5767527e-08 1.0944957e-06 5.5227412e-15 1.7823869e-14 7.839517e-08
3.705589e-35 3.6885782e-35 -8.80482e-07 2.7914416e-07 -3.3594468e-15 4.621439e-07 7.4055817e-35 3.6582343e-35
1.3679709e-15 -7.420595e-35 -7.3813434e-35 2.9597986e-16 -1.5948204e-06 -7.94027e-15 -1.4754794e-14 0.049745448
00000000: 320e b43c 62be 503d 7621 693d 85ad 7bb0
00000010: 9bdd 49bd 8a80 4986 d64b 4806 01d7 c906
00000020: dd23 4986 1410 4906 df4b 0a31 5859 a23d
00000030: 4791 4886 7d73 2b3c 7d91 6430 f5de 4886
00000040: bd7e f42e 8b52 a22f 33c0 c906 ee81 bdb0
00000050: bc18 a8ae 2ac8 4aab f4fc fe30 2c38 7531
00000060: 7b62 152c 2b3a d432 cd83 2c30 b9ed 9abd
00000070: e58c 4986 9f3c de3d c6fe 2f31 be3c f73c
00000080: 606c e13c caf4 2032 4d94 3631 ac34 a0bc
00000090: 0396 4906 f933 4986 c9b4 59bb b1d4 973d
000000a0: 1990 1eb1 551f 153e c0e6 c906 0fa6 4886
000000b0: 34cd 8f30 abf7 c906 1727 ca86 df6c 9b2f
000000c0: b95c 46bd 141f 8631 9bf4 f131 504f c586
000000d0: 197e c586 875f c586 c60c c306 d22e c506
000000e0: ab0a 4586 681a 4406 b15a c506 1417 4486
000000f0: b177 4506 6b71 c486 8a3b c586 1d36 4506
00000100: b720 c586 af16 c406 6a57 4586 eba3 c406
00000110: 9dd5 c286 ef46 c406 818d c386 873f c586
00000120: ca2b c386 f19c c286 e258 c586 41c8 c206
00000130: 7b8a c406 4e02 c386 ef2a c506 4642 4586
00000140: 314f c586 e8f0 c386 3246 c586 6163 c506
00000150: 0b8e c206 b2f5 c486 1c2a c506 83c3 4306
00000160: d338 4486 7f9e c486 54d3 c486 6bf7 c486
00000170: 356e c506 6336 c506 b45a 4206 e708 c506
00000180: aa20 c586 ec8b c486 8f22 c406 d846 c506
00000190: 32ef c306 3549 c306 4113 c686 5238 c386
000001a0: 11c0 c306 6e2e c606 a213 c586 19a5 4506
000001b0: 8afc 4586 6d70 c406 9bba 4286 37b0 4306
000001c0: 0d3b c606 a093 c386 4de9 4286 6316 c506
000001d0: 9416 c406 6bc8 4486 18f7 c506 a9fe c586
000001e0: 3281 c506 7e02 c486 8029 c586 7e3e c386
000001f0: d2c1 c306 5b28 c586 5359 c586 3c2d c606
00000200: 5e08 c586 7737 c306 cecf 4586 fc66 c586
00000210: 775e c306 e7e8 c306 cece c406 e10b c606
00000220: c766 c586 1c6d c586 c12a 4606 ba39 4586
00000230: 6f03 c606 45ed c406 d279 c306 e887 c586
00000240: 4310 c486 aa0c 4586 67fc c486 69a6 c506
00000250: 454a c506 b99e c506 3d70 c586 6120 c506
00000260: b2e9 c486 06dd c586 7ce6 c506 5ae3 c586
00000270: 5756 c306 c6d9 c586 88be 4286 37a6 4386
00000280: cfad c506 79ca 4486 1245 4506 7777 c406
00000290: 9ab8 c586 ce90 4386 9fc3 c586 942e c386
000002a0: 8568 4586 8253 c486 1246 c406 885b c506
000002b0: d543 c486 87c0 c506 dbb0 c486 1591 c506
000002c0: 137a c586 647f c586 8a03 c406 50f9 c206
000002d0: d2c5 c586 7524 4106 1791 2109 57c7 c306
000002e0: fce8 c586 96df c506 d539 c586 2fa5 c386
000002f0: 5db7 c506 7723 4406 4f9e 4086 72e1 c506
00000300: 13dd c586 4b8f c406 a7e2 c586 4aba c586
00000310: 4ee8 4406 226d c306 9b86 c586 208e c506
00000320: d8f6 c286 17da c586 dde1 c506 4a0d c306
00000330: 9625 44b5 d4b8 fbb3 ad3a 2e35 195c 6027
00000340: db89 01b5 3d38 4286 90ce 4406 9266 c406
00000350: 8c3d 4406 fc0c 4306 359a 1628 4290 3334
00000360: a04c 4186 4bef e934 200f 96a7 1a7c 4106
00000370: 208f b326 1427 f824 afee c406 8052 f327
00000380: 2a0d 8328 0182 5527 105a 3b27 7069 4e29
00000390: 9986 3427 1bea 8b29 5c31 80a6 ac0f b134
000003a0: 9663 4586 c105 9035 5ccc 6b28 6457 dd32
000003b0: 96e6 9235 4cfa c627 0b8b a028 335a a833
000003c0: dd05 4506 531e 4406 435a 6cb5 48dd 9534
000003d0: db12 72a7 931c f834 c7df c406 4e81 4206
000003e0: 3825 c526 f445 c586 d23a c486 eb9e aa25
000003f0: 9d0d d6b5 080a 0fa8 3de6 84a8 e2c1 4b3d

mobilenet/dw_conv_11/dw_conv2d/sep_conv_bias f4 [51]
-0.7907423 -0.0005354968 0.0261338 -0.0033709346 -0.0013981871 1.6426095 -0.106027335 -0.08315198
0.13914359 0.00049823883 0.21632898 0.0019124806 -0.0004483005 0.00048263057 0.045342058 -0.0028619894
-0.000948833 1.8691773 -0.46602577 1.0715508 0.9409189 -0.51356655 0.0012551148 -0.9722436
-0.0003012369 0.124416485 -0.0008344569 -0.0098943245 -0.0022036103 0.0020414465 -0.0019141607 0.0005101549
-0.0020555083 0.011177808 1.6405736 0.00076358096 -0.9740962 -0.00035089345 -0.0030850887 0.1683323
-0.000732497 0.930151 -0.4512022 -0.00039481258 -0.00625464 0.22191936 -0.955232 0.7663779
-0.00028089352 0.111487076 -0.008838672
00000000: 166e 4abf 9560 0cba 8d16 d63c e6ea 5cbb
00000010: 6043 b7ba 0741 d23f dc24 d9bd 964b aabd
00000020: a87b 0e3e 3e9c 023a 5885 5d3e 33ac fa3a
00000030: e009 ebb9 9409 fd39 98b8 393d 3790 3bbb
00000040: 1bbb 78ba 3441 ef3f ee9a eebe 9428 893f
00000050: 10e0 703f 1979 03bf aa82 a43a f5e4 78bf
00000060: 55ef 9db9 12ce fe3d 74bf 5aba ce1b 22bc
00000070: 726a 10bb cac9 053b 93e4 faba eabb 053a
00000080: b5b5 06bb 2023 373c 51fe d13f 0d2b 483a
00000090: 5e5e 79bf 1ff8 b7b9 332f 4abb 4d5f 2c3e
000000a0: 0b05 40ba 601e 6e3f fa03 e7be d9fe ceb9
000000b0: b9f3 ccbb d43e 633e 168a 74bf 5831 443f
000000c0: e444 93b9 5653 e43d 14d0 10bc

mobilenet/dw_conv_11/dw_conv2d/weights f4 [1, 3, 3, 51]
3.0421224 2.0640554 -1.3801546 -3.3074985 1.5581555 -0.4747226 -1.5802419 -2.859525
-1.062685 -3.5537615 1.7643454 1.8763124 -1.0430601 2.4613826 2.8445697 -1.395182
3.3740146 -1.8200071 -0.09629598 -2.2431958 1.8320266 -0.968217 2.2538626 3.050422
-1.0880073 -0.92942786 -0.0544139 -0.3535348 1.54404 1.1563497 0.08992964 -1.8844692
-1.8512723 1.7245457 -2.1899457 -0.85662186 0.19025107 2.7271533 0.9465124 -2.6149726
-1.9160917 -1.5058935 -1.5277883 -1.1521189 1.5668942 -1.370433 0.2909297 -1.8698633
0.90523773 1.5611699 -3.1304686 2.3975334 -1.1875396 -2.4128747 3.0380862 -3.4435365
0.33351374 -0.08350543 -2.3881729 -2.0223737 0.9292049 0.6584853 -2.405055 -3.1243331
-3.3278043 2.7128425 0.20394896 1.2386663 -0.2573542 1.5521535 -1.9759876 1.4361116
-0.61656106 -1.9497467 -1.468042 -2.0485353 -3.0486922 -0.55495185 -0.14756618 -0.12312681
-0.7592025 -0.14963868 -2.5260994 0.96716064 2.283047 -0.42355576 -1.051805 1.0686173
-0.12374187 0.73520166 1.0246773 1.5204846 -2.091821 -0.23784064 -2.439769 0.42037243
2.626264 -0.20216729 -2.1627326 -3.453024 -1.4204314 2.3201435 2.1050665 0.31446967
-1.2085689 -0.16426861 -1.0131663 -2.960881 -4.6000524 -0.21742435 2.2446487 -0.42510754
2.1262867 -2.2065573 2.9542677 0.3498533 1.4760178 2.2995787 -1.1960713 -0.60640854
1.322379 -3.1600237 -2.339181 2.8651035 2.41765 -1.7812232 2.189009 -0.33986488
1.039718 -3.4043934 0.5454647 -1.5666479 2.5179603 2.0918832 0.5447982 1.5231389
-2.4067054 -1.6517327 -0.052821875 1.4104632 2.868575 2.5629969 0.83288616 -3.3970683
4.7005157 2.4533887 -0.18737954 -1.5642627 2.3510656 -0.05146815 1.512038 -1.2484686
0.5015763 0.71079844 3.2052157 0.6216638 3.1216648 3.5729792 -2.3276465 1.0865006
-2.538795 2.7138083 -0.46507534 -1.7073462 1.810435 -2.747396 2.2611344 -1.3265219
0.19532765 -3.367271 -2.0018272 2.7414298 -0.24687092 -0.03054408 1.9011538 2.85085
1.3043525 0.67671084 1.7012217 0.90688115 2.9984324 0.8744955 0.21321358 0.6204476
-1.5523936 1.837556 -1.0608422 -1.5644737 -1.2516395 1.7902509 -1.7936435 2.4466043
0.0087619135 -2.4979799 2.5066123 2.7731652 1.083991 -3.3779776 -2.5673206 0.033379067
0.64920014 -3.189699 -2.6238499 -1.150224 -1.2910718 2.6597846 -3.4002883 2.0371902
-1.5288928 -1.3088074 1.1879321 0.89013493 -3.2164102 0.08461004 -2.5469606 1.9684287
0.58391815 -3.084514 1.9195712 0.9938108 1.965598 -1.0988731 1.974849 -1.8130273
-0.6693441 1.1258094 -2.9326134 3.0643983 -3.125648 2.9558556 -1.7928495 -2.6494162
2.3203437 -2.3077657 -0.16529003 2.388142 2.0824108 1.7399194 0.20837328 2.4810984
1.7755239 0.2997575 -2.7060084 -2.443124 0.4388877 -2.638689 -2.9348059 -1.7056599
1.9069948 2.0233908 -0.56336987 -2.0934632 0.87717485 2.2487745 -1.2035458 1.4346856
00000000: 22b2 4240 7c19 0440 e8a8 b0bf 0eae 53c0
00000010: a471 c73f d70e f3be 5e45 cabf 7502 37c0
00000020: 1006 88bf d470 63c0 12d6 e13f 012b f03f
00000030: fe82 85bf 4b87 1d40 6e0d 3640 5395 b2bf
00000040: dbef 5740 fef5 e8bf d436 c5bd 8590 0fc0
00000050: d97f ea3f 12dd 77bf 493f 1040 1d3a 4340
00000060: d343 8bbf fcee 6dbf 1ce1 5ebd 8302 b5be
00000070: 1aa3 c53f 4403 943f 082d b83d 4936 f1bf
00000080: 7ef6 ecbf eabd dc3f 1228 0cc0 924b 5bbf
00000090: 2dd1 423e ae89 2e40 a34e 723f b65b 27c0
000000a0: 7e42 f5bf 1ec1 c0bf 918e c3bf a278 93bf
000000b0: fd8f c83f 596a afbf bdf4 943e ae57 efbf
000000c0: a9bd 673f 6ad4 c73f 9959 48c0 3071 1940
000000d0: 4c01 98bf 8a6c 1ac0 0170 4240 e762 5cc0
000000e0: 50c2 aa3e e504 abbd d3d7 18c0 926e 01c0
000000f0: 5fe0 6d3f 7e92 283f 6cec 19c0 13f5 47c0
00000100: bffa 54c0 369f 2d40 ffd7 503e 9e8c 9e3f
00000110: eec3 83be f7ac c63f 29ed fcbf 81d2 b73f
00000120: f2d6 1dbf 4d91 f9bf cde8 bbbf 341b 03c0
00000130: c61d 43c0 5311 0ebf 971b 17be e929 fcbd
00000140: 185b 42bf e23a 19be 9dab 21c0 d797 773f
00000150: 711d 1240 4ddc d8be 8ca1 86bf 74c8 883f
00000160: 616c fdbd 2d36 3c3f a028 833f 3d9f c23f
00000170: 65e0 05c0 7f8c 73be 2d25 1cc0 0e3b d73e
00000180: b614 2840 f104 4fbe 366a 0ac0 58fe 5cc0
00000190: b2d0 b5bf 3b7d 1440 69b9 0640 2b02 a13e
000001a0: 63b2 9abf 0836 28be 6faf 81bf 137f 3dc0
000001b0: a133 93c0 7da4 5ebe 53a8 0f40 b2a7 d9be
000001c0: 1515 0840 3c38 0dc0 b912 3d40 f91f b33e
000001d0: 27ee bc3f 4c2c 1340 dd18 99bf 973d 1bbf
000001e0: b743 a93f d43d 4ac0 24b5 15c0 db5d 3740
000001f0: c7ba 1a40 1fff e3bf b918 0c40 c502 aebe
00000200: 7b15 853f 95e1 59c0 93a3 0b3f eb87 c8bf
00000210: 4326 2140 6ae1 0540 e577 0b3f 37f6 c23f
00000220: 7607 1ac0 fa6b d3bf c05b 58bd 0f8a b43f
00000230: bc96 3740 2408 2440 0738 553f 9169 59c0
00000240: a06a 9640 5204 1d40 6ce0 3fbe c339 c8bf
00000250: dc77 1640 44d0 52bd 768a c13f d2cd 9fbf
00000260: 4e67 003f e3f6 353f 4122 4d40 5c25 1f3f
00000270: 5bc9 4740 b1ab 6440 29f8 14c0 7412 8b3f
00000280: 9e7b 22c0 09af 2d40 5b1e eebe 528a dabf
00000290: 56bc e73f 56d5 2fc0 6db6 1040 78cb a9bf
000002a0: f903 483e 5e81 57c0 f01d 00c0 9673 2f40
000002b0: bbcb 7cbe 9437 fabc 0259 f33f 5474 3640
000002c0: 06f5 a63f ec3c 2d3f a2c1 d93f 5d29 683f
000002d0: 51e6 3f40 f0de 5f3f a954 5a3e a7d5 1e3f
000002e0: d5b4 c6bf 0935 eb3f adc9 87bf ad40 c8bf
000002f0: b935 a0bf f126 e53f 1c96 e5bf 2a95 1c40
00000300: 218e 0f3c e7de 1fc0 566c 2040 8a7b 3140
00000310: 38c0 8a3f c930 58c0 fb4e 24c0 7db8 083d
00000320: fb31 263f 0724 4cc0 28ed 27c0 8a3a 93bf
00000330: d741 a5bf e939 2a40 539e 59c0 5361 0240
00000340: c2b2 c3bf 0087 a7bf 290e 983f e2df 633f
00000350: aad9 4dc0 0748 ad3d 6701 23c0 79f5 fb3f
00000360: a97b 153f ad68 45c0 82b4 f53f 626a 7e3f
00000370: b798 fb3f e0a7 8cbf dac7 fc3f 4711 e8bf
00000380: 235a 2bbf 861a 903f f0af 3bc0 1a1f 4440
00000390: 9e0a 48c0 bd2c 3d40 187c e5bf 0990 29c0
000003a0: 8380 1440 6fb2 13c0 ca41 29be 52d7 1840
000003b0: 3846 0540 aeb5 de3f ce5f 553e 51ca 1e40
000003c0: 5e44 e33f d179 993e 3e2f 2dc0 255c 1cc0
000003d0: e3b5 e03e 48e0 28c0 dcd3 3bc0 1053 dabf
000003e0: 6818 f43f 3c7f 0140 0239 10bf 4dfb 05c0
000003f0: 888e 603f eceb 0f40 ca0d 9abf c7a3 b73f

mobilenet/dw_conv_11/pointwise_convolution/Conv2D_bias f4 [51]
-0.00012556004 -0.0012491463 0.06033117 0.017599896 0.011699628 0.013207063 0.07922377 0.015220866
0.2515548 -0.078044 0.23662448 0.106009245 0.121685356 -7.8438134e-05 0.035157662 0.0035497022
0.19347878 0.0044809193 0.08730263 0.16782244 0.34360567 -0.11199705 -0.0009090325 -0.115437716
-0.00095394335 -0.011375513 0.3020534 -0.00034722904 0.19475684 -1.2702658e-06 -0.00024107752 3.8652368e-05
-0.0052310675 0.29683837 0.13835098 0.39440805 -9.74405e-05 -7.559765e-05 0.31763572 0.05358966
-0.0001115984 -0.049901117 -7.3585536e-05 0.0037018599 0.09643255 0.11453105 0.21513079 -0.050514665
0.11931559 -0.0009318286 -0.00031602077
00000000: c4a8 03b9 65ba a3ba d11d 773d a82d 903c
00000010: ccaf 3f3c 7062 583c 1240 a23d f060 793c
00000020: cacb 803e 88d5 9fbd b04d 723e 601b d93d
00000030: 2c36 f93d 277f a4b8 7b01 103d 1fa2 683b
00000040: 4d1f 463e add4 923b b9cb b23d a5d9 2b3e
00000050: 15ed af3e b65e e5bd 234c 6eba 9c6a ecbd
00000060: 0e12 7aba 5c60 3abc bea6 9a3e 4b0c b6b9
00000070: 566e 473e 007e aab5 c1c9 7cb9 aa1e 2238
00000080: 6069 abbb 33fb 973e e1ab 0d3e daef c93e
00000090: f858 ccb8 2e8a 9eb8 26a1 a23e d580 5b3d
000000a0: ef09 eab8 1d65 4cbd ef51 9ab8 e79a 723b
000000b0: 6e7e c53d 418f ea3d 3f4b 5c3e 77e8 4ebd
000000c0: bb5b f43d f545 74ba 97af a5b9

mobilenet/dw_conv_11/pointwise_convolution/kernel f4 [51, 1, 1, 51]
-3.9144172e-16 7.4323885e-35 7.410489e-35 -7.4052034e-35 -7.399168e-35 -3.406951e-22 -5.518687e-25 1.1078191e-17
7.411413e-35 -7.3473436e-35 7.415735e-35 7.397973e-35 -3.715889e-35 7.3905534e-35 -6.8457965e-22 7.366629e-35
-7.348481e-35 -7.2433415e-20 4.9132796e-25 -1.5829238e-24 -3.8326445e-22 -1.1593835e-13 7.353961e-35 -7.3416084e-18
-3.685057e-35 7.417415e-35 3.6491322e-35 7.420429e-35 -7.430811e-35 7.364831e-35 7.424046e-35 7.3480416e-35
-7.390931e-35 -1.1240758e-26 5.629111e-20 -7.400381e-35 5.3336066e-20 -7.354816e-35 -7.415979e-35 -7.4209814e-35
-3.7131114e-35 1.3547786e-22 -7.121834e-19 -3.684119e-35 7.404239e-35 3.931077e-29 -7.629203e-19 1.4880299e-26
-7.387163e-35 7.427572e-35 1.3596701e-18 7.4293223e-35 -7.3152184e-35 -7.4076836e-35 -7.394935e-35 -7.4290514e-35
7.418557e-35 -7.426721e-35 7.428795e-35 -7.428239e-35 7.3369255e-35 7.400108e-35 7.425925e-35 -3.7133155e-35
-7.424851e-35 7.4251696e-35 7.405897e-35 -7.3197786e-35 -7.424898e-35 7.425371e-35 7.425276e-35 7.420011e-35
-7.4275505e-35 -7.351085e-35 7.424777e-35 -3.7087828e-35 7.4143795e-35 -3.6205384e-35 7.4182515e-35 -7.3781596e-35
7.3787795e-35 -7.3859203e-35 -7.3764543e-35 7.348589e-35 7.4251685e-35 -7.4195395e-35 7.377505e-35 -7.4241956e-35
-7.3262215e-35 7.3214185e-35 -7.4141884e-35 -3.6900042e-35 -7.4266585e-35 7.4248465e-35 3.7066155e-35 7.3785666e-35
-7.4148594e-35 -7.4237267e-35 7.4273456e-35 7.3140475e-35 7.3894227e-35 -7.423126e-35 0.043617915 -7.545799e-35
3.192999e-08 -7.539538e-35 -8.518128e-08 -0.08118326 -0.019624785 0.08577182 -0.012386978 2.512094e-11
0.03990539 -7.1614364e-10 -3.7280907e-35 1.2457833e-11 0.08103357 7.5440645e-35 7.5434107e-35 -0.060919955
-0.06764937 -0.024834929 -0.02654518 0.019724788 1.8043655e-09 -0.033726566 -3.7110136e-35 0.038578723
3.7566638e-35 -4.0220068e-16 7.5340865e-35 2.656923e-09 7.536434e-35 1.9487065e-10 -7.535942e-35 0.024822712
0.068245076 -2.9481106e-10 0.0008362601 -7.5091084e-35 7.532414e-35 0.0145758325 -3.7601077e-35 0.01835259
-0.049380496 3.7388435e-35 -7.543356e-35 0.05306908 0.086516365 -0.0932206 7.483274e-35 0.06085318
0.09232652 -0.055883657 7.5882333e-35 1.1552405e-08 7.6211776e-35 1.03856436e-07 0.03775796 -0.010267805
0.020209154 0.017567527 4.3813366e-11 -0.0037229788 5.40602e-10 -3.7808008e-35 1.9879355e-11 -0.019980703
-7.6123895e-35 -7.5912363e-35 0.05155674 0.028079778 0.011058336 0.044510443 0.010131147 6.674547e-12
-0.029423384 3.783666e-35 0.0034646152 3.8173008e-35 7.6350166e-35 -7.621107e-35 4.127955e-10 7.6319924e-35
1.575873e-10 -7.590258e-35 -0.046739396 0.03364446 7.2711715e-12 -0.028018013 7.590231e-35 -7.623153e-35
-0.003988052 3.7948046e-35 -0.02130057 -0.013966559 -3.81482e-35 -7.614628e-35 0.019697892 -0.008470818
0.0077084443 7.5996255e-35 -0.010714945 -0.026997626 -0.004239135 7.464386e-35 4.6971045e-11 7.480519e-35
-7.839811e-10 0.0010539137 0.002779374 -0.0010760071 0.0019077712 -4.616706e-13 -0.002718776 1.9771264e-11
-3.7470498e-35 -2.5926097e-12 -0.0020631326 -7.465619e-35 -7.4621885e-35 -0.0019469355 0.0039028611 -0.00022519566
0.0020301102 -0.0006107964 -6.7289256e-12 0.0019550691 3.7264023e-35 -0.00034118618 3.7122886e-35 -7.486153e-35
7.4692455e-35 3.0304432e-13 7.474557e-35 -2.0670358e-12 -7.490498e-35 -0.0009228742 -0.0022034037 -8.731347e-12
-0.0011007695 -7.4384886e-35 -7.4349266e-35 0.00083459687 3.7435474e-35 0.00255635 0.0033394864 -3.7195485e-35
7.4809534e-35 -0.001366812 0.0003465273 -0.002266259 7.4381276e-35 0.0017479771 0.0011524453 0.029054727
00000000: 9aa6 e1a5 3796 c506 2d01 c506 34dd c486
00000010: 21b4 c486 03f0 cd9b 8bcb 2a97 475b 4c23
00000020: 7707 c506 6e53 c386 e124 c506 ffab c406
00000030: 0f92 4586 8079 c406 c9e6 4e9c aed6 c306
00000040: 2c5b c386 5007 ab9f 030f 1817 12f2 f497
00000050: 4dab e79b f488 02aa 7780 c306 c46d 07a3
00000060: 66ee 4386 5030 c506 6a05 4206 d344 c506
00000070: 7b8b c586 71ca c306 705d c506 2e58 c306
00000080: 127c c486 6aa5 5e94 e3e9 841f 62bc c486
00000090: 59df 7b1f 4986 c386 8a26 c586 9548 c586
000000a0: 416c 4586 5ec8 231b 0e33 52a1 a1e1 4386
000000b0: a4d6 c406 4c54 4710 a12c 61a1 0a5e 9314
000000c0: 6d62 c486 7075 c506 e2a6 c821 5981 c506
000000d0: cc78 c286 15ee c486 5297 c486 817f c586
000000e0: 1538 c506 a56f c586 c27d c506 fa79 c586
000000f0: 870c c306 86ba c406 3a6a c506 086f 4586
00000100: eb62 c586 1665 c506 ece1 c406 d597 c286
00000110: 3d63 c586 7566 c506 cf65 c506 fa41 c506
00000120: 4a75 c586 e46c c386 6a62 c506 5631 4586
00000130: a71b c506 3780 4086 0136 c506 2725 c486
00000140: 5f29 c406 f859 c486 8c19 c486 e85b c306
00000150: 1465 c506 c53e c586 b320 c406 755e c586
00000160: aec3 c286 fea2 c206 5a1a c586 bc31 4486
00000170: 386f c586 e362 c506 d613 4506 ec27 c406
00000180: eb1e c586 445b c586 e573 c506 d470 c206
00000190: ce71 c406 2d57 c586 b3a8 323d 0c9a c886
000001a0: 6523 0933 706f c886 e7ec b6b3 6943 a6bd
000001b0: 28c4 a0bc 23a9 af3d c0f2 4abc 54f7 dc2d
000001c0: d673 233d 21da 44b0 2438 4686 1829 5b2d
000001d0: eef4 a53d 3e8e c806 cb89 c806 3487 79bd
000001e0: c18b 8abd 9f72 cbbc 4775 d9bc e195 a13c
000001f0: 78fd f730 de24 0abd b34f 4586 b904 1e3d
00000200: 0fbd 4706 58da e7a5 564a c806 1595 3631
00000210: 505a c806 3643 562f f756 c886 0059 cb3c
00000220: 13c4 8b3d f812 a2af 7738 5b3a 58a0 c786
00000230: f43e c806 79cf 6e3c efeb 4786 2c58 963c
00000240: 3443 4abd 80ca 4606 6c89 c886 f75e 593d
00000250: 7e2f b13d 71ea bebd 86f0 c606 2f41 793d
00000260: b015 bd3d 43e6 64bd d7ba c906 0478 4632
00000270: 0c9b ca06 ae07 df33 17a8 1a3d 4c3a 28bc
00000280: ab8d a53c c6e9 8f3c 77b1 402e 38fd 73bb
00000290: 7c99 1430 9805 4986 54dc ae2d 92ae a3bc
000002a0: 3d5f ca86 47cf c986 292d 533d 9007 e63c
000002b0: 062e 353c 9550 363d 1cfd 253c fad6 ea2c
000002c0: 4f09 f1bc 982c 4906 990e 633b 68f6 4a06
000002d0: 3bf9 ca06 919a ca86 cdef e22f a6e4 ca06
000002e0: e244 2d2f 9fc8 c986 cf71 3fbd c6ce 093d
000002f0: e4d4 ff2c 0886 e5bc 6fc8 c906 7ea8 ca86
00000300: 34ae 82bb 34c4 4906 887e aebc ffd3 64bc
00000310: a4d4 4a86 796e ca86 795d a13c 30c9 0abc
00000320: 1e97 fc3b 5f08 ca06 bd8d 2fbc 202a ddbc
00000330: 71e8 8abb fb6f c606 b294 4e2e c6dd c606
00000340: c47f 57b0 7a23 8a3a 2826 363b cf08 8dba
00000350: 2e0e fa3a dff2 01ab 7e2d 32bb eee8 ad2d
00000360: 333a 4786 4e70 36ac 9f35 07bb 5f78 c686
00000370: 0661 c686 5130 ffba 25c7 7f3b 8022 6cb9
00000380: 990b 053b da1d 20ba c6c0 ecac 9e20 003b
00000390: 2921 4606 3ce1 b2b9 0e61 4506 1e04 c786
000003a0: 0d91 c606 4a99 aa2a 33b5 c606 6874 11ac
000003b0: b021 c786 0aed 71ba fb66 10bb 7e9a 19ad
000003c0: b247 90ba bbbf c586 7da7 c586 d9c8 5a3a
000003d0: 870a 4706 7088 273b 49db 5a3b dfc3 4586
000003e0: bbe0 c606 9a26 b3ba 1bae b539 8485 14bb
000003f0: 46bd c506 611c e53a a60d 973a 2e04 ee3c

mobilenet/dw_conv_12/dw_conv2d/sep_conv_bias f4 [51]
0.00017160189 -0.0013849067 -0.8570745 -0.5758267 -0.058831446 -0.22123837 -0.34918892 -0.016073577
2.4317994 0.7098017 -1.2395978 -0.28459573 0.056366693 0.0054372577 0.6738995 -0.010452405
-0.67232597 0.00047891404 1.5789723 -0.3099289 -1.4883531 0.63257486 0.01840918 -0.2933499
0.019741341 -0.32334062 -1.4523343 -0.0003679641 -1.1635239 0.0017929926 0.008066196 -0.00043849304
0.11558038 -1.4128113 1.4812477 -1.5308838 6.775564e-05 0.00073530484 -1.4024153 -0.27565593
-0.0005550683 -0.6937886 -0.0011172871 0.024606682 2.1394548 1.5783482 -1.2821532 -0.23167703
2.2222793 0.012862917 0.0021773425
00000000: 08f0 3339 c285 b5ba 3c69 5bbf 6169 13bf
00000010: 3ef9 70bd 508c 62be e4c8 b2be bcac 83bc
00000020: 9aa2 1b40 90b5 353f 24ab 9ebf 88b6 91be
00000030: c3e0 663d 062b b23b ad84 2c3f 9040 2bbc
00000040: 8e1d 2cbf c116 fb39 c41b ca3f 00af 9ebe
00000050: 5b82 bebf 6df0 213f d9ce 963c f531 96be
00000060: 98b8 a13c e78c a5be 17e6 b9bf 4eeb c0b9
00000070: 5aee 94bf d902 eb3a 1428 043c 8ae5 e5b9
00000080: 68b5 ec3d 00d7 b4bf 8699 bd3f 00f4 c3bf
00000090: 0818 8e38 79c1 403a 5882 b3bf c622 8dbe
000000a0: 0182 11ba 219c 31bf ef71 92ba f493 c93c
000000b0: d4ec 0840 5007 ca3f 991d a4bf be3c 6dbe
000000c0: d339 0e40 fcbe 523c bfb1 0e3b

mobilenet/dw_conv_12/dw_conv2d/weights f4 [1, 3, 3, 51]
0.5647854 -3.3227813 -0.4337901 -1.9965012 -0.43230063 -3.5246482 -1.5364119 2.6631365
-0.100055575 -2.027974 3.5890558 -3.3962655 3.3022704 2.4365773 -2.977491 2.4922664
-3.366163 3.3107712 -1.958412 5.6294327 1.4914222 -2.1757853 -2.0918493 -3.1590781
0.077902 -0.08016548 0.767814 -0.08864286 2.5993068 0.4726148 1.2253566 -3.4081564
3.7136166 1.0969923 0.68164176 3.1697342 -2.950157 1.3612272 2.6173108 0.11092916
2.044165 3.3325746 -1.6698345 -3.211972 -2.9355025 -1.8370199 2.2198107 0.92066896
-2.53635 -2.9954824 -1.9666854 2.5602574 3.2206385 -0.20192127 -0.82087886 -2.40018
-0.6318637 -3.2147474 2.1800017 -0.4713746 -1.7241547 2.0556703 -3.5389612 2.12422
0.9614056 -2.83301 -1.6936737 2.3924024 -3.4454248 -0.16039474 0.76662105 0.59234357
-2.3318694 -0.9838783 0.4846642 -2.4926805 0.61148554 2.023815 -1.7559668 0.07262527
1.6774225 1.7101133 3.324602 -0.6712366 0.9953142 -1.41951 0.43627474 0.8478017
-1.9385666 -1.2755053 -4.4463935 -2.6450934 -0.38777182 2.023281 -2.1086361 -2.7298496
0.22919945 3.156875 3.573027 2.1360946 1.7560232 -0.063871466 -3.6810985 1.075871
2.8938198 0.7495182 -0.14354661 -2.1662714 -3.8823655 1.5107727 -1.1223865 -1.9805685
0.36443004 -0.26319265 0.9632473 3.0625365 -1.6803435 -0.3116862 4.74014 0.5714543
-3.9333484 -3.2230253 2.8122878 -1.7334955 -0.31921896 -2.8580987 -2.3502812 -1.9919932
2.9181755 -2.0130074 0.66187084 -1.6663345 -1.4065773 -1.0586728 -2.5592673 3.1879559
-0.79496366 1.390939 1.4163096 1.9917397 2.3087082 0.4031134 1.3299633 1.1128383
-2.2102377 -0.97632354 -1.9844043 -2.1709013 0.43240783 5.538244 -0.9832788 -1.3320898
-2.6768477 3.198752 -1.4294951 1.8801805 3.4055774 -0.07616754 -1.3513486 -0.08169187
-2.166325 1.0034181 0.3050426 3.2545452 -2.0207734 2.2389839 2.977386 0.35673544
-0.070919394 -1.5048019 -0.56684923 -2.8752153 0.5659031 1.1295046 -1.0668043 -3.566853
0.028304266 -0.078485005 -3.1796167 0.26713246 -0.14186026 1.5909617 0.26581317 -3.4116132
1.7580134 3.9475422 2.0363102 -2.5759752 -0.2005417 -2.7300448 0.12238418 0.6813411
0.100724794 0.7051501 1.837755 -1.7375796 -3.1089995 -3.1451557 -2.4949937 0.37808728
-2.4911692 -0.015307665 1.1170065 -1.7500176 1.5170339 -3.4518185 -2.463251 0.56117445
1.885835 -1.1069263 3.0448415 1.0022029 -0.35203058 -0.17206873 0.43947923 2.6840353
1.5659931 -2.244644 0.03888832 -2.897235 -0.16160862 -0.9030057 -3.9425051 -0.26686674
1.5261604 -0.6847169 -1.9071184 2.8823946 -2.1879458 -0.26031646 0.78115577 2.0672984
1.0095184 -0.49534777 -3.6570122 2.5746462 0.7154415 0.754271 -0.9250487 -0.3793368
1.443424 -1.2018479 0.7938068 2.94405 -1.8272557 2.9287014 2.7253926 0.4972318
-2.9011507 -1.6999166 0.37757257 2.8527017 -3.447972 -2.9626732 -3.2509787 0.15186192
00000000: c795 103f 73a8 54c0 bc19 debe 5a8d ffbf
00000010: 8256 ddbe d693 61c0 25a9 c4bf d470 2a40
00000020: f0e9 ccbd 53ca 01c0 17b3 6540 6a5c 59c0
00000030: 6658 5340 e2f0 1b40 368f 3ec0 4b81 1f40
00000040: 376f 57c0 ade3 5340 3fad fabf 5024 b440
00000050: ece6 be3f 1140 0bc0 dce0 05c0 562e 4ac0
00000060: 158b 9f3d cd2d a4bd 758f 443f 638a b5bd
00000070: 0b5b 2640 91fa f13e 7cd8 9c3f 3c1f 5ac0
00000080: e5ab 6d40 3e6a 8c3f 1380 2e3f eddc 4a40
00000090: 5fcf 3cc0 b13c ae3f 0582 2740 d42e e33d
000000a0: 99d3 0240 e748 5540 23bd d5bf f390 4dc0
000000b0: 46df 3bc0 7823 ebbf 6111 0e40 f6b0 6b3f
000000c0: 8f53 22c0 fcb5 3fc0 59bc fbbf 42db 2340
000000d0: f11e 4e40 73c4 4ebe 1e25 52bf 8d9c 19c0
000000e0: d2c1 21bf 6cbe 4dc0 2685 0b40 0358 f1be
000000f0: 1ab1 dcbf 1a90 0340 577e 62c0 38f3 0740
00000100: ad1e 763f 0950 35c0 4dca d8bf 1f1d 1940
00000110: d781 5cc0 853e 24be 4741 443f d4a3 173f
00000120: 593d 15c0 73df 7bbf e825 f83e 1488 1fc0
00000130: 518a 1c3f 2f86 0140 85c3 e0bf 8fbc 943d
00000140: c8b5 d63f fee4 da3f 47c6 5440 29d6 2bbf
00000150: e9cc 7e3f 81b2 b5bf 675f df3e 8809 593f
00000160: f322 f8bf c243 a3bf db48 8ec0 3649 29c0
00000170: 078a c6be 707d 0140 e5f3 06c0 dbb5 2ec0
00000180: 43b3 6a3e 3d0a 4a40 79ac 6440 c6b5 0840
00000190: 5ec5 e03f 0bcf 82bd 1e97 6bc0 24b6 893f
000001a0: 5834 3940 6de0 3f3f e2fd 12be 31a4 0ac0
000001b0: ad78 78c0 0061 c13f 5caa 8fbf 4583 fdbf
000001c0: 9396 ba3e 30c1 86be 6097 763f 9900 4440
000001d0: 7f15 d7bf 5595 9fbe 3aaf 9740 d44a 123f
000001e0: fbbb 7bc0 0c46 4ec0 86fc 3340 2ee3 ddbf
000001f0: ab70 a3be 17eb 36c0 026b 16c0 a2f9 febf
00000200: 63c3 3a40 1dd5 00c0 5e70 293f 734a d5bf
00000210: ba0a b4bf 9782 87bf 09cb 23c0 7807 4c40
00000220: bd82 4bbf 4a0a b23f a249 b53f 54f1 fe3f
00000230: e0c1 1340 e164 ce3e 3d3c aa3f 7c71 8e3f
00000240: 8974 0dc0 57f0 79bf f600 febf 0cf0 0ac0
00000250: 8f64 dd3e 4b39 b140 29b8 7bbf eb81 aabf
00000260: 7951 2bc0 5ab8 4c40 b2f9 b6bf c1a9 f03f
00000270: fbf4 5940 bafd 9bbd fef8 acbf 114e a7bd
00000280: 12a5 0ac0 0170 803f 8b2e 9c3e 784a 5040
00000290: 5a54 01c0 834b 0f40 7e8d 3e40 07a6 b63e
000002a0: 303e 91bd 599d c0bf 081d 11bf 8703 38c0
000002b0: 07df 103f 9b93 903f 0b8d 88bf 5247 64c0
000002c0: 59de e73c bfbc a0bd d77e 4bc0 96c5 883e
000002d0: d143 11be a2a4 cb3f aa18 883e df57 5ac0
000002e0: 9506 e13f 88a4 7c40 e852 0240 c7dc 24c0
000002f0: ce5a 4dbe 0eb9 2ec0 8fa4 fa3d 5f6c 2e3f
00000300: cd48 ce3d b884 343f 8e3b eb3f 0269 debf
00000310: d9f9 46c0 3b4a 49c0 faad 1fc0 a894 c13e
00000320: 516f 1fc0 00cd 7abc 12fa 8e3f 9400 e0bf
00000330: 2b2e c23f 98ea 5cc0 e8a5 1dc0 21a9 0f3f
00000340: 0b63 f13f c3af 8dbf afde 4240 2f48 803f
00000350: 5a3d b4be c932 30be 6c03 e13e 3cc7 2b40
00000360: 7672 c83f 3fa8 0fc0 5c49 1f3d 4c6c 39c0
00000370: bb7c 25be 622b 67bf 0152 7cc0 c2a2 88be
00000380: 3959 c33f 9b49 2fbf 751c f4bf 2779 3840
00000390: 4e07 0cc0 3348 85be d3f9 473f 9e4e 0440
000003a0: e637 813f 399e fdbe 7d0c 6ac0 01c7 2440
000003b0: 2d27 373f e717 413f fecf 6cbf 6f38 c2be
000003c0: 1ec2 b83f 27d6 99bf ec36 4b3f 516b 3c40
000003d0: 84e3 e9bf d86f 3b40 d56c 2e40 2b95 fe3e
000003e0: 74ac 39c0 de96 d9bf 3151 c13e aa92 3640
000003f0: 93ab 5cc0 709c 3dc0 0910 50c0 b181 1b3e

mobilenet/dw_conv_12/pointwise_convolution/Conv2D_bias f4 [102]
0.21288766 0.094107956 0.076657414 0.16153675 -0.00056592963 0.048593163 -0.00012237791 -0.0603756
-0.063657835 0.00030029265 -0.02338253 0.051229388 -0.032557003 0.037189156 0.09608446 -0.028390035
0.0006316683 -0.041646272 -0.06096175 0.20003238 0.07211954 0.13420562 -0.04915611 -0.13384336
-0.035945617 -0.064220995 -0.06441137 0.13884054 0.25091618 -0.15141921 0.2408748 0.07985337
-0.029254891 0.02976796 0.022488005 -0.10206711 0.15126717 0.14166169 -0.064936824 0.21212493
0.12469441 0.042822465 -0.043582052 0.0002947952 -0.00039911212 0.23119158 0.07115337 -0.07003249
-0.061300136 0.21924016 -0.004252441 -0.084010415 0.17695554 -0.018366396 -0.039930917 0.09282648
0.20531896 -0.03356625 0.26546994 0.025107928 -0.042556323 0.08702277 -0.0024893507 0.03871257
0.26429278 0.0632516 0.16472232 -0.078060836 0.12659691 0.065623865 -0.030273244 -0.050118793
-0.040358365 0.1618806 -0.03876877 0.21706223 -0.033511326 0.019733526 0.26424816 -0.04475551
-6.164781e-05 -0.053262047 0.20018154 -0.041834682 -0.05342026 0.007232368 0.074384786 -0.081383735
-0.03904495 -0.05697605 0.14429499 0.06363779 0.1196145 -0.07621523 3.594133e-05 -0.051533896
0.09638944 0.12545289 -0.041086867 0.2601633 -0.021872617 0.1854133
00000000: 39ff 593e acbb c03d 90fe 9c3d e469 253e
00000010: e55a 14ba a009 473d 9252 00b9 684c 77bd
00000020: 0a5f 82bd 9970 9d39 b88c bfbc e8d5 513d
00000030: 7e5a 05bd a853 183d eec7 c43d 3892 e8bc
00000040: 8b96 253a 4895 2abd 07b3 79bd 4ad5 4c3e
00000050: 69b3 933d 336d 093e eb57 49bd 3c0e 09be
00000060: b63b 13bd 4c86 83bd 1cea 83bd 372c 0e3e
00000070: 1678 803e a30d 1bbe e2a7 763e 2a8a a33d
00000080: f4a7 efbc f0db f33c c438 b83c 9008 d1bd
00000090: c8e5 1a3e c30f 113e 99fd 84bd 4737 593e
000000a0: c85f ff3d 9c66 2f3d 1883 32bd be8e 9a39
000000b0: ec3f d1b9 7cbd 6c3e dcb8 913d 326d 8fbd
000000c0: da15 7bbd 7e80 603e 1058 8bbb a70d acbd
000000d0: d533 353e 2075 96bc 9a8e 23bd cf1b be3d
000000e0: 223f 523e c47c 09bd adeb 873e 24af cd3c
000000f0: 8a4f 2ebd fe38 b23d 6024 23bb 1291 1e3d
00000100: 6251 873e 0e8a 813d f8ac 283e 5cde 9fbd
00000110: 9fa2 013e ce65 863d 98ff f7bc 5d49 4dbd
00000120: d04e 25bd 07c4 253e 00cc 1ebd 9045 5e3e
00000130: 2c43 09bd 34a8 a13c 894b 873e 8e51 37bd
00000140: ea48 81b8 4e29 5abd 64fc 4c3e d85a 2bbd
00000150: 34cf 5abd 80fd ec3b 0d57 983d 84ac a6bd
00000160: 99ed 1fbd b85f 69bd 11c2 133e 8854 823d
00000170: 72f8 f43d bb16 9cbd b6bf 1638 3515 53bd
00000180: d467 c53d b976 003e b44a 28bd 2034 853e
00000190: 342e b3bc fcdc 3d3e

mobilenet/dw_conv_12/pointwise_convolution/kernel f4 [102, 1, 1, 51]
1.7583494e-11 7.629252e-35 0.036272116 -0.009478954 -0.00034309548 0.031262662 -0.019972045 -0.00046080817
0.015529169 -0.010858894 0.026706342 0.024210481 -0.014890863 4.5585164e-11 -0.012645958 -0.00014784312
0.0064201304 0.0003252402 0.007038941 -0.015788386 -0.049706124 -0.010210332 4.046225e-10 0.037964523
1.2180289e-09 0.00885898 -0.030862043 3.8165288e-35 -0.014761429 -1.7334811e-10 2.5977756e-10 -3.7267533e-35
0.05396692 -0.03859893 -0.039289244 -0.05457472 -7.136712e-13 3.9013105e-11 -0.039185822 -5.396555e-06
3.7838262e-35 0.038873106 -3.786696e-35 -0.00018083627 0.010677366 0.0069787754 -0.0018613066 0.038990583
0.0026609737 4.7483284e-10 1.8683208e-10 5.031333e-13 -7.5073326e-35 -0.012385212 0.008327837 0.0005765533
-0.035550155 0.00050459366 -0.00043422965 -0.008863095 0.026433289 -0.008466688 -0.020418588 0.0007482086
1.5647829e-10 0.02680897 -3.92177e-05 -0.0019732113 -3.160197e-05 0.012135867 0.027384438 0.018695567
0.016840145 2.2113405e-11 -0.03312104 5.756697e-10 -0.000720318 0.02927366 -3.6767357e-35 0.01850778
4.3247662e-11 1.2898403e-10 -3.767709e-35 -0.040407784 0.019201815 0.0026816379 0.02248002 -4.488158e-12
-1.31502136e-11 0.017366545 -0.00078531774 -3.7318421e-35 -0.018537438 -3.7004978e-35 -6.1158025e-05 0.017274851
0.012096066 0.014146377 -0.025542071 0.011132402 5.231337e-10 1.0122067e-10 3.5725318e-12 -7.437311e-35
-0.00040226965 -0.013062619 -3.2226122e-05 -0.04559553 -0.002510185 3.1889966e-05 -0.0019773368 0.019277561
0.00323135 -0.017108906 -0.012729613 1.0797935e-10 0.007503392 -0.0002467951 0.015386011 -0.00056844327
-0.008007985 0.029023666 0.031674273 0.016580455 3.7670042e-10 -0.030964207 5.5989047e-10 -0.003525879
0.04001087 -3.7334283e-35 0.026721172 8.5720875e-11 2.9243352e-10 -3.7139305e-35 -0.040369395 0.029658897
0.0021491419 0.035513956 1.5815112e-12 -6.390065e-12 0.02926381 -0.0015502989 -3.7340468e-35 -0.024022356
-3.711858e-35 -0.00030952162 -0.0033396943 -0.016342262 0.022544391 -0.025867715 -0.0012256164 3.542482e-10
1.5554663e-10 5.292046e-12 -7.7228366e-35 -0.014390829 0.045333553 0.00028179286 -0.03051082 0.018719645
-0.0011678777 -0.014586455 0.020424426 -0.07152193 -0.027226437 0.0388243 -8.52385e-11 0.0591719
-0.00023518976 -0.033545677 -0.0009562294 0.027283836 0.037918963 0.013774016 0.009294773 5.8298183e-10
-0.025190212 4.1223708e-10 -0.010845711 0.012303348 3.811307e-35 0.010925882 -2.8294628e-10 -6.6741107e-10
-3.7933957e-35 -0.07206831 0.011349179 0.02874335 0.012385308 -2.4235681e-11 4.2228925e-11 -0.0010050237
-0.0014576031 3.8373772e-35 -0.026243217 -3.8221405e-35 0.00038371855 0.041745197 0.036618344 -0.01024417
-0.036461826 0.020500055 -4.5570943e-11 -1.4058876e-10 -3.6908187e-35 -3.6747575e-35 -3.7012055e-35 -3.714077e-35
-3.6799557e-35 3.682072e-35 3.714892e-35 3.6848442e-35 3.7037784e-35 3.6763835e-35 -3.6935818e-35 -3.6327445e-35
3.7035674e-35 -3.703073e-35 -3.6959657e-35 -3.7027986e-35 -3.7064252e-35 -3.7036148e-35 3.6601496e-35 3.705444e-35
-3.6262066e-35 -3.6536758e-35 -3.7170133e-35 -3.7029883e-35 -3.6978484e-35 -3.66701e-35 -3.7008517e-35 3.6864964e-35
-3.6946247e-35 -3.7048534e-35 -3.7038518e-35 3.7163417e-35 -3.708791e-35 -3.6581588e-35 3.705126e-35 -3.664153e-35
-3.7020564e-35 -3.6944e-35 -3.67172e-35 3.7001397e-35 -3.7065418e-35 -3.7091533e-35 3.6972385e-35 3.68068e-35
-3.7154446e-35 3.683318e-35 -3.701376e-35 -3.6710198e-35 3.7074822e-35 -3.7167128e-35 3.6432186e-35 6.996083e-13
00000000: 82aa 9a2d 00d2 ca06 1292 143d 9d4d 1bbc
00000010: 7fe1 b3b9 470d 003d 6a9c a3bc a098 f1b9
00000020: 0e6e 7e3c 81e9 31bc 42c7 da3c 0f55 c63c
00000030: cef8 73bc 557c 482e fe30 4fbc 5606 1bb9
00000040: f55f d23b 0085 aa39 eba6 e63b a556 81bc
00000050: a698 4bbd 3d49 27bc 8e71 de2f b080 1b3d
00000060: 9567 a730 4125 113c 65d2 fcbc e6eb 4a06
00000070: ecd9 71bc 2899 3eaf 71d0 8e2f f025 4686
00000080: 6b0c 5d3d e919 1ebd c2ed 20bd be89 5fbd
00000090: 6ee1 48ab da94 2b2e 5081 20bd 0e14 b5b6
000000a0: c62e 4906 6839 1f3d d655 4986 de9e 3db9
000000b0: 1ef0 2e3c 36ae e43b 16f7 f3ba 97b4 1f3d
000000c0: bb63 2e3b 6485 0230 8e6c 4d2f 939e 0d2b
000000d0: 4294 c786 58eb 4abc 7b71 083c d623 173a
000000e0: 0a9d 11bd b546 043a 51a9 e3b9 8436 11bc
000000f0: a08a d83c ddb7 0abc e244 a7bc 6e23 443a
00000100: b90c 2c2f 7c9e db3c af7d 24b8 fe50 01bb
00000110: 5b8c 04b8 84d5 463c 5455 e03c 7227 993c
00000120: 58f4 893c f682 c22d eda9 07bd 273d 1e30
00000130: b9d3 3cba 51cf ef3c 227d 4386 a19d 973c
00000140: 8a34 3e2e c7d1 0d2f 6653 4886 a282 25bd
00000150: 204d 9d3c 6bbe 2f3b 0528 b83c bce9 9dac
00000160: 4c57 67ad 4944 8e3c c8dd 4dba 346b 4686
00000170: d3db 97bc 91c0 4486 f741 80b8 fd83 8d3c
00000180: 942e 463c 35c6 673c 9b3d d1bc ae64 363c
00000190: 43cc 0f30 2c96 de2e 0365 7b2c b7b7 c586
000001a0: b8e7 d2b9 9804 56bc 892a 07b8 61c2 3abd
000001b0: ea81 24bb 97c1 0538 3596 01bb faeb 9d3c
000001c0: 0fc5 533b fa27 8cbc de8f 50bc f872 ed2e
000001d0: 04df f53b 4764 81b9 9c15 7c3c 9503 15ba
000001e0: ec33 03bc 0ac3 ed3c e2bc 013d bcd3 873c
000001f0: df17 cf2f a6a8 fdbc cae6 1930 6f12 67bb
00000200: 70e2 233d cb80 4686 5ce6 da3c 9080 bc2e
00000210: 5cc4 a02f 6777 4586 615a 25bd 37f7 f23c
00000220: 9ed8 0c3b 1577 113d f293 de2b 97d4 e0ac
00000230: a8ba ef3c 6633 cbba 3689 4686 88ca c4bc
00000240: 315b 4586 4a47 a2b9 c6de 5abb 35e0 85bc
00000250: 04af b83c 88e8 d3bc dda4 a0ba 00c0 c22f
00000260: 7c06 2b2f 8332 ba2c e74e cd86 83c7 6bbc
00000270: adaf 393d 99bd 9339 d4f1 f9bc f159 993c
00000280: 7913 99ba 07fc 6ebc 2051 a73c 177a 92bd
00000290: fa09 dfbc 3b06 1f3d 0271 bbae 3c5e 723d
000002a0: 459d 76b9 3167 09bd 78ab 7aba 5a82 df3c
000002b0: ea50 1b3d 69ac 613c 1b49 183c b33f 2030
000002c0: b45b cebc 36a1 e22f 36b2 31bc fb93 493c
000002d0: d3a4 4a06 7802 333c 268d 9baf e174 37b0
000002e0: 07b1 4986 8d98 93bd e8f1 393c 2d77 eb3c
000002f0: bfeb 4a3c e72d d5ad 8bb9 392e 00bb 83ba
00000300: 0b0d bfba ac07 4c06 04fc d6bc 4838 4b86
00000310: d52d c939 03fd 2a3d 1efd 153d 2ad7 27bc
00000320: ff58 15bd bbef a73c 526c 48ae 3894 1aaf
00000330: d23c 4486 3562 4386 33ca 4486 6679 4586
00000340: f6a8 4386 c4c5 4306 7d84 4506 80eb 4306
00000350: 38ed 4406 5778 4306 6e62 4486 5b26 4186
00000360: 59ea 4406 9ee3 4486 e182 4486 e2df 4486
00000370: 3f11 4586 feea 4486 609b 4206 e403 4506
00000380: 5ecd 4086 4243 4286 5da1 4586 77e2 4486
00000390: 819c 4486 c1f8 4286 62c5 4486 fd01 4406
000003a0: a070 4486 dafb 4486 38ee 4486 3998 4506
000003b0: 7231 4586 4780 4286 90ff 4406 ded1 4286
000003c0: c8d5 4486 916d 4486 dd38 4386 b1bb 4406
000003d0: d512 4586 6136 4586 3494 4406 d2b2 4306
000003e0: 038c 4586 bad6 4306 85cc 4486 552f 4386
000003f0: a21f 4506 469d 4586 ecb4 4106 17ec 442b
